bofire/benchmarks/models/baumgartner_aniline_cn_crosscoupling/baumgartner_aniline_cn_crosscoupling_predictor_3.pt (torch, 26391 bytes, 3 tensors)

input_layer.weight f4 [512, 10]
0	0x3e17d42f	0.14827035
1	0x3e65f07f	0.22455023
2	0x3e71309b	0.23553698
3	0x3e3c98d3	0.18417673
4	0x3dfac3af	0.12244355
5	0xbe9d5246	-0.30726832
6	0xbd494e04	-0.049146667
7	0xbd8c5121	-0.068514116
8	0x3e9c016b	0.30469832
9	0x3dbbb8a8	0.0916608
10	0xbd41dace	-0.04732781
11	0x3d782f98	0.060592264
12	0x3da5cbf7	0.08095544
13	0xbe5a9b96	-0.21348414
14	0xbdef479c	-0.1168358
15	0x3e70b980	0.23508263
16	0xbe09fcdc	-0.13475364
17	0xbe97823f	-0.29591557
18	0x3e25100e	0.16119406
19	0xbe9a75c6	-0.3016798
20	0xbc0805ca	-0.0083021615
21	0x3e815c30	0.25265646
22	0x3e95f84e	0.29291004
23	0xbe8259a4	-0.25459015
24	0xbcb61a2a	-0.022229273
25	0xbe676e9d	-0.2260079
26	0x3e711780	0.23544121
27	0x3e481bf2	0.1954191
28	0xbddd70e2	-0.10812546
29	0x3e8f0205	0.27931228
30	0x3d919439	0.07108349
31	0xbe4b9444	-0.19880778
32	0x3d28bc3f	0.04119515
33	0xbd93f01f	-0.07223534
34	0xbc96e7bb	-0.018421045
35	0xbe52952c	-0.20564717
36	0x3dffc0e2	0.12487961
37	0x3d0ddbc8	0.034633428
38	0xbe478ae4	-0.19486576
39	0x3d054645	0.032537717
40	0xbe905380	-0.28188705
41	0xbb6b4561	-0.0035899507
42	0xbe90411c	-0.28174675
43	0x3e9be446	0.30447596
44	0xbd1c31a2	-0.03813327
45	0xbe957a36	-0.29194802
46	0x3e6f1468	0.23347628
47	0xbd949bc1	-0.0725627
48	0xbe47ad28	-0.19499648
49	0xbe6a7cdc	-0.22899193
50	0xbe09b8a8	-0.13449347
51	0xbe8976a7	-0.26848337
52	0xbe9b7422	-0.3036204
53	0x3e4edff5	0.2020262
54	0xbc1d1a2f	-0.009588762
55	0x3e6571b7	0.2240666
56	0x3dafbe48	0.08581215
57	0x3e756223	0.23963217
58	0xbe949f18	-0.2902763
59	0x3d19e564	0.03757228
60	0x3e9eac51	0.30990842
61	0x3d002e76	0.03129431
62	0x3db42044	0.08795217
63	0x3d83abee	0.06429277
64	0x3d09f17b	0.03367756
65	0xbe1198ee	-0.14218494
66	0x3e266225	0.16248377
67	0xbd5d1919	-0.053979013
68	0xbdac99ff	-0.0842781
69	0x3e7a5a87	0.24448596
70	0xbe20e1bd	-0.15711112
71	0xbe650f99	-0.22369231
72	0xbe26d209	-0.1629106
73	0xbe3bc914	-0.18338424
74	0xbe432523	-0.19057135
75	0xbea0553e	-0.31315035
76	0xbe91ca97	-0.28474876
77	0xbd250961	-0.040292148
78	0xbe837dba	-0.2568186
79	0x3e024f93	0.12725668
80	0xbe21fac2	-0.15818313
81	0x3d47f113	0.04881389
82	0x3e288c79	0.16459836
83	0xbe6d67f9	-0.23184194
84	0x3e8ae4c8	0.2712767
85	0x3d87243b	0.06598707
86	0x3e01ae03	0.12664036
87	0xbd910f2d	-0.07082973
88	0x3ddf7835	0.109115995
89	0x3e17205d	0.1475844
90	0xbc1435d9	-0.009046041
91	0x3e922521	0.28543952
92	0x3e4b5e95	0.19860299
93	0xbe473a05	-0.19455726
94	0x3e7ea1aa	0.24866357
95	0xbc78db32	-0.015188979
96	0xbe24120b	-0.16022508
97	0x3e61c75a	0.22048703
98	0x3e26be39	0.16283502
99	0xbd29cd92	-0.041455813
100	0xbdd6504c	-0.10464534
101	0x3c862b9b	0.016378215
102	0xbe2372f5	-0.15961821
103	0x3ea3d426	0.31997794
104	0xbd59d061	-0.05317724
105	0x3e9f1224	0.31068528
106	0xbc40de0d	-0.011771691
107	0x3deec854	0.11659303
108	0xbde0f9f1	-0.109851725
109	0x3e8c8117	0.27442238
110	0xbe341107	-0.1758462
111	0xbe908e14	-0.28233397
112	0xbe95eb3a	-0.29281026
113	0x3e852b56	0.26009625
114	0xbe879deb	-0.2648767
115	0xbe640034	-0.22265702
116	0x3e921f56	0.28539532
117	0xbe504507	-0.20338832
118	0xbe3ef655	-0.18648656
119	0x3e9cefa2	0.30651575
120	0xbe2439bd	-0.1603765
121	0xbe97ceed	-0.2965006
122	0xbe39434a	-0.18092075
123	0x3ea12b8b	0.31478533
124	0x3e48b5b1	0.1960056
125	0x3e170dd4	0.14751369
126	0x3e73c482	0.2380543
127	0x3dc9308c	0.09823713
128	0x3c820134	0.015869714
129	0xbe3c826c	-0.18409127
130	0x3e3494f6	0.17634949
131	0xbe19b2d3	-0.15009622
132	0xbdeb8604	-0.11500171
133	0xbe36d527	-0.17854749
134	0x3e91e34e	0.28493732
135	0xbe8f8fd4	-0.2803942
136	0x399efeab	0.0003032585
137	0x3e1101b2	0.14160803
138	0xbdd82cba	-0.10555406
139	0xbe82681e	-0.2547006
140	0xbe0d3395	-0.13789208
141	0x3cd1f543	0.025629645
142	0xbd81e9cc	-0.06343421
143	0xbe52ae32	-0.20574263
144	0x3d87fb9e	0.06639789
145	0x3e0d7513	0.13814192
146	0x3d4c45ee	0.049871378
147	0x3e3a4c9c	0.18193287
148	0x3dcec6da	0.10096522
149	0x3e8b282a	0.2717908
150	0xbe54fb9c	-0.20799106
151	0xbc83e220	-0.016099036
152	0xbe8f51e4	-0.27992165
153	0x3df31b40	0.11870432
154	0xbe48856d	-0.19582148
155	0xbe23c792	-0.15994099
156	0xbd67850b	-0.056523364
157	0xbe43992c	-0.19101399
158	0xbe7f55ad	-0.24935026
159	0xbe841152	-0.25794464
160	0x3da95b71	0.08269394
161	0xbe5db2dc	-0.2165026
162	0xbe201a74	-0.15635091
163	0x3e818dc3	0.25303468
164	0x3d62b25b	0.055345874
165	0xbe99416f	-0.29932734
166	0x3d6cf1de	0.05784785
167	0xbe44df01	-0.19225694
168	0x3bfb2c40	0.007665187
169	0x3e00ca24	0.1257711
170	0xbd48c0e4	-0.04901208
171	0x3e809142	0.25110823
172	0xbdc24655	-0.09486071
173	0x3e837256	0.2567317
174	0x3e8c9692	0.27458626
175	0x3e15f926	0.14645824
176	0xbe3ef090	-0.18646455
177	0x3e24ff23	0.16112952
178	0xbe08a12e	-0.13342735
179	0x3e8a9d75	0.27073255
180	0x3e83e889	0.25763348
181	0xbd7a3123	-0.061082017
182	0x3e340772	0.17580965
183	0xbd7e3706	-0.062064193
184	0xbe2737a2	-0.16329816
185	0x3e8f5b73	0.27999458
186	0xbe178ff0	-0.14801002
187	0xbe562815	-0.20913728
188	0xbd7ea542	-0.06216932
189	0xbba6812b	-0.005081316
190	0xbe44af2b	-0.19207446
191	0x3ddc24f6	0.10749237
192	0xbd69d64e	-0.057089143
193	0xbd41a30c	-0.047274634
194	0xbdce1504	-0.10062602
195	0x3e7443c9	0.23853983
196	0x3d73993f	0.05947232
197	0x3b9faa8c	0.0048726257
198	0xbd0fb77c	-0.035087094
199	0xbdab9824	-0.08378628
200	0x3e6e4312	0.23267773
201	0x3e9651ec	0.29359376
202	0xbe4649ca	-0.19364086
203	0xbdbf7d7c	-0.09350106
204	0xbe89c51f	-0.26908204
205	0xbe39849e	-0.18116996
206	0x3e2680ca	0.16260067
207	0x3dcf590c	0.10124406
208	0xbe0e2768	-0.1388222
209	0x3e09b80c	0.13449115
210	0x3e5c9a53	0.21543245
211	0xbdd4915d	-0.10379288
212	0x3e0b3501	0.13594438
213	0xbe476f1b	-0.19475977
214	0xbe26ce5c	-0.16289657
215	0xbe8cd84c	-0.2750877
216	0x3e420899	0.18948592
217	0xbd9aff98	-0.07568282
218	0xbe8ed5bf	-0.2789745
219	0x3d0982ef	0.033572134
220	0x3e8369fb	0.25666794
221	0xbe35b050	-0.17743039
222	0x3d904a62	0.070454374
223	0x3e440474	0.19142324
224	0xbe337f35	-0.17528994
225	0xbe8fed2c	-0.28110635
226	0x3d43dca5	0.047817845
227	0xbe1253df	-0.14289807
228	0xbe2a9f84	-0.16662413
229	0x3e068d9f	0.13139962
230	0xbe5cf714	-0.21578628
231	0x3d19015e	0.03735482
232	0x3d335105	0.043778438
233	0x3ea0ce01	0.31407169
234	0xbe0f63f4	-0.14002973
235	0xbe8d9936	-0.27655953
236	0x3dcccd65	0.100001134
237	0x3daf15b4	0.085490614
238	0x3e35150d	0.17683811
239	0x3e853a42	0.2602101
240	0xbe4079b8	-0.18796432
241	0xbe8dc396	-0.27688283
242	0xbe875039	-0.26428393
243	0xbd8c82d3	-0.0686089
244	0x3bf7636c	0.007549694
245	0x3c7f481d	0.015581158
246	0xbdc4abf8	-0.09603113
247	0xbe9489e7	-0.2901146
248	0x3e2a9e2c	0.166619
249	0xbe550421	-0.20802356
250	0xbe2358a2	-0.1595178
251	0xbc7e84f3	-0.015534627
252	0x3e8783fe	0.2646789
253	0x3e5b9976	0.2144526
254	0xbddcc7ca	-0.10780294
255	0xbe8a9fc6	-0.27075022

input_layer.bias f4 [512]
0	0xbdc86e8a	-0.09786709
1	0xbe7a08e2	-0.24417451
2	0xbe586d3a	-0.21135417
3	0xbe222648	-0.15834916
4	0xbe104d1d	-0.14091916
5	0xbcce62f1	-0.025193663
6	0xbe84b5f3	-0.25920066
7	0x3e4399a6	0.19101581
8	0x3c8afbcd	0.016965771
9	0x3e4d0239	0.20020379
10	0xbe8d1ec7	-0.27562544
11	0xbdbfcdf1	-0.09365452
12	0xbe2917f6	-0.16513047
13	0x3e98eb5f	0.29867074
14	0x3e4b4207	0.19849406
15	0xbbb6781b	-0.005568517
16	0x3dff70be	0.12472676
17	0xbe75a664	-0.23989254
18	0x3b550b25	0.0032507863
19	0xbd31fe4e	-0.043455414
20	0x3cde5ea9	0.027144747
21	0xbe55f748	-0.20895112
22	0x3e9af84a	0.30267555
23	0x3e93fbc1	0.2890301
24	0xbe7e3af0	-0.2482717
25	0x3e1651a7	0.14679585
26	0x3e0bb70c	0.13644046
27	0x3ddb2705	0.10700802
28	0x3b2d9a9c	0.002648986
29	0xbd0f8fd6	-0.035049282
30	0x3e8f476b	0.27984175
31	0x3e5b1d11	0.21397807
32	0xbe65dd67	-0.2244774
33	0x3e0dd9fd	0.13852687
34	0xbe1f9d62	-0.1558738
35	0xbe835483	-0.25650415
36	0x3b9023c3	0.0043987944
37	0x3e9ab24e	0.3021416
38	0xbe8c58e7	-0.27411577
39	0x3e67a9d8	0.22623384
40	0x3e4d568c	0.20052546
41	0xbe5e6828	-0.2171942
42	0xbe5a0791	-0.21291949
43	0xbe49f016	-0.19720492
44	0xbe2fe02d	-0.1717536
45	0xbe58f491	-0.21187045
46	0xbd224b84	-0.0396228
47	0x3e97b6d0	0.29631662
48	0xbe9d92f7	-0.30776188
49	0xbc4979fd	-0.012297151
50	0xbe7d1f9a	-0.24719086
51	0x3dd6ddfb	0.10491558
52	0xbce76b67	-0.028249456
53	0xbe91fd76	-0.28513688
54	0x3ddc01b3	0.107425116
55	0xbe00e967	-0.12589036
56	0xbd6c330c	-0.05766587
57	0x3e92ca3a	0.28669912
58	0x3c021379	0.007939213
59	0x3e29a49f	0.16566704
60	0xbe9a5309	-0.30141476
61	0xbe47ce9b	-0.19512407
62	0x3c9cd6f4	0.019145466
63	0xbe749cc2	-0.23887923
64	0xbe4f3355	-0.20234425
65	0x3de6e6e6	0.11274509
66	0xbe9ef285	-0.31044403
67	0x3a46c96d	0.00075831154
68	0xbe5c7156	-0.21527609
69	0x3d2ad6a1	0.041708592
70	0x3dbbf44e	0.09177457
71	0x3e255bee	0.1614835
72	0xbd84843e	-0.06470536
73	0xbe46e051	-0.19421507
74	0x3df907d6	0.12159698
75	0x3e3f63b0	0.18690372
76	0xbe95126e	-0.29115623
77	0x3e0c7a99	0.13718642
78	0x3e89a644	0.26884663
79	0xbe5f804c	-0.21826285
80	0x3e32acf9	0.17448796
81	0xbe416f82	-0.18890193
82	0xbe401775	-0.18758948
83	0xbe9e6383	-0.30935296
84	0x3a987e5d	0.0011634339
85	0xbe8fcdcf	-0.28086707
86	0x3e1cd79e	0.15316626
87	0x3bc4a9e6	0.006001699
88	0x3e2cf68d	0.16890927
89	0x3ea0b7fc	0.3139037
90	0xbe0f9434	-0.14021379
91	0xbe008785	-0.12551697
92	0xbe60d475	-0.21956046
93	0x3db85e52	0.09002365
94	0x3e6400a1	0.22265865
95	0xbe3b6124	-0.18298775
96	0xbe3da02d	-0.18518133
97	0xbdf98631	-0.12183798
98	0xbe33fda1	-0.1757722
99	0xbd5175fa	-0.0511379
100	0x3d061b28	0.032740742
101	0x3e86f7df	0.26360986
102	0xbc24416e	-0.010025365
103	0x3d1e87c0	0.03870368
104	0x3e8fb02c	0.28064096
105	0xbe89d8ed	-0.26923314
106	0x3e83d1ae	0.2574591
107	0x3bbcbee3	0.00576006
108	0x3d853049	0.0650335
109	0x3c4f73bd	0.0126618715
110	0x3e338b89	0.17533697
111	0x3dd7efa5	0.105437554
112	0xbe9b8bbb	-0.30380043
113	0xbe87a910	-0.26496172
114	0xbc3d44cd	-0.011552048
115	0xbe7d0fa8	-0.24713004
116	0x3d8d3130	0.068941474
117	0xbc3ae8cc	-0.011408042
118	0xbc25216c	-0.010078769
119	0x3e72d61c	0.23714489
120	0xbe5e4cce	-0.21708986
121	0x3ea15942	0.3151341
122	0xbc553581	-0.013013245
123	0x3e8b6e01	0.27232364
124	0xbe9ec648	-0.31010652
125	0x3e455d94	0.19273978
126	0x3e1efdcc	0.15526503
127	0xbe97150d	-0.29508248
128	0xbcc0b60e	-0.02352431
129	0x3bb99391	0.0056633432
130	0xbe09b4b2	-0.13447836
131	0x3dcb7049	0.09933526
132	0x3e93576f	0.28777644
133	0xbb569d64	-0.003274762
134	0xbe341530	-0.17586207
135	0xbe1fd745	-0.15609463
136	0xbe5b7672	-0.21431902
137	0xbe99bcd0	-0.30026865
138	0xbda2ab20	-0.07942796
139	0xbd6fe8e4	-0.05857171
140	0x3e3a015e	0.18164584
141	0x3e919949	0.2843726
142	0xbe8d89f2	-0.27644306
143	0x3e94b50e	0.29044384
144	0xbd54a82f	-0.051918205
145	0x3d9467d7	0.072463684
146	0x3e8da739	0.27666643
147	0x3e98eb5c	0.29867065
148	0xbcb93e7e	-0.022612806
149	0xbe16725a	-0.14692059
150	0xbe7762bc	-0.24158758
151	0xbe08105b	-0.13287489
152	0x3e944716	0.28960484
153	0x3e7a57ec	0.24447602
154	0xbdc40938	-0.09572071
155	0xbe60af19	-0.21941794
156	0xbe734803	-0.23757939
157	0x3e802481	0.2502785
158	0xbe9c4958	-0.30524707
159	0xbd8bdc81	-0.06829167
160	0x3e968777	0.29400226
161	0x3ea50002	0.32226568
162	0x3d736c70	0.059429586
163	0x3e7d4e7c	0.2473697
164	0xbd832daa	-0.06405194
165	0x3e7873d5	0.24262936
166	0xbe1318c5	-0.14364918
167	0xbe1f3447	-0.15547286
168	0x3db17b94	0.08666149
169	0x3e8ff4f9	0.28116587
170	0x3c9ee05c	0.019394092
171	0xbd5b3ddf	-0.0535258
172	0xbe896984	-0.26838315
173	0x3e8d4b75	0.27596632
174	0xbe777398	-0.2416519
175	0xbe6d7c19	-0.23191871
176	0xbd3f3be6	-0.046687983
177	0xbe205e55	-0.15660985
178	0x3e4aa899	0.19790877
179	0x3e37012f	0.17871545
180	0xbd5fed82	-0.054669864
181	0x3e84182b	0.2579969
182	0x3c12f7d9	0.008970224
183	0x3e8896e6	0.26677626
184	0x3e370080	0.17871284
185	0x3c3fd929	0.01170949
186	0xbe867d2f	-0.26267383
187	0x3e074cca	0.13212886
188	0xbe4624be	-0.19349954
189	0x3e829214	0.25502074
190	0xbe2fd92b	-0.17172687
191	0xbe81d982	-0.25361258
192	0x3e93cdd3	0.2886797
193	0x3d4c780c	0.049919173
194	0x3cbd8d27	0.023138596
195	0x3e11e4c9	0.14247431
196	0x3e035e5a	0.12828961
197	0x3d67ac03	0.056560528
198	0xbbdd2439	-0.006748703
199	0x3d89d6bf	0.06730413
200	0xbd1dae69	-0.03849641
201	0xbe98466b	-0.29741225
202	0x3e9d8c22	0.30770975
203	0x3da6370e	0.081159696
204	0x3dbbd93a	0.09172292
205	0x3dcc7e31	0.099850066
206	0x3e94f029	0.29089478
207	0xbe5bcafe	-0.21464154
208	0xbe419e4a	-0.18908039
209	0x3e8e71f9	0.2782133
210	0x3e9360f0	0.28784895
211	0xbd093bd9	-0.03350434
212	0xbe448eec	-0.19195145
213	0x3e840e25	0.2579204
214	0x3e8dad35	0.2767121
215	0xbccd2e74	-0.025046565
216	0xbdb7afd9	-0.08969087
217	0x3dc4307a	0.09579559
218	0xbd1891fd	-0.0372486
219	0xbe6657d0	-0.22494435
220	0x3d9a610b	0.07538041
221	0x3e316f47	0.17327605
222	0xbdf92b4c	-0.12166461
223	0x3e30cecd	0.17266388
224	0x39aed239	0.00033344494
225	0x3e8b277d	0.27178565
226	0xbd2df6e2	-0.042471774
227	0x3e54f274	0.20795614
228	0x3da4f8c5	0.080552615
229	0xbd1e09ff	-0.03858375
230	0xbca52a47	-0.020161761
231	0xbe66c481	-0.22535898
232	0xbd1c062a	-0.038091816
233	0xbda7a870	-0.08186424
234	0xbe5ffcc1	-0.21873762
235	0x3e67877a	0.22610274
236	0x3e142e3e	0.14470765
237	0x3d18514e	0.037186913
238	0xbd9b9fee	-0.075988635
239	0x3e43bcc0	0.19114971
240	0x3cb062f8	0.021531567
241	0xbe8b6c1b	-0.27230915
242	0x3e02fde5	0.12792166
243	0xbc7f2dc2	-0.015574874
244	0xbb31adce	-0.0027111652
245	0xbdd12b77	-0.102133684
246	0x3e9ad61a	0.30241472
247	0xbcd82232	-0.026383493
248	0xbe792cae	-0.2433345
249	0xbe89ca69	-0.2691224
250	0x3c12e921	0.008966715
251	0x3e4196f6	0.18905243
252	0x3ca0faa9	0.019650774
253	0xbe7c0a2b	-0.24613254
254	0x3d7d8389	0.06189302
255	0xbcbc9ef1	-0.023025008

output_layer.weight f4 [1, 512]
0	0x3dc043aa	0.09387906
1	0x3d02cbf1	0.031932775
2	0xbd864e39	-0.065578885
3	0x3ccd65fd	0.025073046
4	0xbd37772d	-0.04479139
5	0x3e103bed	0.1408536
6	0xbd48bbbe	-0.04900717
7	0x3e035b0a	0.12827697
8	0x3cf67d88	0.030089155
9	0x3d10d7ef	0.03536218
10	0xbd2ae3e3	-0.041721236
11	0x3c467d34	0.012114812
12	0xbd69f7c0	-0.05712104
13	0x3d627eae	0.055296592
14	0x3a74ba5d	0.00093356316
15	0xbd41c967	-0.047311213
16	0xbda98449	-0.082771845
17	0xbdd340e5	-0.10315112
18	0xbc75294e	-0.014963461
19	0x3d2eac16	0.042644583
20	0x3c981c83	0.018568283
21	0xbcdb8780	-0.02679801
22	0xbdd01161	-0.10159565
23	0xbc5963b2	-0.013268398
24	0xbd29d80b	-0.0414658
25	0x3d32ebb1	0.043681804
26	0x3e13629a	0.14393082
27	0xbdea66b6	-0.11445372
28	0xbdec034e	-0.11524068
29	0x3cb07d54	0.021544136
30	0x3c7b984a	0.015356133
31	0xbb39e861	-0.0028367268
32	0x3d364e0a	0.044508018
33	0x3dbb725a	0.0915267
34	0x3d5af1ac	0.053453133
35	0xbd05e11b	-0.03268538
36	0xbc3dd81d	-0.01158717
37	0x3c965730	0.018352121
38	0x3c087bae	0.008330269
39	0x3dbc042c	0.09180483
40	0x3e15453f	0.14577197
41	0x3e301960	0.1719718
42	0xbd8ad1dd	-0.067783095
43	0x3cca9b36	0.024732213
44	0x3d7c4bd6	0.06159576
45	0xbc08651d	-0.008324889
46	0xbe079ed3	-0.1324418
47	0x3d11fba3	0.03564037
48	0xbcac713c	-0.021050088
49	0x3d41c7b6	0.0473096
50	0xbd1545ac	-0.036443397
51	0xbc193a11	-0.009352223
52	0x3da6a483	0.08136847
53	0x3d26cebb	0.040724497
54	0xbde9dec0	-0.11419439
55	0x3d06d96a	0.032922186
56	0xbce5c37b	-0.028047314
57	0xbd8452e8	-0.064611256
58	0xbd2ee071	-0.042694513
59	0xbd146a77	-0.036234345
60	0xbb893ab1	-0.0041879048
61	0x3cccd64f	0.025004534
62	0xbd2e068d	-0.042486716
63	0xbcdad551	-0.026713045
64	0xbd100451	-0.035160366
65	0x3c21db17	0.009878895
66	0x3cdac9aa	0.026707489
67	0xbd7de5a4	-0.06198658
68	0xba3f738a	-0.00073032884
69	0xbd8a21ba	-0.06744714
70	0x3cd8c903	0.026463037
71	0xbdc3e8f6	-0.09565918
72	0xbbe12934	-0.006871367
73	0x3c8eee7e	0.017447706
74	0x3d1defb6	0.038558684
75	0x3cafd2a0	0.021462739
76	0x3ddb26af	0.10700738
77	0x3d31d28d	0.043413687
78	0x3c46a384	0.012123946
79	0x3c2071ca	0.009792754
80	0xbd945bac	-0.072440475
81	0x3d02e76e	0.03195899
82	0x3ca45989	0.020062225
83	0x3c2fe25a	0.010735119
84	0xbc2da66d	-0.010598761
85	0x3d033056	0.03202852
86	0xbd910e02	-0.0708275
87	0x3e1d425e	0.15357348
88	0xbdca6011	-0.098816045
89	0x3ae4de65	0.0017461298
90	0xbccfc094	-0.025360383
91	0x3d2188b7	0.039437022
92	0x3cd21a7b	0.025647392
93	0x3d72faee	0.059321336
94	0x3d0426e6	0.03226366
95	0xbc757a3f	-0.014982759
96	0x3d3c7071	0.04600567
97	0x3da0bd35	0.078485884
98	0xbd8da4ef	-0.06916224
99	0xbc970d79	-0.018439041
100	0xbcce9a6e	-0.025220122
101	0xbda24fe1	-0.07925392
102	0xbd90a960	-0.07063556
103	0x3d73959d	0.059468854
104	0xbd9cfba6	-0.07665186
105	0x3ddf9849	0.10917718
106	0x3c832705	0.016009817
107	0xbbc8624f	-0.006115235
108	0xbd4c76c3	-0.049917948
109	0x3ba83e1c	0.005134357
110	0xbca82ffc	-0.020530693
111	0xbdeda840	-0.11604357
112	0xbd50f78d	-0.051017333
113	0xbd9f073d	-0.077650525
114	0x3dd91045	0.10598806
115	0x3d08e955	0.033425648
116	0xbdd6c4da	-0.10486765
117	0x3dbc03d5	0.091804184
118	0x3cb7e055	0.022445837
119	0xbdf1edc1	-0.11812926
120	0xbcf737e7	-0.030178024
121	0xbd3f2117	-0.046662416
122	0x3d3bc164	0.04583873
123	0x3cf4482e	0.029819574
124	0x3cd04109	0.025421636
125	0x3c28ba6a	0.010298351
126	0x3d9ccc19	0.07656116
127	0xbc2e4259	-0.010635936
128	0xbd01ab56	-0.03165754
129	0x3d9450f5	0.07242004
130	0xbcc78273	-0.024354195
131	0x3ce18b52	0.027532253
132	0xbd1151b8	-0.035478324
133	0xbd0340d3	-0.032044243
134	0xbd4a1c87	-0.049343612
135	0xbd9f48bd	-0.077775456
136	0xbc318626	-0.010835206
137	0x3d419e5e	0.04727017
138	0xba89f15e	-0.0010524204
139	0x3c05be27	0.008163012
140	0x3d5e9955	0.054345448
141	0x3e1d6ec0	0.15374279
142	0xbbd4dba5	-0.00649591
143	0xbb4d684b	-0.003134268
144	0xbda12cfb	-0.078699075
145	0xbd6e34b1	-0.05815572
146	0xbd69b894	-0.057060793
147	0x3daea157	0.08526867
148	0x3ce39424	0.0277806
149	0xbd3cc586	-0.04608681
150	0xbd8b3716	-0.06797616
151	0x3d7155a0	0.05891955
152	0xbca78664	-0.020449825
153	0x3d0083ef	0.03137582
154	0x3d0713ab	0.03297774
155	0x3d443fef	0.047912534
156	0xbdcf8a56	-0.10133807
157	0x3d8507c8	0.06495625
158	0xbb17b514	-0.0023148702
159	0xbba5fb4a	-0.0050653564
160	0x3d83ec3f	0.06441545
161	0x3e039c02	0.12852481
162	0xbd738e76	-0.059462033
163	0x3cc2a06c	0.023758136
164	0x3bef2ea6	0.007299262
165	0xbd8bd9ac	-0.06828627
166	0xbb5dd0dd	-0.0033846416
167	0xbd26225f	-0.040560123
168	0xbc9b06ed	-0.0189242
169	0xbe0da118	-0.13830984
170	0x3d063468	0.032764822
171	0xbe2ff703	-0.17184071
172	0xbc477d52	-0.012175875
173	0x3d77e974	0.060525373
174	0x3c773ca5	0.015090142
175	0x3dcefea1	0.1010716
176	0x3d487e3b	0.048948508
177	0x3d19f061	0.03758276
178	0x3d836374	0.064154536
179	0xbd96ddc4	-0.07366517
180	0x3d968c8b	0.07351025
181	0xbafd5e25	-0.0019330425
182	0x3cb3a08f	0.021927146
183	0x3dd90dde	0.10598348
184	0xbc83e935	-0.016102413
185	0x3d1e9cf0	0.038723886
186	0x3be565d8	0.007000666
187	0x3b2214d9	0.0024731664
188	0x3ca54411	0.020174058
189	0xbd0d212a	-0.034455456
190	0x3c58d59c	0.013234522
191	0xbab8cbbf	-0.0014098807
192	0xbd18d6e9	-0.03731433
193	0xbbe5b3ee	-0.0070099747
194	0xbd0b2dea	-0.033979334
195	0xbdb49ae3	-0.08818605
196	0xbe2fdc3d	-0.17173858
197	0xbc71dfd8	-0.014762841
198	0x3d4118ef	0.04714292
199	0x3d4f3299	0.050585363
200	0x3d92343c	0.07138869
201	0xbcbe2f40	-0.02321589
202	0x3d31bdb4	0.043393806
203	0x3de5b888	0.11216837
204	0xbd46210c	-0.04837136
205	0x3d354f16	0.044264875
206	0x3daed117	0.085359745
207	0xbd493923	-0.049126755
208	0xbcfaf2d0	-0.03063336
209	0xbd8c24ea	-0.06842978
210	0x3d80f798	0.06297225
211	0xbc4d7c1a	-0.012541795
212	0xbc21b770	-0.009870395
213	0x3db13c38	0.08654064
214	0x3dbd46dd	0.09242032
215	0xbd57978c	-0.05263476
216	0x3d14cdb1	0.036328975
217	0xbe296d16	-0.16545519
218	0xbd26c808	-0.04071811
219	0xba389038	-0.0007040533
220	0x3c723c72	0.014784919
221	0xbd54375c	-0.051810607
222	0xbcedec03	-0.029043203
223	0xbd3a6644	-0.045507684
224	0xbcaa7dea	-0.020811994
225	0x3c17bbfb	0.009261127
226	0xbd3bad3e	-0.045819513
227	0x3ade3b30	0.0016954895
228	0x3d2ea8a5	0.0426413
229	0x3cab2daa	0.020895798
230	0xbc63d8bf	-0.013906657
231	0x3cd910c7	0.026497258
232	0x3c96d03a	0.018409837
233	0x3d3bceb0	0.04585141
234	0xbdd5d80e	-0.104416
235	0x3ccb867b	0.024844399
236	0xbd98255a	-0.07428999
237	0x3719b1a1	9.160868e-06
238	0x3e1c3d6d	0.15257807
239	0x3d82ccaf	0.063866965
240	0x3bd2810f	0.0064240764
241	0xbd5d5050	-0.05403167
242	0xbd472348	-0.04861763
243	0x3cacd099	0.02109556
244	0x3ce352ad	0.027749384
245	0xbcd14eba	-0.025550235
246	0x3dac1878	0.084031045
247	0x3d61c8b7	0.055123057
248	0x3c1a7d49	0.009429284
249	0xbd1036e0	-0.035208583
250	0xbce590d7	-0.028023167
251	0xba90080e	-0.0010988729
252	0x3d3ff84d	0.046867657
253	0x3be632cf	0.0070251
254	0x3e0cec79	0.13762082
255	0x3ba21a69	0.004946996
