bofire/benchmarks/models/baumgartner_aniline_cn_crosscoupling/baumgartner_aniline_cn_crosscoupling_predictor_1.pt (torch, 26391 bytes, 3 tensors)

input_layer.weight f4 [512, 10]
0	0xbda6ef7a	-0.08151145
1	0xbe54d98e	-0.20786116
2	0x3e21d276	0.1580294
3	0xbe6b828e	-0.22999021
4	0x3bcd9d80	0.006274879
5	0xbe1957d5	-0.14974912
6	0xbe9883f5	-0.29788175
7	0xbe13ad2b	-0.14421527
8	0xbe6c8574	-0.23097783
9	0xbd7da490	-0.061924517
10	0xbc21d408	-0.009877212
11	0x3d65706b	0.056015413
12	0x3e81b3bd	0.25332442
13	0xbe81cef4	-0.25353205
14	0xbe800f88	-0.2501185
15	0x3e44e9a8	0.19229758
16	0xbe99218b	-0.29908404
17	0xbdec86bd	-0.11549137
18	0xbe6f31b6	-0.23358807
19	0xbd0a8a20	-0.033823133
20	0x3e28b3f4	0.16474897
21	0xbdf738eb	-0.12071403
22	0xbe530290	-0.20606446
23	0xbdbbc7b9	-0.091689534
24	0x3d1dd639	0.038534377
25	0xbe86c3c6	-0.26321238
26	0xbd7cec85	-0.061749
27	0x3e122050	0.14270139
28	0x3e99714a	0.29969245
29	0x3d0a8684	0.03381969
30	0xbda372e9	-0.07980902
31	0xbe7eb070	-0.24871993
32	0xbd94caf0	-0.0726527
33	0xbe2f1f39	-0.17101754
34	0xbc0e2526	-0.008675849
35	0x3e74e28c	0.23914546
36	0x3dcd1510	0.10013783
37	0x3d959570	0.073038936
38	0x3e17eee4	0.14837223
39	0x3e2f9eb1	0.1715038
40	0x3e25c13f	0.16186999
41	0xbe46ffd5	-0.1943353
42	0xbd09536b	-0.03352682
43	0x3c978894	0.018497743
44	0x3e9d98af	0.3078055
45	0x3e9c0377	0.30471393
46	0xbbed635a	-0.0072445096
47	0xbdc93b5d	-0.09825776
48	0x3d2f86c1	0.04285312
49	0xbe15a4f9	-0.14613713
50	0x3d0a9e3f	0.03384232
51	0xbe0553b9	-0.13020219
52	0x3e5ca81f	0.21548508
53	0x3e8e8bfd	0.27841178
54	0x3e7f77c1	0.24948026
55	0xbdcb4d21	-0.099268205
56	0x3e1aefb4	0.15130502
57	0x3b49f230	0.003081452
58	0x3e01a9f0	0.12662482
59	0x3e06a3aa	0.1314837
60	0x3e8f5ecc	0.28002012
61	0x3e7f038f	0.24903701
62	0x3e903b1d	0.281701
63	0xbd61c62a	-0.055120625
64	0x3cdbe3ee	0.026842084
65	0xbd97f6dc	-0.074201316
66	0x3cfd7c25	0.030942986
67	0xbe2806ac	-0.16408795
68	0xbe993a38	-0.2992723
69	0x3ea44868	0.32086492
70	0x3e89dcff	0.2692642
71	0xbe8aa61e	-0.27079862
72	0xbe5c3647	-0.2150508
73	0x3e965d46	0.29368037
74	0x3d57c92d	0.05268209
75	0xbe2a2b5f	-0.16618107
76	0xbe8abf6f	-0.27099177
77	0xbd5ff580	-0.054677486
78	0xbdb8b4d3	-0.090188645
79	0xbe9c1e35	-0.30491796
80	0x3e598138	0.212407
81	0xbe14a98c	-0.14517802
82	0x3c9c03e1	0.019044818
83	0x3e94920e	0.2901768
84	0x3d09febd	0.033690203
85	0x3d3401d5	0.04394706
86	0x3dbb22b8	0.091374815
87	0xbe414a86	-0.18876085
88	0xbd55715c	-0.05211006
89	0xbdf3ceef	-0.11904704
90	0x3e6e6ab9	0.23282899
91	0x3e9ea763	0.3098708
92	0x3e7c3edf	0.24633358
93	0xbdb9e31b	-0.0907652
94	0x3d99857d	0.07496164
95	0x3cb0ef06	0.02159835
96	0x3e9518d3	0.29120502
97	0x3e13ee9e	0.14446494
98	0xbe24c070	-0.16089034
99	0xbe80aa48	-0.25129914
100	0x3e289945	0.16464718
101	0x3e3f5ca8	0.1868769
102	0xbe553725	-0.20821817
103	0x3dad15cf	0.08451425
104	0xbd12d886	-0.035851024
105	0xbe91986b	-0.28436598
106	0x3e839f28	0.25707364
107	0x3e4adc77	0.19810663
108	0x3e6c15a2	0.23055127
109	0x3e91793e	0.28412813
110	0xbcdd073c	-0.026980989
111	0xbd63fe4f	-0.05566245
112	0x3e4b512c	0.19855183
113	0xbde461e3	-0.11151483
114	0xbe1a0df6	-0.15044388
115	0xbe715f9a	-0.23571625
116	0xbe3a9ab6	-0.1822308
117	0x3e9a03aa	0.3008092
118	0xbe430d0e	-0.19047949
119	0xbe442434	-0.19154435
120	0x3d859bbf	0.06523847
121	0xbe1ff96d	-0.15622492
122	0x3dca950b	0.09891709
123	0xbe6eaaf4	-0.23307401
124	0x3d784ba5	0.060619015
125	0x3d76dd3c	0.06026958
126	0xbd886b9a	-0.06661148
127	0x3ddd9ab3	0.10820522
128	0x3dfa87bb	0.1223292
129	0x3b68c3a2	0.0035516997
130	0x3db96e88	0.09054285
131	0xbe8c3309	-0.27382687
132	0xbe16677b	-0.14687912
133	0xbe0578ea	-0.13034406
134	0x3caa75d1	0.020808132
135	0x3e3b7f80	0.18310356
136	0xbda24d9c	-0.07924959
137	0xbdcefd57	-0.101069145
138	0x3e88bfd7	0.26708862
139	0x3e228edb	0.15874808
140	0xbd2fe33a	-0.04294131
141	0xbc69e8bc	-0.01427668
142	0xbd0aec2a	-0.03391663
143	0xbd31d3c9	-0.043414865
144	0xbe6f858a	-0.23390785
145	0x3e3cc867	0.18435822
146	0x3e9f8ad5	0.31160608
147	0x3e74087e	0.23831365
148	0xbe5727d2	-0.21011284
149	0xbceee43d	-0.029161567
150	0xbda225f0	-0.07917392
151	0x3e1e58f0	0.15463614
152	0xbe8010e3	-0.25012884
153	0x3c9cad79	0.019125687
154	0xbe3a828e	-0.18213865
155	0xbe2c4357	-0.16822563
156	0x3df83a1f	0.12120461
157	0xbdaf4991	-0.085589536
158	0x3d483aaa	0.04888407
159	0x3e47ab17	0.1949886
160	0x3e42e3e2	0.19032243
161	0xbe3bb176	-0.18329415
162	0xbe98ddbc	-0.2985667
163	0xbe891646	-0.26774806
164	0x3d455cc7	0.048184182
165	0xbe0929f6	-0.13394913
166	0xbcce5473	-0.025186753
167	0xbe70ec24	-0.2352758
168	0x3e114943	0.14188103
169	0x3d982f1a	0.07430859
170	0xbe5718c2	-0.21005538
171	0xbdd26f37	-0.10275119
172	0xbe13134d	-0.14362831
173	0xbd471543	-0.04860426
174	0x3d53054b	0.05151872
175	0xbd5acadb	-0.053416114
176	0xbbdc1373	-0.0067161857
177	0x3e77a2d3	0.24183206
178	0xbd268d53	-0.04066212
179	0xbd4b6ee5	-0.049666304
180	0xbd519ab8	-0.051172942
181	0x3e3a647d	0.18202396
182	0xbd04fc10	-0.032466948
183	0xbd693795	-0.056937773
184	0xbe00cfb7	-0.12579237
185	0x3da396e3	0.07987764
186	0x3e63e627	0.22255765
187	0x3ccebe9f	0.02523738
188	0xbd938b62	-0.072043195
189	0x3d77fd2c	0.060544178
190	0xbda70d7c	-0.08156869
191	0x3d091ef7	0.033476796
192	0xbdbe924a	-0.09305246
193	0x3c39ec03	0.0113477735
194	0x3e49f96e	0.19724056
195	0xbe76aa9d	-0.24088521
196	0x3e9f42de	0.31105703
197	0x3e2c1e53	0.16808443
198	0x3db674e0	0.08909011
199	0xbe480767	-0.19534074
200	0x3e28862c	0.16457433
201	0x3d1637d0	0.03667432
202	0xbe8cae91	-0.27476934
203	0xbdc5bfef	-0.09655749
204	0x3be186a0	0.0068825036
205	0xbd2ae44a	-0.04172162
206	0x3e9244f7	0.2856824
207	0xbe636cf5	-0.22209533
208	0xbc211ec0	-0.0098339915
209	0x3e78312f	0.24237512
210	0xbdc90341	-0.09815074
211	0xbe973bbb	-0.29537758
212	0xbdad962e	-0.0847591
213	0x3e0f0e83	0.1397038
214	0xbe3d04ff	-0.18458937
215	0x3e668a21	0.2251363
216	0xbdcb67be	-0.099318966
217	0x3e88fc89	0.2675517
218	0xbe235368	-0.15949786
219	0xbe5b775b	-0.21432249
220	0xbd25e10d	-0.04049783
221	0xbe6ce0e4	-0.23132664
222	0xbcb0e9ae	-0.021595802
223	0xbe838406	-0.25686663
224	0x3e83f91d	0.25775996
225	0xbdb5362d	-0.08848224
226	0xbd89c2b4	-0.0672659
227	0x3dc87ec9	0.09789807
228	0xbd77b327	-0.060473587
229	0x3da221ba	0.07916589
230	0xbe3110da	-0.17291585
231	0xbd3dbd18	-0.046322912
232	0x3df39714	0.1189405
233	0x3e39119c	0.18073124
234	0xbe9756bd	-0.29558364
235	0xbe5dd35d	-0.2166266
236	0xbe0dd515	-0.13850816
237	0xbe2dcb69	-0.16972126
238	0xbc9f66a9	-0.019458132
239	0xbe81f555	-0.25382486
240	0xbe05899e	-0.13040778
241	0xbe258a09	-0.16165937
242	0xbea36aef	-0.3191752
243	0x3d8c5389	0.068518706
244	0x3e6efca5	0.23338564
245	0x3e8d9716	0.27654332
246	0x3e6c0dac	0.2305209
247	0xbea0a008	-0.31372094
248	0xbe0915ed	-0.1338727
249	0xbe821c02	-0.25411993
250	0xbe8b807f	-0.27246472
251	0xbe8bf9f2	-0.2733913
252	0xbe806db6	-0.25083703
253	0x3e87033f	0.26369664
254	0xbe4d13bf	-0.20027064
255	0xbad5ddf6	-0.001631676

input_layer.bias f4 [512]
0	0xbe9ea273	-0.30983314
1	0xbe766764	-0.24062878
2	0xbe23c219	-0.15992011
3	0x3e9a339d	0.30117503
4	0x3e88bf4f	0.26708457
5	0x3e849994	0.2589842
6	0x3cdcf060	0.026970088
7	0x3e8f4c56	0.27987927
8	0xbe704f80	-0.23467827
9	0xbc3d55e7	-0.011556125
10	0x3ce9b174	0.028526999
11	0xbc7d25a1	-0.015450866
12	0xbe7d3801	-0.24728395
13	0xba1fb0f7	-0.00060917385
14	0xbdc6691a	-0.09688015
15	0x3e0c333a	0.13691416
16	0xbddb2445	-0.10700277
17	0xbc4220ab	-0.011848609
18	0xbdb7f1f5	-0.089816965
19	0xbc805dff	-0.01566982
20	0xbdfd29cf	-0.1236149
21	0x3da9764d	0.08274517
22	0xbe323c76	-0.17405877
23	0x3e08df0f	0.1336634
24	0x3e47dcaa	0.1951777
25	0x3e574055	0.21020634
26	0x3e329606	0.17440042
27	0x3e928ac8	0.28621507
28	0xbe55f808	-0.20895398
29	0x3e1647d6	0.1467584
30	0x3da9c04b	0.0828863
31	0x3df36933	0.118852995
32	0xbe9a3c7b	-0.30124268
33	0xbe075f0b	-0.1321985
34	0x3e12c8db	0.14334433
35	0xbca54ee7	-0.020179225
36	0x3e4ec632	0.20192793
37	0x3e9a75df	0.30168054
38	0xbe242434	-0.16029435
39	0xbd6181ae	-0.055055313
40	0xbe87dab2	-0.2653404
41	0x3e58c5a4	0.21169144
42	0xbe0ea569	-0.13930286
43	0xbe546013	-0.20739774
44	0x3e35725c	0.17719406
45	0x3e93096c	0.28718126
46	0x3e9926c0	0.29912376
47	0x3d8c5fa0	0.068541765
48	0xbe264e8f	-0.16240905
49	0xbe8420d3	-0.25806293
50	0xbde4a683	-0.11164572
51	0xbe12a307	-0.14320002
52	0xbe58f944	-0.21188837
53	0x3e983a0c	0.29731786
54	0x3d534b75	0.051585633
55	0xbda406a8	-0.08009082
56	0x3e4710f5	0.19440062
57	0x3e71636b	0.23573081
58	0x3d71c6bf	0.05902743
59	0x3dd04b45	0.101706065
60	0xbcb90b2e	-0.022588339
61	0x3ce63f03	0.028106218
62	0xbde5679b	-0.11201402
63	0x3e8c560b	0.27409396
64	0xbea0f37f	-0.31435773
65	0x3dc7f707	0.097639136
66	0xbe898b43	-0.2686406
67	0x3e3d96e8	0.18514597
68	0x3e38ff82	0.18066218
69	0xbc24a19c	-0.010048296
70	0xba59dad7	-0.0008310503
71	0xbe7ff30c	-0.24995059
72	0xbe3bb3c6	-0.18330297
73	0xbe9cfd04	-0.30661786
74	0x3ea034c0	0.31290245
75	0xbe8898d3	-0.26679096
76	0xbe798a6f	-0.24369214
77	0xbde97ca4	-0.114007264
78	0x3e62720a	0.22113815
79	0x3d7d9ea6	0.061918877
80	0xbe83734f	-0.2567391
81	0xbe1dcab9	-0.15409364
82	0x3e80e652	0.2517572
83	0x3e1d9f09	0.15392698
84	0x3de08998	0.10963744
85	0xbe4ce5db	-0.20009558
86	0x3e2f26ac	0.17104596
87	0x3c92c9ac	0.01791843
88	0x3d985b7b	0.074393235
89	0xbddd3611	-0.10801328
90	0xbc656c14	-0.014002819
91	0x3e4cf3d6	0.20014891
92	0xbe66b20f	-0.22528861
93	0xbd1e96c7	-0.03871801
94	0x3e01d8e6	0.12680396
95	0xbe294a3a	-0.16532221
96	0x3d2e51ad	0.04255836
97	0x3ea144e5	0.31497875
98	0xbe206c65	-0.15666349
99	0xbdf13ec4	-0.1177955
100	0xbcad338b	-0.021142742
101	0x3e25d72f	0.16195367
102	0xbde7d88b	-0.11320599
103	0x3dac6d2d	0.08419261
104	0x3e8d0f6a	0.27550822
105	0xbe5ceda2	-0.21575025
106	0x3df5b772	0.1199788
107	0xbe96dae9	-0.2946389
108	0xbde0cb17	-0.10976236
109	0xbcec5613	-0.028849637
110	0x3e0245a0	0.12721872
111	0xbddfcd47	-0.109278254
112	0xbe4de73f	-0.20107745
113	0x3e739572	0.23787478
114	0x3ea1cc2b	0.3160108
115	0x3dbe7176	0.09298985
116	0xbe35a430	-0.17738414
117	0x3e5fe8be	0.21866128
118	0x3d361ee6	0.04446306
119	0xbe99a2c2	-0.30006987
120	0xbdc29753	-0.09501519
121	0xbd53f632	-0.051748462
122	0x3c6e44fb	0.014542813
123	0x3e658ad4	0.2241624
124	0x3dc73a37	0.097279005
125	0xbe3ab233	-0.1823204
126	0x3aa922c4	0.0012904038
127	0xbcc986bc	-0.02460038
128	0xbe5648a6	-0.2092615
129	0x3e1c4c4d	0.15263481
130	0xbd8c7869	-0.06858904
131	0x3e3f7aa3	0.18699126
132	0xbe7eb79c	-0.24874729
133	0x3e091088	0.13385212
134	0xbe4c8825	-0.1997381
135	0xbe8276b1	-0.2548118
136	0xbceb4dcd	-0.028723622
137	0xbe031f30	-0.12804866
138	0x3e91692a	0.28400546
139	0x3dd94d08	0.10610396
140	0x3e760324	0.24024636
141	0xbe9a157e	-0.30094522
142	0xbdfd126d	-0.1235703
143	0x3e3d6ac1	0.18497755
144	0xbde2155a	-0.11039229
145	0x3db712b8	0.08939117
146	0x3e0ea43a	0.13929835
147	0xbe917eaf	-0.28416964
148	0x3dfd85e8	0.12379056
149	0xbe60d4cf	-0.2195618
150	0xbcee9115	-0.029121915
151	0x3e2533b7	0.16133009
152	0x3ddd5c68	0.10808641
153	0x3e4c2490	0.19935822
154	0x3e96d4ff	0.29459378
155	0xbd7225d1	-0.059118096
156	0xbdfe9294	-0.12430301
157	0x3dd1523c	0.10220763
158	0xbe3403df	-0.17579602
159	0x3e96d265	0.29457393
160	0x3dcd93f2	0.10037984
161	0x3cff6b91	0.031179221
162	0x3d6c7140	0.05772519
163	0x3e4363b8	0.19081008
164	0x3e8e169b	0.27751622
165	0xbe330105	-0.17480858
166	0xbe50bc04	-0.20384222
167	0xbe5efd5b	-0.21776335
168	0x3e96d384	0.2945825
169	0xbc2389c0	-0.009981573
170	0x3dbd7eb3	0.092526816
171	0xbe178d30	-0.14799953
172	0xbe803cfa	-0.2504652
173	0x3e0afcee	0.13573048
174	0xbdcb4221	-0.099247225
175	0xbe457401	-0.19282533
176	0xbdaa6900	-0.083208084
177	0x3e885e27	0.26634333
178	0x3e835837	0.2565324
179	0xbd97fd24	-0.074213296
180	0xbd065156	-0.03279241
181	0xbddee908	-0.10884291
182	0x3d5a49d8	0.05329308
183	0xbdae6b06	-0.08516507
184	0x3e6607ed	0.22463961
185	0xbe3c7f55	-0.18407948
186	0x3ddffd1d	0.109369494
187	0x3d737cf7	0.059445348
188	0x3e882a15	0.26594606
189	0xbe24d779	-0.16097821
190	0x3e157d95	0.14598687
191	0x3dcea54b	0.10090121
192	0x3cc5d960	0.024151504
193	0xbe8bfb38	-0.27340102
194	0xbe697677	-0.22799097
195	0x3e8c9e5c	0.2746457
196	0x3e3e2302	0.18568042
197	0xbe84a0c1	-0.25903895
198	0xbe5eaaaa	-0.2174479
199	0xbe28e98b	-0.1649534
200	0x3c7622d9	0.015022957
201	0xbc2e6a99	-0.010645532
202	0x3e8120b4	0.25220263
203	0x3e1f2696	0.15542063
204	0xbe6e52a9	-0.2327372
205	0xbe81a626	-0.25322074
206	0xbd768e1e	-0.060194127
207	0xbe550d40	-0.20805836
208	0x3dfe16b9	0.12406678
209	0xbe6e2a32	-0.23258284
210	0xbdbd3664	-0.0923889
211	0xbe5bfb62	-0.21482614
212	0x3e4ef630	0.202111
213	0x3e3f75fc	0.18697351
214	0xbe2737ae	-0.16329834
215	0xbe1b13b4	-0.15144235
216	0x3e51d247	0.2049037
217	0xbe8aac36	-0.27084512
218	0x3dad2692	0.08454622
219	0x3e3d8d9f	0.18511055
220	0x3ddac087	0.10681253
221	0xbe928fe2	-0.286254
222	0xbd6f3b87	-0.05840638
223	0xbe93727e	-0.28798288
224	0xbdba336c	-0.09091839
225	0xbe4fbc37	-0.20286642
226	0xbd547c46	-0.05187633
227	0xbd9448aa	-0.07240422
228	0xbca92c61	-0.020651044
229	0xbe48692c	-0.1957137
230	0x3d40e489	0.047092948
231	0x3ddb774c	0.107161134
232	0xbe9f3d18	-0.31101298
233	0xbb0917e6	-0.0020918786
234	0xbe022583	-0.12709622
235	0x3c458f9f	0.012058168
236	0x3dcf0d51	0.10109962
237	0xba9f33c2	-0.0012146162
238	0x3e90c8f1	0.28278306
239	0xbe52b8b1	-0.20578267
240	0x3de6900e	0.11257945
241	0x3dad13f1	0.08451069
242	0x3e460e0d	0.19341297
243	0xbe8ae784	-0.27129757
244	0x3e417022	0.18890432
245	0x3be09400	0.0068535805
246	0x3d87f9e3	0.06639459
247	0xbd16ea99	-0.036844824
248	0x3e5146cc	0.20437163
249	0x3e2ec2b6	0.17066464
250	0xbe8d65c1	-0.27616695
251	0x3e97986a	0.2960847
252	0xbe7348b4	-0.23758203
253	0x3e954f75	0.29162183
254	0xbe14042f	-0.14454721
255	0xbdd2865d	-0.10279534

output_layer.weight f4 [1, 512]
0	0xbc3671f4	-0.011135567
1	0xbc539c0b	-0.0129156215
2	0x3cf540ac	0.029938065
3	0xbce49e50	-0.02790752
4	0x3cbada09	0.022809045
5	0xbc920864	-0.017826267
6	0xbdcd6e79	-0.100308366
7	0xbc8b86c6	-0.017032038
8	0xbd0628f0	-0.032753885
9	0x3dddd646	0.10831885
10	0x3cf6dfdd	0.030136043
11	0x3d1bef1a	0.038069822
12	0x3b826d33	0.0039803027
13	0xbd21884b	-0.03943662
14	0x3d9e567c	0.07731339
15	0xbcd65a6d	-0.026166165
16	0xbd8f0546	-0.06983428
17	0x3c900837	0.017582042
18	0x3c41288d	0.011789453
19	0x3cb378b8	0.02190815
20	0xbd2b8cad	-0.041882206
21	0x3dcf288c	0.101151556
22	0x3d261eac	0.040556595
23	0xbd5e0985	-0.054208297
24	0xbd6797db	-0.056541305
25	0xbaba7632	-0.0014225899
26	0x3d8d6613	0.06904235
27	0xbdad3e9b	-0.08459207
28	0x3d8fb4ca	0.07016905
29	0x3c300ab1	0.0107447365
30	0x3d83926d	0.06424413
31	0xbd8e6c0b	-0.06954201
32	0x3ccd1264	0.025033183
33	0xbcd59e9d	-0.02607661
34	0x3d023528	0.031788975
35	0x3d4b60fc	0.04965304
36	0x3d881a3c	0.06645629
37	0x3d58e7a8	0.0529553
38	0xbe0e76cc	-0.13912505
39	0x3acec8c8	0.001577639
40	0x3d388e10	0.045057356
41	0xbd0c2d3b	-0.034222823
42	0xbdf9242e	-0.12165104
43	0x3d957d45	0.07299284
44	0xbd77c63a	-0.060491778
45	0xbe184d9e	-0.14873359
46	0xbca0700d	-0.01958468
47	0xbdc4069f	-0.095715754
48	0x3ded7387	0.11594301
49	0xbd0c05fe	-0.034185402
50	0xbd4e46e8	-0.05036059
51	0xbd2bc85c	-0.041939124
52	0x3b8c799f	0.0042869593
53	0xbcaf9b56	-0.021436375
54	0xbd82b01d	-0.06381247
55	0xbcdbdbb5	-0.026838163
56	0x3d8977ad	0.067122795
57	0xbb35ef45	-0.0027761024
58	0xbbce5770	-0.0062970445
59	0x3d40aaf8	0.04703805
60	0x3cb7a53b	0.022417655
61	0x3cf94121	0.030426564
62	0xbbe2302b	-0.0069027147
63	0xbcb425f1	-0.021990748
64	0x3bf71d00	0.007541299
65	0xbd0a72d0	-0.0338009
66	0xbd64f86c	-0.055900976
67	0xbdce9603	-0.10087206
68	0xbdf20095	-0.11816517
69	0xbd089c2a	-0.033352055
70	0x3d862ea0	0.06551862
71	0x3d05cdca	0.03266696
72	0x3d3911ff	0.045183178
73	0xbd491614	-0.04909332
74	0x3cc8e418	0.024522826
75	0xbb0f65f6	-0.0021880842
76	0xbd4f16f7	-0.05055901
77	0xbb48fc0b	-0.0030667807
78	0x3dd35793	0.10319438
79	0xbd4756eb	-0.048666876
80	0x3da31266	0.079624936
81	0xbc911bfb	-0.017713537
82	0x3dfc8af3	0.1233119
83	0x3b6dfde2	0.0036314656
84	0x3db7a126	0.089662835
85	0x3b6a8742	0.0035786186
86	0x3dcdeaad	0.100545265
87	0xbd40ecbe	-0.047100775
88	0x3d94be2e	0.072628364
89	0x3db35e7e	0.08758257
90	0xbe1672e2	-0.14692262
91	0x3d16d4c6	0.03682401
92	0x3d33b2a7	0.043871548
93	0xbd9e86db	-0.077405654
94	0xbcbee8e7	-0.023304416
95	0xbd301083	-0.042984497
96	0x3c8d6ff9	0.017265307
97	0x3c161730	0.009160802
98	0xbcdc94dc	-0.02692645
99	0xbd32729f	-0.043566342
100	0xbc50528d	-0.012714994
101	0x3d5c676f	0.05380958
102	0x3cd5768f	0.02605751
103	0x3dd63609	0.10459525
104	0xbb93cb4a	-0.004510318
105	0x3d3761d7	0.04477104
106	0x3b0d6447	0.0021574663
107	0x3d0b4d50	0.034009278
108	0xbc55d33e	-0.013050852
109	0x3dfa29bb	0.12214991
110	0x3d7a89f5	0.061166722
111	0x3c9d126d	0.019173825
112	0x3d70b174	0.058762982
113	0x3c3d8301	0.011566878
114	0xbde77e5a	-0.113033965
115	0x3d83639d	0.06415484
116	0xbc98cfc9	-0.018653767
117	0x3da9738a	0.082739905
118	0xbd8b48b1	-0.06800974
119	0x3d0f38d2	0.034966297
120	0x3e176792	0.14785603
121	0xbd84af88	-0.064787924
122	0x3d057a90	0.032587588
123	0xbda6f65f	-0.0815246
124	0x3c6d658d	0.014489544
125	0xbb3d6ad0	-0.0028902777
126	0x3d7d015e	0.061768882
127	0x3cf8882f	0.030338375
128	0x3d3ac416	0.04559716
129	0x3d203bb7	0.03911945
130	0x3d24765e	0.040151946
131	0xbd869eac	-0.06573233
132	0x3cd71e0a	0.02625944
133	0x3cdb44e7	0.026766254
134	0x3d29ddaf	0.04147118
135	0xbd5fa501	-0.05460072
136	0xbd0cbd99	-0.034360502
137	0x3db59f18	0.08868235
138	0xbde0115b	-0.1094081
139	0x3dab8906	0.083757445
140	0xbca8f728	-0.020625666
141	0xbd1cffbe	-0.038329832
142	0x3d02d24c	0.031938836
143	0xbc69ebbe	-0.014277397
144	0xbc5085be	-0.012727199
145	0xbda90578	-0.08252996
146	0x3d0b4176	0.033997975
147	0xbd24a230	-0.040193737
148	0xbe06e775	-0.13174231
149	0x3d68a12c	0.05679433
150	0xbba5a8e0	-0.005055532
151	0xbd0690ee	-0.03285306
152	0x3dc320cf	0.09527742
153	0x3d8bacc3	0.06820061
154	0x3d7205b9	0.05908749
155	0x3cd37bac	0.025815807
156	0x3d34c24e	0.044130616
157	0xbd0a43c5	-0.033756036
158	0xbd753202	-0.059862144
159	0xbcbfdf81	-0.023422005
160	0xbd0d0c38	-0.03443548
161	0xbd687a94	-0.056757525
162	0x3e0ac7c0	0.13552761
163	0x3cffa291	0.031205447
164	0xbe1098e4	-0.14120823
165	0x3b9373ac	0.004499873
166	0xbd982880	-0.074296
167	0xbc4d3b37	-0.012526325
168	0x3e14630b	0.14490907
169	0x3de7484f	0.11293089
170	0xb882505a	-6.21385e-05
171	0xbc1a0f13	-0.009403008
172	0x3c7a5cfd	0.015280959
173	0xbc9c2279	-0.019059407
174	0x3c20e05b	0.0098191155
175	0xbd6efe65	-0.05834808
176	0x3cb0ca4e	0.021580841
177	0x3c65cb93	0.014025587
178	0x3b9285a2	0.0044714967
179	0xbd3df836	-0.04637929
180	0xbd940b1c	-0.072286814
181	0x3d289768	0.041160017
182	0x3d869f1c	0.065733165
183	0x3d07282f	0.032997306
184	0xbcb7d1b2	-0.022438858
185	0xbe02d331	-0.12775876
186	0xbc792261	-0.0152059505
187	0xbda41a55	-0.08012835
188	0xbd62ac04	-0.055339828
189	0xbb954772	-0.004555636
190	0xbd988869	-0.07447893
191	0xbd514487	-0.051090743
192	0x3d9f4e13	0.07778563
193	0x3d83969c	0.06425211
194	0xbc8f831a	-0.017518569
195	0x3c2a02b4	0.010376621
196	0xbc6f5028	-0.014606513
197	0xbde953cd	-0.11392937
198	0x3d32cda9	0.043653164
199	0xbd396df9	-0.045270894
200	0x3da9a7b3	0.08283939
201	0x3cadbed7	0.021209164
202	0xbd67666a	-0.056494154
203	0x3ddfb1e2	0.109226
204	0xbc0f00a2	-0.008728178
205	0xbd27253d	-0.040806998
206	0x3c980580	0.01855731
207	0x3d48748d	0.048939276
208	0x3d3396b2	0.043844886
209	0xbe060725	-0.13088663
210	0x3dc19f76	0.09454243
211	0xbd2f6607	-0.04282191
212	0x3c86fa98	0.016476914
213	0xbd1765be	-0.036962263
214	0xbda21951	-0.07914985
215	0xbc6c7b91	-0.014433757
216	0xbdc0ee73	-0.094204806
217	0x3ae6474d	0.0017568857
218	0x3bedb7a2	0.0072545568
219	0x3d09c6cd	0.033636857
220	0xbc7b3420	-0.015332252
221	0xbd72784c	-0.059196755
222	0xbd4738ee	-0.048638277
223	0xbba071ca	-0.004896377
224	0xbddd2a49	-0.10799081
225	0x3ca7e73e	0.020496007
226	0xbc2534e3	-0.01008341
227	0x3c38ec5a	0.011286819
228	0xbd0ed37f	-0.034869667
229	0xbcad8cb0	-0.02118525
230	0x3d0bef6e	0.034163885
231	0x3d03a877	0.032143082
232	0x3d203859	0.039116237
233	0xbd16bff8	-0.03680417
234	0x3ccbd5fd	0.024882311
235	0x3d0c7b44	0.034297243
236	0x3d63aa89	0.055582557
237	0xbd8615b9	-0.06547112
238	0xbd8a72a5	-0.06760148
239	0x3cdb280e	0.026752498
240	0xbd962fcd	-0.07333336
241	0x3da1b0da	0.0789506
242	0x3c872736	0.01649819
243	0x3c2216d5	0.009893139
244	0x3c1ebe34	0.009688903
245	0x3d23b1a0	0.03996432
246	0xbc9475ac	-0.018122517
247	0x3d341cd3	0.0439728
248	0xba6ac8b5	-0.0008956299
249	0xbd49aaf2	-0.04923529
250	0x3d0888dc	0.033333644
251	0xbd0ee051	-0.034881894
252	0xbc3297a9	-0.010900416
253	0xbd6e4f7b	-0.058181267
254	0x3bc54513	0.006020197
255	0xbdb62be2	-0.08895089
