bofire/benchmarks/models/baumgartner_aniline_cn_crosscoupling/baumgartner_aniline_cn_crosscoupling_predictor_2.pt (torch, 26391 bytes, 3 tensors)

input_layer.weight f4 [512, 10]
0	0x3da7de93	0.081967495
1	0xbe4ffc9e	-0.2031121
2	0x3e99c921	0.30036262
3	0x3e58c98c	0.21170634
4	0x3dfcff2d	0.123533584
5	0xbe859892	-0.26092964
6	0xbcbaaa62	-0.022786323
7	0xb9ccbaed	-0.00039049183
8	0x3e928954	0.28620398
9	0xbdc22435	-0.09479562
10	0xbe48fad5	-0.19626935
11	0x3e06eddc	0.13176674
12	0x3e941fc4	0.28930485
13	0x3e385a97	0.18003307
14	0xbcc4a044	-0.024002202
15	0x3da77deb	0.08178314
16	0xbe5dbbcd	-0.21653672
17	0xbe98696f	-0.2976794
18	0x3d3e63de	0.04648196
19	0xbe5b872c	-0.21438283
20	0xbe62986e	-0.2212846
21	0x3c860a92	0.016362462
22	0x3daa1d6a	0.083063915
23	0x3e958683	0.29204187
24	0xbe593b29	-0.21213974
25	0x3e810bc4	0.2520429
26	0xbe2fdd03	-0.17174153
27	0xbdfcb332	-0.12338866
28	0x3dfcb712	0.123396054
29	0xbe5dc641	-0.21657659
30	0xbe8d7657	-0.2762935
31	0x3e13580c	0.14389056
32	0xbe8e50ea	-0.27796108
33	0x3e89a5e1	0.26884368
34	0x3e8a5629	0.2701886
35	0x3ea1d867	0.31610414
36	0xbe9dff69	-0.30858925
37	0xbdc961d2	-0.09833111
38	0xbded08ba	-0.1157393
39	0xbd274001	-0.040832523
40	0xbe7e8412	-0.24855068
41	0x3e8e39e9	0.27778557
42	0x3e77f352	0.24213913
43	0xbe711fc9	-0.23547281
44	0xbe443421	-0.1916051
45	0x3d18c943	0.037301313
46	0x3e255a68	0.16147768
47	0xbe6db29a	-0.23212662
48	0xbe12debe	-0.14342782
49	0x3d42a314	0.047518805
50	0xbb86ac1d	-0.004109873
51	0x3de30692	0.110852376
52	0xbda3ad93	-0.07992091
53	0x3e0cfa5f	0.13767384
54	0x3d23a0d9	0.03994832
55	0x3c68d6ae	0.01421134
56	0xbe8f6285	-0.28004852
57	0xbdc87876	-0.09788601
58	0xbe9d7d42	-0.30759627
59	0x3dbbfc8d	0.091790296
60	0x3e1a576f	0.15072416
61	0xbca53280	-0.020165682
62	0xbdbf7796	-0.09348981
63	0x3ba49866	0.00502305
64	0x3e44025b	0.19141524
65	0x3d8dde18	0.06927127
66	0xbe3a2ea0	-0.18181849
67	0x3e9ed2ed	0.310203
68	0xbe5f82e2	-0.21827272
69	0xbe5f668c	-0.21816462
70	0xbe03212d	-0.12805624
71	0xbdf1f3b3	-0.1181406
72	0xbe8c4e3f	-0.27403447
73	0x3d095f77	0.033538308
74	0x3e7c87ac	0.2466113
75	0xbe2f1958	-0.17099512
76	0xbd9b7ce8	-0.07592183
77	0x3e57a639	0.21059503
78	0x3e2ea6c8	0.1705581
79	0xbe38c8fd	-0.18045421
80	0x3c58a451	0.01322277
81	0x3d87934b	0.06619891
82	0xbe87d30d	-0.26528206
83	0xbd9a979b	-0.07548448
84	0x3c2d8069	0.010589697
85	0x3d2378b3	0.03991003
86	0x3dd6e1f3	0.10492315
87	0x3e5dba0d	0.21653004
88	0xbd548214	-0.051881865
89	0xbcde5b3a	-0.02714311
90	0xbc9ef56f	-0.019404141
91	0x3e758070	0.23974776
92	0x3d561f02	0.052275665
93	0x3e176a2e	0.14786598
94	0xbe5030b6	-0.20331082
95	0xbe7c1172	-0.2461603
96	0xbe90cb76	-0.28280228
97	0xbe3e20a7	-0.18567143
98	0xbea0044c	-0.31253278
99	0xbdb2d17a	-0.08731361
100	0x3e8f2d0e	0.27964061
101	0x3ea35fae	0.31908935
102	0xbe3021c2	-0.17200378
103	0xbd9814e0	-0.074258566
104	0x3ab06cb1	0.0013460127
105	0x3e93679f	0.28789994
106	0x3e9b18a2	0.3029223
107	0xbe9127c9	-0.28350666
108	0x3db9a35f	0.09064364
109	0x3d31ad10	0.043377936
110	0xbe497c78	-0.19676387
111	0xbe83e330	-0.25759268
112	0x3e0f9a18	0.14023626
113	0x3e955206	0.2916414
114	0xbe47a302	-0.19495776
115	0x3e9928c0	0.29913902
116	0x3ce854d2	0.028360758
117	0x3e85e90c	0.26154363
118	0x3e6570ef	0.22406362
119	0xbe264387	-0.16236697
120	0x3e07ff98	0.13281095
121	0x3e2e0909	0.16995634
122	0x3e6d56ff	0.23177718
123	0xbe892a38	-0.26790023
124	0xbe490375	-0.19630225
125	0x3d302d44	0.04301192
126	0x3c981875	0.01856635
127	0xbda4b40e	-0.08042155
128	0xbe0499ba	-0.12949267
129	0xbe1b627a	-0.15174285
130	0x3ea1a723	0.31572828
131	0xbcc23454	-0.023706593
132	0x3e9e4b3b	0.3091677
133	0x3e2a0d36	0.16606602
134	0xbe3e1431	-0.1856239
135	0x3d869582	0.06571485
136	0xbe91d45e	-0.28482336
137	0xbe941690	-0.28923464
138	0x3e889c94	0.2668196
139	0x3d6ad196	0.057328783
140	0x3df9dada	0.12199946
141	0xbdf7b787	-0.12095552
142	0x3d6fe080	0.05856371
143	0xbe5fe03f	-0.21862887
144	0x3e027c36	0.12742695
145	0xbd21bb6d	-0.039485384
146	0x3e951b7f	0.2912254
147	0xbe89de35	-0.26927343
148	0xbc697b40	-0.0142505765
149	0xbd4b1580	-0.04958105
150	0xbda9cac6	-0.08290629
151	0xbdd729a8	-0.10505992
152	0x3da64a63	0.08119657
153	0xbe15f7be	-0.14645287
154	0xbdbd1cbf	-0.092339985
155	0xbdbe9ffb	-0.093078576
156	0xbddd126b	-0.107945286
157	0xbdb13ff3	-0.086547755
158	0x3db56c11	0.08858503
159	0xbc2984d6	-0.010346612
160	0x3e30f079	0.17279233
161	0xbb423f10	-0.002963964
162	0xbe748186	-0.23877534
163	0x3e9e5d96	0.30930775
164	0x3e911a77	0.28340504
165	0x3c8d6b19	0.017262982
166	0x3dbd8ed4	0.09255758
167	0x3e115225	0.14191492
168	0xbe1c8b0d	-0.15287419
169	0x3e016ad3	0.12638406
170	0x3bc3b7a3	0.005972819
171	0x3d905dd5	0.07049147
172	0xbe79d887	-0.24399005
173	0xbd372b29	-0.044718895
174	0xbe9c117a	-0.30482084
175	0xbe9c77d1	-0.30560163
176	0xbdd89fda	-0.10577364
177	0xbe9db989	-0.30805615
178	0x3dc43da5	0.0958207
179	0xbc93cdfd	-0.018042559
180	0x3e9c70ee	0.3055491
181	0x3e536c03	0.20646672
182	0xbe8344f0	-0.25638533
183	0xbe7a8321	-0.24464084
184	0x3de79170	0.11307037
185	0x3e8ef951	0.27924588
186	0xbc0209b2	-0.007936882
187	0xbe3b0e3f	-0.18267153
188	0xbe5b750f	-0.21431373
189	0x3e87f480	0.26553726
190	0xbdc6bc09	-0.097038336
191	0x3e4510aa	0.19244638
192	0x3e926456	0.28592175
193	0xbe1b9cb2	-0.15196493
194	0x3e066243	0.13123421
195	0xbe83b23d	-0.25721923
196	0xbd1617bd	-0.036643732
197	0xbe241fc5	-0.16027744
198	0xbd8446e7	-0.06458836
199	0xbe510367	-0.20411454
200	0xbd0ca902	-0.034340866
201	0x3e988377	0.297878
202	0xbbe45ac0	-0.006968826
203	0x3db34dd3	0.08755078
204	0xbe96b397	-0.2943389
205	0x3d49a3d3	0.0492285
206	0x3e7a6e80	0.24456215
207	0xbe8d7d3c	-0.2763461
208	0x3e4183c0	0.18897915
209	0x3e663d4d	0.22484322
210	0x3e908c59	0.28232077
211	0xbcc3f5ad	-0.023920858
212	0xbe146d57	-0.14494835
213	0xbe476c5d	-0.19474931
214	0xbe9e1a0c	-0.30879247
215	0xbe3ccb8c	-0.18437022
216	0x3e4aeeab	0.19817607
217	0x3de2d91f	0.11076569
218	0xbe993e14	-0.29930174
219	0xbd405004	-0.04695131
220	0x3e4db5d7	0.20088898
221	0x3c19b7ba	0.009382183
222	0x3cd5368f	0.026026992
223	0xbde8e2dc	-0.11371395
224	0xbb138610	-0.0022510327
225	0x3c40456a	0.0117353
226	0xbe01325d	-0.12616868
227	0x3ea25ebb	0.317129
228	0xbd8b12ac	-0.06790671
229	0x3e2aa26a	0.16663519
230	0xbe9cebc0	-0.30648613
231	0xbe46ed14	-0.19426376
232	0xbde53ccf	-0.11193239
233	0xbe153a3e	-0.14572999
234	0x3de5d0b2	0.11221446
235	0xbe9774ce	-0.29581302
236	0xbe99dc5e	-0.3005094
237	0x3e1665e2	0.14687303
238	0x3dc943a7	0.09827357
239	0xbe1a969a	-0.15096512
240	0xbe1b76da	-0.15182057
241	0x3e6d2d90	0.23161912
242	0x3d06da49	0.032923017
243	0xbe760d87	-0.24028598
244	0xbe9f032e	-0.31057113
245	0xbdbd09a6	-0.09230356
246	0xbe8037aa	-0.25042468
247	0xbe8468e6	-0.2586128
248	0x3de86136	0.113466665
249	0xbe811c26	-0.25216788
250	0xbe1312ed	-0.14362688
251	0x3e6b4562	0.22975686
252	0x3d85ec02	0.065391555
253	0xbdd6cf74	-0.10488787
254	0x3e8aa130	0.270761
255	0xbd0f2103	-0.03494359

input_layer.bias f4 [512]
0	0x3e034618	0.12819707
1	0x3e9f3069	0.31091622
2	0x3dbb2a58	0.09138936
3	0xbe98c60a	-0.29838592
4	0x3e08cb6e	0.13358852
5	0x3e05a9db	0.13053076
6	0xbe5c410a	-0.21509185
7	0x3c2d0d25	0.010562216
8	0x3d8d21d3	0.06891217
9	0xbde35ee0	-0.1110208
10	0xbe0d1923	-0.1377912
11	0xbe8bf5ac	-0.2733587
12	0xbe83d9c3	-0.25752077
13	0x3e127e32	0.14305952
14	0x3e7bbe93	0.24584417
15	0x3e617844	0.22018534
16	0x3e894458	0.26809955
17	0x3d089bf6	0.03335186
18	0x3e0b3c63	0.13597254
19	0xbe2f5924	-0.17123848
20	0xbd72647e	-0.059177868
21	0x3e90530a	0.28188354
22	0x3d756a1f	0.059915658
23	0xbdead927	-0.114672
24	0xbe95ddf2	-0.29270893
25	0x3d838196	0.06421201
26	0xbe78375a	-0.24239865
27	0x3d930a1e	0.07179664
28	0x3db6998c	0.089160055
29	0xbe9322d5	-0.28737512
30	0x3d8c2bdf	0.06844305
31	0x3de336e5	0.11094455
32	0x3d6eeb6b	0.05832998
33	0x3e97a21d	0.2961587
34	0x3e4ab45f	0.19795369
35	0x3d7027e6	0.0586318
36	0x3e6af684	0.22945601
37	0xbdbad9c0	-0.09123564
38	0xbd21e9fc	-0.039529786
39	0x3d4b0996	0.04956969
40	0x3d839c9b	0.064263545
41	0xbe87ce41	-0.26524547
42	0xbd901679	-0.07035536
43	0x3d20f25a	0.039293624
44	0x3e9c77be	0.30560106
45	0x3e7393e9	0.23786892
46	0x3c4be7e7	0.012445427
47	0x3d37ca21	0.0448705
48	0xbe3d2cfb	-0.1847419
49	0x3d15c89e	0.036568277
50	0x3e7492d4	0.23884135
51	0xbe4243c7	-0.18971168
52	0x3d86bc70	0.0657891
53	0x3e8c8f35	0.27453008
54	0xbe16a6ff	-0.14712141
55	0xbd8b2d30	-0.06795728
56	0x3e685515	0.22688706
57	0x3dae5176	0.08511631
58	0x3c84083a	0.016117204
59	0xbe835f20	-0.25658512
60	0xbe492944	-0.19644648
61	0xbd2827ad	-0.041053463
62	0xbe8f5062	-0.27991015
63	0x3d89c1a4	0.06726387
64	0x3d8d4e62	0.06899716
65	0x3dcf3bbf	0.101188175
66	0x3ea05934	0.31318057
67	0xbd67b5f5	-0.056570012
68	0xbe73205b	-0.23742811
69	0xbe9d129f	-0.3067827
70	0x3cbc607b	0.022995224
71	0xbe40ec60	-0.1884017
72	0xbe09e6f0	-0.13467002
73	0xbe955154	-0.2916361
74	0x3e993df1	0.2993007
75	0x3da8e1be	0.08246182
76	0x3dc253ea	0.094886616
77	0xbd969fe6	-0.07354717
78	0xbe9800e9	-0.29688194
79	0x3ce6ec66	0.028188895
80	0x3e7f9be5	0.24961813
81	0x3d0491ad	0.03236549
82	0xbe73d90b	-0.23813264
83	0xbb335352	-0.0027362895
84	0xbc4d90a7	-0.012546695
85	0xbbfec349	-0.0077747446
86	0xbd1fa6ac	-0.03897731
87	0xbdac66e8	-0.08418065
88	0x3e6869e1	0.2269664
89	0x3e2bc160	0.16772985
90	0x3ea06e95	0.31334367
91	0xbb55d4de	-0.00326281
92	0x3e515e48	0.20446122
93	0xbe3228c0	-0.17398357
94	0x3e87344c	0.26407087
95	0xbe9a2418	-0.30105662
96	0xbd46c74f	-0.04852992
97	0x3e9be3cc	0.30447233
98	0xbceb781a	-0.028743792
99	0xbd888e0d	-0.06667719
100	0x3dea63eb	0.11444839
101	0x3e7b131a	0.24519005
102	0xbe1f3de6	-0.15550956
103	0xbe09f144	-0.13470942
104	0xbe699f7d	-0.22814746
105	0xbdeba19c	-0.11505434
106	0xbe556e67	-0.20842896
107	0x3e006b45	0.1254092
108	0x3d3c9ed3	0.046049904
109	0xbd350cce	-0.044201665
110	0x3cbd1d6a	0.023085315
111	0x3e841e47	0.2580435
112	0x3e6b6185	0.2298642
113	0xbd2ed965	-0.042687792
114	0x3e4f00c7	0.2021514
115	0x3dea1ac2	0.11430885
116	0x3db0bc60	0.0862968
117	0x3e6a85b4	0.22902566
118	0xbe5998ac	-0.21249646
119	0xbe1a8575	-0.15089972
120	0xbe898345	-0.26857963
121	0x3d823922	0.063585535
122	0xbe4fa0b3	-0.20276146
123	0x3d5e3ca7	0.05425706
124	0xbe0c24c2	-0.13685897
125	0x3e16e80c	0.14736956
126	0x3bd2d7f9	0.0064344374
127	0xbe239727	-0.15975629
128	0xbdab2187	-0.08356004
129	0x3e3c52ca	0.18390957
130	0xbe723dc5	-0.23656376
131	0x3e670262	0.22559503
132	0x3e361ddf	0.17784832
133	0xbd2f8e54	-0.042860344
134	0x3e9ed6b9	0.31023195
135	0xbe62198e	-0.22080061
136	0x3e9a4344	0.30129445
137	0xbe9f5959	-0.31122854
138	0xbc9605a2	-0.018313233
139	0xbdca6747	-0.0988298
140	0xbdbd2dd3	-0.09237256
141	0xbe2b7c03	-0.16746525
142	0xbdb3ce3f	-0.08779573
143	0xbe03bb14	-0.12864333
144	0xbd7f3ddd	-0.062314857
145	0xbd282ce5	-0.04105844
146	0x3dacdea1	0.084409006
147	0x3d706dbb	0.058698397
148	0xbdd747cd	-0.10511742
149	0x3d31ca8e	0.04340606
150	0xbd36a85e	-0.04459416
151	0x3e818751	0.2529855
152	0x3da8d30f	0.08243381
153	0x3e9b8985	0.30378357
154	0x3dbf752a	0.09348519
155	0xbe2d2bf5	-0.169113
156	0xbe13bba9	-0.14427055
157	0xbe513cb4	-0.20433313
158	0x3e6f915b	0.23395292
159	0xbe5e633a	-0.2171754
160	0x3e578ada	0.21049061
161	0xbdbc7ea5	-0.09203843
162	0xbb885196	-0.0041601164
163	0x3e4241c6	0.18970403
164	0xbe5260dc	-0.20544761
165	0x3db23941	0.087023266
166	0xbe8cd422	-0.27505594
167	0xbc46d350	-0.012135342
168	0xbe8cf037	-0.2752702
169	0x3b8cc4a0	0.0042959005
170	0x3e1af798	0.15133512
171	0xbe48ff52	-0.19628647
172	0xbd4fe3db	-0.05075441
173	0xbe50a7d0	-0.20376515
174	0xbe6adde0	-0.22936201
175	0xbd1e2936	-0.03861352
176	0xbd619ae6	-0.055079363
177	0xbe889afd	-0.26680747
178	0xbe8090f6	-0.25110596
179	0x3e9b859d	0.30375376
180	0x3d07d8f8	0.033165902
181	0x3b422e21	0.0029629546
182	0x3e45db7f	0.19322012
183	0xbdf288b6	-0.11842482
184	0xbe693b60	-0.22776556
185	0x3e6fe3b7	0.2342671
186	0xbe0464cc	-0.12929076
187	0xbdd7abda	-0.10530825
188	0x3d32371a	0.04350958
189	0x3e9e0fd7	0.3087146
190	0xbe65c480	-0.2243824
191	0xbe86e423	-0.2634593
192	0xbdbedf6d	-0.09319959
193	0x3e43a46e	0.19105694
194	0xbd26aab3	-0.040690135
195	0xbe75accd	-0.239917
196	0x3e4d331c	0.20039028
197	0x3d040dde	0.032239787
198	0x3d6dca17	0.058054056
199	0x3e79f964	0.24411541
200	0x3e3c202e	0.1837165
201	0x3dd7db2e	0.10539852
202	0x3e7a688b	0.24453942
203	0xbe3bb969	-0.18332447
204	0xbc45be9c	-0.012069371
205	0xbe58ecff	-0.21184157
206	0xbe9d32b6	-0.30702752
207	0x3e44d53c	0.19221967
208	0x3e60424b	0.21900289
209	0xbe4ec984	-0.2019406
210	0xbe9267ff	-0.28594968
211	0xbd9b1528	-0.075723946
212	0xbe00fa4c	-0.1259548
213	0xbd85ca9f	-0.065327875
214	0x3e3e7b67	0.18601762
215	0xbe9dc34a	-0.30813056
216	0x3d0d8e77	0.034559693
217	0xbe2aaef0	-0.16668296
218	0xbe59b235	-0.21259387
219	0xbe2091de	-0.15680644
220	0xbe542549	-0.20717348
221	0x3ce1ce7a	0.027564276
222	0xbe8920e6	-0.26782912
223	0x3e1a919e	0.15094611
224	0xbe2655bc	-0.16243643
225	0x3e5fbeff	0.21850203
226	0xbe5e2f9b	-0.21697848
227	0x3d4cd514	0.050007895
228	0x3e38a085	0.18029983
229	0x3d8d53ba	0.06900735
230	0x3d2d762b	0.042349022
231	0x3d10b283	0.035326492
232	0x3de0dca2	0.10979582
233	0x3c7cb5e2	0.015424224
234	0xbe11e549	-0.14247622
235	0xbdc06364	-0.09393957
236	0x3ddb5a68	0.10710603
237	0x3e82d950	0.2555642
238	0x3e2130e2	0.15741304
239	0x3bdb02b1	0.0066836705
240	0xbde25ab1	-0.11052454
241	0xbe241743	-0.16024499
242	0x3e66d9b3	0.22543983
243	0x3e932269	0.2873719
244	0xbe462fea	-0.19354215
245	0x3e086c2c	0.13322514
246	0xbca9827b	-0.0206921
247	0x3e27f54b	0.16402166
248	0x3d7705ff	0.060308453
249	0x39ad5e2f	0.00033067304
250	0x3ddda3aa	0.10822232
251	0x3e44688e	0.1918051
252	0x3e7bb44f	0.24580501
253	0xbdf391e3	-0.1189306
254	0x3e1579a2	0.1459718
255	0x3dff456d	0.12464414

output_layer.weight f4 [1, 512]
0	0xbc875460	-0.016519725
1	0xbbd8b2f9	-0.006613132
2	0x3c507c3d	0.012724933
3	0xbd854818	-0.065078914
4	0x3d71616b	0.058930796
5	0xbd0860f0	-0.03329557
6	0x3cb90364	0.022584625
7	0x3b96ad6c	0.00459831
8	0x3d225de3	0.03964032
9	0xbd65c799	-0.056098554
10	0x3d96d193	0.07364192
11	0x3d2ee33d	0.04269718
12	0xbca7f88d	-0.02050426
13	0x3b9fd791	0.0048779924
14	0xbd2cd574	-0.042195752
15	0xbd5b0210	-0.053468764
16	0x3cf50ce4	0.029913373
17	0xbd843148	-0.06454712
18	0xbd9d77c5	-0.0768886
19	0xbcfa2313	-0.030534303
20	0xbc8b4af5	-0.017003516
21	0xbbb0fc83	-0.0054011955
22	0x3d3e1edc	0.04641615
23	0x3ce8ed5e	0.028433498
24	0xbbe51b6f	-0.0069917957
25	0xbcce67ae	-0.025195923
26	0x3c72e560	0.014825195
27	0xbc22863a	-0.009919697
28	0xbd2d25fb	-0.04227255
29	0x3d35b974	0.044366315
30	0x3d5d8768	0.05408421
31	0xbda23e03	-0.07921984
32	0xbe37f81c	-0.1796574
33	0x3dc279dc	0.09495899
34	0xbe070fd3	-0.1318963
35	0x3c995571	0.0187175
36	0xbd8077e5	-0.06272868
37	0x3d29f48e	0.04149299
38	0x3b9c97fb	0.0047788597
39	0xbb3b8cce	-0.0028617862
40	0x3d2cb5da	0.042165615
41	0xbc7caa55	-0.01542147
42	0xbc0fdb16	-0.0087802615
43	0x3da375d1	0.07981456
44	0x3c8762d1	0.016526612
45	0xbcd04abb	-0.02542626
46	0x3d9f7c9c	0.07787439
47	0x3d95b747	0.07310348
48	0xbd29dfb0	-0.04147309
49	0x3db3b71c	0.0877516
50	0xbc3bea2a	-0.011469403
51	0xbc336255	-0.010948737
52	0x3c50c0df	0.012741297
53	0x3d48c8bc	0.04901956
54	0x3d419f01	0.04727078
55	0x3c753458	0.014966093
56	0x3dc68ce3	0.09694841
57	0x3cab8d8c	0.020941518
58	0xbc33eb5e	-0.010981409
59	0xbc399d08	-0.011328943
60	0xbe306147	-0.17224608
61	0x3ca7f93f	0.020504592
62	0x3d35c5e5	0.04437818
63	0x3d45ba7b	0.048273545
64	0xbd1525d1	-0.036413018
65	0xbb8a97d4	-0.004229525
66	0xbc9a7d98	-0.018858716
67	0xbd20d179	-0.03926227
68	0x3d8d9853	0.06913819
69	0x3c0fed4c	0.008784603
70	0xbc547d32	-0.012969302
71	0xbd4df369	-0.050280962
72	0x3cc304fe	0.023806091
73	0x3c80c36c	0.015718184
74	0xbd06a6d0	-0.03287393
75	0xbcc8ab47	-0.024495734
76	0xbcf9170d	-0.0304065
77	0x3d96c391	0.0736152
78	0x3e00241c	0.12513775
79	0x3dd48301	0.103765495
80	0xbcae76be	-0.021296855
81	0x3d173aa5	0.036921162
82	0x3d85dc95	0.06536213
83	0x3dd38fb5	0.10330144
84	0x3d3c08df	0.045906898
85	0xbc9c645f	-0.01909083
86	0xbc297f50	-0.010345295
87	0x3d9770a6	0.07394533
88	0x3d6f6644	0.058447137
89	0xbdce406c	-0.10070881
90	0xbd4a0abb	-0.04932664
91	0x3abf12d1	0.0014577751
92	0xbdba4644	-0.09095433
93	0xbd5abda1	-0.0534035
94	0x3c5dfdb5	0.013549258
95	0x3da4fae1	0.08055664
96	0xbd2f6cac	-0.042828247
97	0xbd3204c0	-0.04346156
98	0xbd899306	-0.067174956
99	0xbc2a9d23	-0.010413441
100	0x3cdc0fe1	0.02686304
101	0x393f06cc	0.00018217711
102	0x3d4bf3af	0.04979294
103	0xbd384de5	-0.04499616
104	0x3d25a720	0.040442586
105	0xbc8e3f8c	-0.017364286
106	0x3d8ae1a9	0.067813225
107	0x3c41cf72	0.011829244
108	0xbc6def64	-0.014522407
109	0x3c85b17f	0.016319988
110	0x3de1fb45	0.11034254
111	0xbc3436d2	-0.010999398
112	0xbda58f5d	-0.08083985
113	0x3d1cb66a	0.0382599
114	0xbd16aa70	-0.036783636
115	0xbd7008f7	-0.0586023
116	0xbd648d11	-0.055798594
117	0xbd00b4b2	-0.031422324
118	0xbcc51d4d	-0.024061823
119	0x3cf07f4e	0.029357579
120	0xbb33d77c	-0.002744167
121	0xbc3c2d42	-0.0114854
122	0xbd189ab0	-0.037256896
123	0x3d2bc463	0.041935336
124	0x3cac4c85	0.021032581
125	0xbd357962	-0.044305213
126	0xbbe8966c	-0.00709801
127	0xbd0f4e78	-0.034986943
128	0x3d3d5298	0.046221346
129	0xb8a0b1d3	-7.662517e-05
130	0xbd6b92cb	-0.05751304
131	0xbc49e983	-0.01232374
132	0xbd6a8f41	-0.057265524
133	0x3c97d18d	0.018532539
134	0xbd83400d	-0.06408701
135	0xbbb44d00	-0.005502343
136	0xbd0ab519	-0.033864114
137	0xbcebf914	-0.028805293
138	0x3c26cc0c	0.0101804845
139	0x3d7d7e32	0.061887927
140	0x3cf7eacd	0.030263329
141	0x3c569a17	0.013098261
142	0x3bc45ce5	0.005992519
143	0xbd9f156c	-0.07767758
144	0x3d30327f	0.043016907
145	0xbd30b87a	-0.04314468
146	0x3bb1ae45	0.005422386
147	0x3df4517b	0.11929604
148	0x3ddb9321	0.10721422
149	0x3c431834	0.011907626
150	0xbb9ca03b	-0.004779843
151	0x3d1f8c05	0.038951892
152	0xbd756af7	-0.059916463
153	0x3d83d41f	0.06436943
154	0x3d13738a	0.03599886
155	0x3d821379	0.0635137
156	0x3d9b8586	0.07593827
157	0x3d94e7ba	0.07270761
158	0x3ddfc913	0.10927024
159	0x3c61e785	0.013788109
160	0xbc763e19	-0.015029454
161	0xbdb4d266	-0.08829193
162	0x3d82c0e4	0.06384447
163	0x3d2390d9	0.03993306
164	0xbd7bd416	-0.061481558
165	0xbdac97a2	-0.08427359
166	0xbc3bb447	-0.011456556
167	0x3d2ac95a	0.04169593
168	0xbbc389f6	-0.005967374
169	0xbcaf1a28	-0.021374777
170	0x3da77a05	0.0817757
171	0x3cf051d9	0.029335903
172	0xbd812dc2	-0.06307556
173	0x3def0e99	0.11672706
174	0xbbef4a64	-0.007302569
175	0xbbce3f6d	-0.006294182
176	0x3babf387	0.0052475366
177	0x3d0983cf	0.033572968
178	0x3d71bb19	0.05901632
179	0xbd96dac4	-0.07365945
180	0x3cae1222	0.02124888
181	0xbcf666fa	-0.0300784
182	0xbcecdbdf	-0.028913436
183	0xbd918289	-0.07104976
184	0x3d1e35b8	0.03862545
185	0xbdd3abb0	-0.10335481
186	0x3d9aff49	0.07568223
187	0xbccf84ce	-0.02533188
188	0x3a5cc83d	0.0008422172
189	0x3dc3bc85	0.095574416
190	0xbceb26b7	-0.028704984
191	0x3caa087e	0.020756003
192	0x3d35e9cb	0.044412415
193	0x3d26f9be	0.040765516
194	0x3deae9db	0.11470386
195	0x3dd7a10e	0.105287656
196	0x3cc670d4	0.024223723
197	0xbcc0d392	-0.023538385
198	0x3cbe9377	0.023263676
199	0x3d34fbd3	0.04418547
200	0x3d845ed5	0.064634
201	0x3d6c07f3	0.05762477
202	0xbd0425cf	-0.03226262
203	0x3d87abff	0.066246025
204	0x3d62b41c	0.055347547
205	0x3cddcf92	0.027076516
206	0xbca3492a	-0.019932348
207	0xbd994152	-0.07483162
208	0xbd1a783b	-0.037712317
209	0x3d21744b	0.039417546
210	0xbd2a2985	-0.041543502
211	0xbb22229a	-0.0024739862
212	0xbd5a46fb	-0.05329035
213	0x3c2b850c	0.010468733
214	0xbd82edc9	-0.0639301
215	0x3d08925e	0.03334271
216	0xbc9652e4	-0.018350072
217	0x3c4205de	0.011842219
218	0xbd2a980b	-0.041648906
219	0xbdd2e4b5	-0.10297529
220	0x3dafaeb9	0.085782476
221	0x3b430be9	0.0029761738
222	0x3cef1638	0.0291854
223	0x3d8a999b	0.06767579
224	0x3c416aa7	0.011805213
225	0xbda51e61	-0.08062435
226	0xbbc2476d	-0.005928925
227	0x3c7b2d7a	0.015330667
228	0xbc55d63b	-0.013051565
229	0x3cf42a3f	0.0298053
230	0xbdefe7a4	-0.11714104
231	0xbb949df9	-0.0045354334
232	0x3d53f875	0.05175062
233	0xbcc4a1eb	-0.02400299
234	0x3c49e36c	0.012322288
235	0xbd0afa26	-0.033929966
236	0x3dc8cbea	0.098045185
237	0xbe4c994a	-0.1998035
238	0xbb89ce66	-0.004205513
239	0x3d9dbbe6	0.077018544
240	0xbd0c6615	-0.03427704
241	0xb9a4a4c4	-0.00031403278
242	0xbc5fedaa	-0.013667503
243	0xbc288622	-0.010285886
244	0x3cdd4d30	0.027014345
245	0x3c1bdde4	0.009513352
246	0x3d30748f	0.04307991
247	0xbde1fad0	-0.11034167
248	0xbd66a88d	-0.056313086
249	0xbc93d338	-0.018045053
250	0x3d036198	0.032075495
251	0xbd04544d	-0.032306958
252	0xbe16a85c	-0.14712662
253	0xbc6808b4	-0.014162231
254	0xbb37eba9	-0.0028064048
255	0xbd69f364	-0.05711688
