bofire/benchmarks/models/baumgartner_aniline_cn_crosscoupling/baumgartner_aniline_cn_crosscoupling_predictor_4.pt (torch, 26391 bytes, 3 tensors)

input_layer.weight f4 [512, 10]
0	0xbe2315b6	-0.15926251
1	0xbe3a254d	-0.18178292
2	0x3e5084cd	0.2036316
3	0x3dddba70	0.10826576
4	0x3e7814bb	0.24226658
5	0xbd2a8f37	-0.041640487
6	0x3e6c5976	0.23081002
7	0x3e19bf2e	0.15014336
8	0x3e4a39d5	0.19748624
9	0x3e32fe4d	0.1747982
10	0x3e9448ba	0.28961736
11	0x3e86ef5a	0.26354486
12	0xbe13aa63	-0.14420466
13	0x3e75a97f	0.23990439
14	0xbdafa00b	-0.08575448
15	0xbc4b3f49	-0.012405225
16	0xbe027e80	-0.12743568
17	0xbe0564ea	-0.13026777
18	0xbd804079	-0.06262297
19	0x3d8b9ca4	0.06816986
20	0x3e29a500	0.16566849
21	0xb9b4f222	-0.00034512678
22	0x3e8c46cb	0.2739776
23	0xbe84afa3	-0.2591525
24	0x3e5f7695	0.21822579
25	0x3c3d9eaa	0.011573473
26	0x3e1ae285	0.15125473
27	0x3d66f12d	0.056382347
28	0x3e8d9c46	0.2765829
29	0x3dafdaf1	0.08586682
30	0x3e70db03	0.23521046
31	0x3e313b4d	0.17307778
32	0xbdd500bc	-0.10400531
33	0x3e278a21	0.16361286
34	0xbe97c697	-0.296437
35	0x3dcf65d4	0.10126844
36	0xbe56e69c	-0.20986408
37	0xbda0de2a	-0.078548744
38	0x3e652bc3	0.22379975
39	0xbe9d5fa5	-0.30737033
40	0xbe92edc6	-0.28697032
41	0x3e25289b	0.16128771
42	0x3d91d100	0.07119942
43	0x3e4bf8ab	0.19919078
44	0xbe4e1fc7	-0.2012931
45	0x3e282619	0.16420783
46	0x3e008272	0.12549761
47	0xbe1a115b	-0.15045683
48	0xbdce874c	-0.100843996
49	0x3e6eb03b	0.23309414
50	0xbd8befde	-0.068328604
51	0x3de67584	0.11252883
52	0x3e862c66	0.26205748
53	0x3df7bc17	0.12096422
54	0xbe9baa51	-0.3040338
55	0x3c8564c7	0.016283406
56	0x3e8a8b2c	0.27059305
57	0xbdfd353c	-0.12363669
58	0xbe4ac7cf	-0.19802783
59	0xbe9716db	-0.29509625
60	0xbe1e27ad	-0.15444823
61	0x3e4cb3b8	0.19990432
62	0xbc9a766d	-0.018855298
63	0x3e34abca	0.17643657
64	0xbe197c7a	-0.1498889
65	0xbe8b79c7	-0.27241346
66	0x3e39f07c	0.18158144
67	0xbca021eb	-0.019547423
68	0x3e4c89a5	0.19974382
69	0x3d42a52f	0.047520813
70	0xbdbfb07f	-0.09359836
71	0x3ddbb4fd	0.1072788
72	0xbe0043f8	-0.12525928
73	0xb9feda03	-0.00048609087
74	0xbe822778	-0.25420737
75	0xbd6308f9	-0.05542848
76	0xbe988082	-0.29785544
77	0x3bb19703	0.0054196133
78	0x3e70175c	0.23446411
79	0xbce8cd48	-0.028418198
80	0xbc5af8e8	-0.013365008
81	0x3e81f875	0.2538487
82	0x3d98d3ab	0.074622475
83	0x3ea148d5	0.3150088
84	0xbe286b5b	-0.16447203
85	0x3d7f48e4	0.062325373
86	0xbda11bf5	-0.078666605
87	0x3e87dbe4	0.2653495
88	0x3eac757f	0.33683392
89	0xbe6f6710	-0.23379159
90	0xbc9a9466	-0.01886959
91	0xbd42ef3a	-0.047591425
92	0xbdf41b4d	-0.1191927
93	0x3e493f9c	0.19653171
94	0x3e86ac23	0.26303205
95	0x3e970d9a	0.29502565
96	0x3dc40a26	0.09572248
97	0xbdf55669	-0.11979372
98	0x3e8ba9bf	0.27277943
99	0xbe2abca0	-0.16673517
100	0xbd741a8c	-0.05959563
101	0xbe371128	-0.17877638
102	0xbda8abe5	-0.08235911
103	0xbe3be932	-0.18350676
104	0x3e63509c	0.22198719
105	0xbe94f77c	-0.29095066
106	0xbddf9d35	-0.10918657
107	0x3e96f6ac	0.2948507
108	0x3e5bff9e	0.21484229
109	0x3bfa5b6e	0.007640294
110	0xbe8e0d12	-0.27744347
111	0xbe7b79e4	-0.24558216
112	0xbca56b1d	-0.020192677
113	0xbe234220	-0.15943193
114	0xbdbd18f6	-0.092332765
115	0x3e5693fc	0.20954889
116	0x3d7e468e	0.062079005
117	0x3cec5230	0.028847784
118	0x3e0cf8f9	0.1376685
119	0x3e478994	0.19486076
120	0x3e303863	0.1720901
121	0x3d2b560d	0.04183011
122	0xbe4f9b4a	-0.20274082
123	0x3e22ebbb	0.15910237
124	0x3d33948f	0.04384285
125	0x3db631ff	0.08896255
126	0xbdd8dd48	-0.10589081
127	0x3e230b31	0.15922238
128	0xbe45f867	-0.19333039
129	0xbe518240	-0.20459843
130	0xbe91fef9	-0.2851484
131	0xbdb04a4b	-0.0860792
132	0x3dc45208	0.09585959
133	0x3e50c2ef	0.20386861
134	0x3e0cae1e	0.13738295
135	0xbe2627a8	-0.16226065
136	0x3e0c36a5	0.1369272
137	0x3b5b96e2	0.0033506681
138	0xbdfd8dcf	-0.123805635
139	0x3d477a82	0.048700817
140	0x3dbc6cf0	0.09200466
141	0xbe5d40cf	-0.21606754
142	0xbe5c9876	-0.21542534
143	0x3d5d9870	0.054100454
144	0xbd5fe941	-0.054665808
145	0x3e90e456	0.28299206
146	0xbe07099f	-0.13187264
147	0xbe81ec5e	-0.25375646
148	0x3c513b8d	0.012770546
149	0xbe8f16d5	-0.27947107
150	0xbe8e9990	-0.27851534
151	0x3e75285b	0.23941176
152	0x3d679ba8	0.05654493
153	0xbdfac0ed	-0.12243829
154	0xbe438273	-0.19092731
155	0x3e5c1427	0.21492063
156	0xbe366584	-0.17812163
157	0x3e34ac71	0.17643906
158	0xbe4f5ed9	-0.20251025
159	0x3e00b48c	0.12568873
160	0x3e968bd5	0.29403558
161	0xbea482e5	-0.32131115
162	0x3e0e47f8	0.13894641
163	0xbde1f497	-0.1103298
164	0x3e5123cd	0.20423813
165	0xbb93f1ff	-0.004514932
166	0xbe7dcb65	-0.2478462
167	0x3e5b1a4b	0.21396749
168	0xbe7aa412	-0.2447665
169	0x3da90419	0.08252735
170	0xbdd52f11	-0.10409368
171	0x3cfef7fe	0.031124111
172	0xbdef8ed1	-0.11697162
173	0xbd6505f8	-0.055913895
174	0xbdf1d72a	-0.118086174
175	0xbe58cd63	-0.21172099
176	0xbe38acc8	-0.18034661
177	0x3da4ecc8	0.08052975
178	0x3e320ad7	0.17386948
179	0xbe079105	-0.13238914
180	0xbde0fd2c	-0.10985789
181	0xbe13c0b6	-0.14428982
182	0x3c77ee45	0.0151324915
183	0xbe259e38	-0.16173637
184	0xbe385a41	-0.18003179
185	0x3e7b097a	0.24515334
186	0xbe3a3cd3	-0.18187265
187	0x3e44b6d6	0.19210371
188	0x3e2a7332	0.16645506
189	0xbe350c33	-0.17680435
190	0x3e7560fe	0.23962781
191	0xbe31c555	-0.17360432
192	0x3dc60ea5	0.09670762
193	0x3e401a20	0.18759966
194	0xbe21ccd2	-0.15800789
195	0xbe42b1de	-0.19013163
196	0xbe791cf7	-0.24327455
197	0xbea30d4f	-0.3184609
198	0xbe684cac	-0.22685498
199	0xbdb040b4	-0.08606091
200	0x3ce2ef2f	0.027701942
201	0xbdd34b3e	-0.10317086
202	0xbe2703c1	-0.16310026
203	0xbdd15d84	-0.10222915
204	0xbdb16a98	-0.08662909
205	0x3dee13c0	0.11624861
206	0x3e81e8dd	0.25372973
207	0xbea0f361	-0.31435683
208	0xbbeef32b	-0.0072921715
209	0xbe7bd510	-0.24592996
210	0x3e1a66ec	0.15078324
211	0x3e933360	0.28750134
212	0x3e24dbbf	0.16099451
213	0xbe9781a5	-0.29591098
214	0xbe0a63fd	-0.13514705
215	0xbe790355	-0.24317677
216	0xbe49af43	-0.19695763
217	0x3e4a308e	0.19745085
218	0xbe23ea77	-0.1600741
219	0xbe718f2a	-0.23589769
220	0x3d123116	0.035691343
221	0xbc0f98aa	-0.008764425
222	0x3d9e2e94	0.07723728
223	0xbe423470	-0.18965316
224	0x3d7036fd	0.05864619
225	0x3e28c491	0.16481234
226	0xbdb51301	-0.08841515
227	0x3e030488	0.12794697
228	0xbe86c7d6	-0.26324338
229	0x3e5bea64	0.21476132
230	0xbe2b7a43	-0.16745858
231	0x3e5a8bc0	0.21342373
232	0xbe70770e	-0.23482916
233	0xbe1705e1	-0.14748336
234	0x3a4b9510	0.00077660475
235	0xbe841685	-0.2579843
236	0x3db8c292	0.09021486
237	0xbe12bd24	-0.14329964
238	0xbde9783c	-0.11399886
239	0xbcb054da	-0.021524835
240	0xbe2ad5c2	-0.16683105
241	0xbe4b5819	-0.19857825
242	0xbd943e98	-0.07238501
243	0xbe8cf422	-0.2753001
244	0xbe429df0	-0.19005561
245	0xbd368c96	-0.044567667
246	0x3c00dae5	0.0078646885
247	0xbdcae094	-0.09906116
248	0xbe9ea98e	-0.30988735
249	0xbdade5c6	-0.084910914
250	0x3e05ea5e	0.13077685
251	0xbe2676eb	-0.16256301
252	0xbe82ba89	-0.2553294
253	0x3e3d79e5	0.1850353
254	0xbe1d9be2	-0.15391496
255	0x3debf416	0.11521165

input_layer.bias f4 [512]
0	0x3d46cb32	0.048533626
1	0xbdd16510	-0.10224354
2	0x3e9c7ab1	0.30562356
3	0xbd95cec4	-0.07314828
4	0xbdfc664f	-0.12324201
5	0x3d843ce0	0.064569235
6	0x3e61af7f	0.22039603
7	0x3e170cf3	0.14751033
8	0xbe29dadd	-0.16587396
9	0x3e7d159f	0.24715279
10	0x3d5e5772	0.054282613
11	0x3e6db43a	0.23213282
12	0x3e3c9fac	0.18420285
13	0x3e99f6c9	0.30071095
14	0xbdd86124	-0.10565403
15	0xbe7ecbbc	-0.24882406
16	0x3e78bd32	0.24290922
17	0xbe38f2fb	-0.1806144
18	0xbe05e6fd	-0.13076396
19	0x3e61913b	0.22028057
20	0x3da7a1da	0.081851676
21	0x3cde7e81	0.027159931
22	0x3df940c1	0.12170554
23	0x3ddb71a5	0.10715035
24	0xbe93c67d	-0.28862372
25	0x3e9bbf9a	0.30419618
26	0x3ded6ccf	0.11593019
27	0x3e7b563e	0.24544618
28	0x3e112496	0.14174113
29	0xbbe7ba8d	-0.007071799
30	0xbd32abae	-0.043620758
31	0xbd545a38	-0.05184385
32	0xbd5188b3	-0.051155757
33	0xbe22409d	-0.1584496
34	0x3d8c49b6	0.06849997
35	0x3e8b449b	0.2720078
36	0xbe4a4e07	-0.19756328
37	0x3e618741	0.22024252
38	0xbea08cfa	-0.31357557
39	0x3e8e88df	0.278388
40	0xbdddafdf	-0.108245604
41	0xbe313ade	-0.17307612
42	0xbdbce679	-0.09223647
43	0xbe8d82e0	-0.27638912
44	0x3de1f55e	0.11033128
45	0xbe84e33c	-0.25954616
46	0x3cc50d39	0.024054157
47	0x3d89474d	0.06703053
48	0x3d61dc6c	0.05514185
49	0xbe96e718	-0.29473186
50	0x3ea0875e	0.31353277
51	0xbe75c0ff	-0.23999403
52	0xbe9c10bf	-0.30481526
53	0xbe584dfd	-0.211235
54	0x3d225f8c	0.0396419
55	0xbd24c4b8	-0.040226668
56	0x3e3f734f	0.1869633
57	0xbde57498	-0.11203879
58	0xbdee0956	-0.116228744
59	0xbe46c024	-0.19409233
60	0xbcb4b60d	-0.022059465
61	0x3e9ae8c0	0.302557
62	0x3de2e6bc	0.11079165
63	0xbd61df71	-0.05514473
64	0x3d200b9e	0.03907358
65	0x3e55daa7	0.2088419
66	0x3d61c2ef	0.055117544
67	0xbe27dfea	-0.1639401
68	0x3cde1a63	0.027112192
69	0x3e7ba368	0.24574053
70	0xbd17223b	-0.03689788
71	0xbdf92430	-0.12165105
72	0x3d900305	0.07031826
73	0x3c36b9eb	0.011152725
74	0x3e122848	0.14273179
75	0xbe9a016e	-0.30079216
76	0xbd5b602c	-0.053558514
77	0xbe277e87	-0.1635686
78	0x3dc6b7c1	0.09703017
79	0x3e4e9f3f	0.20177935
80	0x3e64009f	0.22265862
81	0x3e2e6660	0.1703124
82	0x3d15b422	0.03654874
83	0x3d918950	0.071062684
84	0xbe1abe0e	-0.15111563
85	0xbdf896a0	-0.121381044
86	0x3ea2857c	0.31742465
87	0xbea26f30	-0.31725454
88	0x3e8992a9	0.26869705
89	0x3e884942	0.2661839
90	0xbe54a174	-0.20764714
91	0x3e3dfa65	0.18552549
92	0xbe1db158	-0.15399683
93	0x3e9d7310	0.30751848
94	0xbe26069c	-0.16213459
95	0x3e76c61d	0.24099012
96	0xbda754d3	-0.08170476
97	0xbe13015f	-0.14355992
98	0xbe7f328e	-0.24921629
99	0xbe0e0245	-0.13868053
100	0x3e1bdbf9	0.15220632
101	0x3e15cad1	0.1462815
102	0xbe214b5b	-0.15751402
103	0x3e780f87	0.24224673
104	0x3e4c8ec7	0.1997634
105	0xbe996db6	-0.29966515
106	0x3e5461fe	0.20740506
107	0x3e78e25d	0.243051
108	0xbe32a2d3	-0.17444925
109	0xbe13c23b	-0.14429562
110	0x3dfe0c3e	0.12404679
111	0x3d8966e9	0.06709082
112	0xbd8e9784	-0.06962493
113	0x3e715de2	0.2357097
114	0x3e14be49	0.14525713
115	0xbde97a75	-0.1140031
116	0xbacdd0c2	-0.0015702473
117	0x3e94456d	0.28959218
118	0x3d246274	0.040132955
119	0xbe5397b3	-0.20663337
120	0x3e9ccfe9	0.30627373
121	0x3d06793f	0.032830473
122	0xbe168b64	-0.14701611
123	0xbdc6a797	-0.09699934
124	0x3e704157	0.23462425
125	0xbd7f1d46	-0.062283777
126	0x3e4be129	0.1991011
127	0xbe9e968d	-0.30974236
128	0x3e9cc67a	0.30620176
129	0x3e43302b	0.19061343
130	0x3e34df41	0.1766329
131	0xbe8da79e	-0.27666944
132	0xbe82e88c	-0.25568044
133	0xbe25cc27	-0.16191159
134	0x3ce6d822	0.028179232
135	0xbe925a51	-0.2858453
136	0xbe356fc0	-0.1771841
137	0x3ddd84e5	0.10816363
138	0xbbb34ad0	-0.005471565
139	0xbe8a4b88	-0.2701075
140	0xbe419347	-0.18903838
141	0xbe5e06c6	-0.21682271
142	0xbd450b82	-0.048106678
143	0xbe53c660	-0.20681143
144	0xbddf9cc0	-0.109185696
145	0x3c1fcb3f	0.0097530475
146	0x3ce99e42	0.028517846
147	0xbc9db3c5	-0.01925076
148	0xbe042bf1	-0.12907387
149	0xbdac328b	-0.08408078
150	0x3d5cb738	0.05388567
151	0xbe9fa2a5	-0.31178775
152	0xbe5cfce0	-0.21580839
153	0x3df4affa	0.11947627
154	0xbdac6c3c	-0.084190816
155	0x3e9a5738	0.30144668
156	0x3e97a9ca	0.29621726
157	0x3db1b9cb	0.08678015
158	0x3e8ca30b	0.27468142
159	0x3e1b4efc	0.15166849
160	0x3e2a3434	0.16621476
161	0x3e09cedf	0.13457821
162	0xbe18bbba	-0.14915362
163	0xbe7baa98	-0.24576795
164	0xbe8ad63e	-0.2711658
165	0x3d840019	0.06445331
166	0x3ea16b06	0.31526965
167	0xbd776123	-0.06039537
168	0x3decc938	0.11561817
169	0xbda16be8	-0.078819096
170	0xbe00787e	-0.12545964
171	0xbe83b22f	-0.2572188
172	0xbe0df5d0	-0.13863301
173	0xbe894109	-0.2680743
174	0xbd71fa16	-0.05907639
175	0xbe929013	-0.28625545
176	0xbe4f10f1	-0.20221306
177	0xbdf5930b	-0.11990937
178	0xbcd2aea0	-0.025718033
179	0xbe6be405	-0.23036201
180	0xbe825391	-0.2545438
181	0xbd156e41	-0.0364821
182	0xbdc695e5	-0.09696559
183	0x3e7c1042	0.24615577
184	0xbe49ed9f	-0.19719552
185	0xbd6657c3	-0.05623604
186	0x3ea00c97	0.31259605
187	0x3e62432e	0.2209594
188	0x3df22546	0.118235156
189	0x3dcca6ef	0.099927776
190	0x3e8e5210	0.27796984
191	0xbe937d6c	-0.28806627
192	0xbce789c2	-0.02826393
193	0x3e96bb34	0.294397
194	0x3cef0be0	0.029180467
195	0xbe02fe24	-0.1279226
196	0x3d3ee011	0.046600405
197	0xbe8479a3	-0.2587405
198	0x3e782a0f	0.24234794
199	0xbdd9f97a	-0.10643287
200	0x3df6a039	0.12042279
201	0xbe9d4c82	-0.30722433
202	0xbe56cf69	-0.20977558
203	0xbe8bcc8f	-0.27304503
204	0xbe383cb5	-0.17991908
205	0xbe2b26ea	-0.16714063
206	0xbe4cac78	-0.19987667
207	0xbdc84418	-0.09778613
208	0x3e0514a2	0.12996152
209	0x3e58ccc2	0.21171859
210	0x3e4db52c	0.20088643
211	0xbde6637d	-0.11249445
212	0xbda56d89	-0.08077533
213	0x3e02bc03	0.12767033
214	0x3e44a4ee	0.1920354
215	0xbc514415	-0.01277258
216	0x3e3b6c88	0.1830312
217	0x3de9b09b	0.11410638
218	0xbe8c0dbd	-0.2735423
219	0xbdfe03ea	-0.1240309
220	0xbe60ba1c	-0.21945995
221	0x3e4dc601	0.20095064
222	0xbe7a5243	-0.24445443
223	0xbe943547	-0.28946897
224	0x3e1125a6	0.14174518
225	0x3d72a518	0.059239477
226	0xbd8c2e40	-0.06844759
227	0x3e43cca1	0.19121028
228	0xbe15a326	-0.14613017
229	0xbdea4639	-0.11439175
230	0x3e8f7be6	0.28024215
231	0xbea00924	-0.31256974
232	0xbe612bbf	-0.21989344
233	0xbe5f0344	-0.2177859
234	0xbe164b2e	-0.14677116
235	0xbe243cf5	-0.16038878
236	0x3d6ac3d6	0.05731567
237	0xbe7ed398	-0.24885404
238	0xbd88252c	-0.06647715
239	0xbe0221d8	-0.12708223
240	0xbe22d5dd	-0.15901895
241	0xbe41aecd	-0.18914337
242	0xbde0c198	-0.10974425
243	0x3e277d6d	0.1635644
244	0x3e4f9856	0.20272955
245	0x3dc379d0	0.09544718
246	0xbe76787e	-0.24069402
247	0xbe2c3a96	-0.16819224
248	0x3e90d99b	0.2829102
249	0x3ea1924e	0.31556934
250	0xbe49f542	-0.19722465
251	0xbe4168be	-0.18887612
252	0xbdbc0fb5	-0.091826834
253	0xbe6f3c89	-0.23362936
254	0xbe2e6382	-0.17030147
255	0xbe11b46b	-0.1422898

output_layer.weight f4 [1, 512]
0	0x3d012dab	0.031537693
1	0xbca8a34b	-0.020585677
2	0x3d3c1782	0.045920856
3	0x3d46faa9	0.048578892
4	0xbcaedab7	-0.021344526
5	0x3d4fee58	0.05076441
6	0x3d1c525a	0.038164474
7	0xbbaa2569	-0.005192448
8	0x3d649335	0.05580445
9	0x3d5ae6d4	0.05344279
10	0x3c8d8191	0.017273696
11	0x3c9f9dc2	0.019484404
12	0x3d20f406	0.03929522
13	0xbc222bb4	-0.009898115
14	0xbd6fc0d7	-0.058533516
15	0xbda5f586	-0.081034705
16	0x3d40bdee	0.04705613
17	0xbd6d5a92	-0.057947703
18	0x3bf8d689	0.007593934
19	0xbc39a641	-0.011331142
20	0xbdc402a9	-0.0957082
21	0xbd924b4a	-0.071432665
22	0xbd399449	-0.04530743
23	0x3d5937a5	0.053031582
24	0xbc625fef	-0.013816818
25	0xbd4f3ade	-0.05059325
26	0xbc6bb074	-0.014385331
27	0x3db838d8	0.08995217
28	0x3d5be412	0.0536843
29	0xbd1b9828	-0.037986904
30	0xbd439aa9	-0.047754917
31	0xbd8adf92	-0.06780924
32	0xbd0d1a99	-0.034449194
33	0xbccc0fdf	-0.024909912
34	0xbd4dac26	-0.050213
35	0x3ad427bb	0.0016186157
36	0xbbf06569	-0.007336308
37	0xbdc0bfb5	-0.09411565
38	0xbb1f9a86	-0.0024353578
39	0x38b7ac8d	8.75826e-05
40	0xbe2b0f70	-0.16705108
41	0xbd224a73	-0.03962178
42	0x3cdf2cd1	0.02724305
43	0xbd0e69b5	-0.03476878
44	0xbd52cbea	-0.051464
45	0xbd0dba00	-0.03460121
46	0x3c886818	0.016651198
47	0xbd27615f	-0.040864345
48	0x3dc3a25a	0.095524505
49	0x3d70be5d	0.058775295
50	0xbcbf4ab6	-0.023351055
51	0xbb666dbe	-0.0035160626
52	0xbbe61d75	-0.0070225545
53	0x3d1bfef0	0.038084924
54	0xbd3a218a	-0.04544214
55	0x3da89fa3	0.08233573
56	0x3d60eb8a	0.054912128
57	0xbd31f61d	-0.043447603
58	0xbd4bd3b1	-0.04976243
59	0x3d103b82	0.035213
60	0xbd663860	-0.056206107
61	0xbb29e1db	-0.0025921974
62	0x3e008d88	0.1255399
63	0xbc77f444	-0.015133921
64	0x3dd7784f	0.10520994
65	0x3d040bb9	0.032237742
66	0xb44c18e2	-1.9008033e-07
67	0x3d3ea0ff	0.046540257
68	0xbd2c2787	-0.042029884
69	0xbd5f3cb0	-0.054501235
70	0x3bf5d557	0.0075022387
71	0x3dc25ad1	0.09489978
72	0x3daa9afc	0.08330342
73	0xbda97a9d	-0.0827534
74	0x3d927ca3	0.07152679
75	0x3c9a5acc	0.018842123
76	0xbd253266	-0.040331267
77	0xbd3671be	-0.044542067
78	0x3bc26942	0.005932958
79	0x3c22c5d3	0.00993486
80	0xbc99270f	-0.018695382
81	0xbd732da7	-0.05936971
82	0x3cec9024	0.028877325
83	0xbd04355b	-0.032277446
84	0x3d091356	0.033465706
85	0xbd14b584	-0.03630592
86	0xbde5c011	-0.112182744
87	0xbcb70fd1	-0.022346409
88	0xbd053dbe	-0.032529585
89	0x3c4d8756	0.012544474
90	0x3d212253	0.039339375
91	0x3cd90345	0.026490817
92	0xbd12f14c	-0.03587465
93	0x3c7c1f67	0.015388346
94	0x3d057a17	0.032587137
95	0xbe369ca5	-0.17833193
96	0x3cb2747f	0.021784065
97	0x3b982df3	0.0046441494
98	0x3dbaf8ae	0.09129463
99	0x3d45b157	0.048264828
100	0xbd689983	-0.056787025
101	0x3d145de1	0.036222342
102	0xbda31c2b	-0.07964357
103	0xbc051780	-0.008123279
104	0xbda0e3dc	-0.07855961
105	0x3deb40dd	0.11486981
106	0xbd20af84	-0.039229885
107	0x3d776999	0.06040344
108	0xbac4bc17	-0.0015009668
109	0xbd732bc0	-0.059367895
110	0x3ddf87e3	0.1091459
111	0x3ca42d49	0.020041125
112	0x3d812b0d	0.063070394
113	0xbd604f25	-0.054762978
114	0xbcc42fff	-0.023948668
115	0x3d975261	0.073887594
116	0xbc8db6d0	-0.017299086
117	0x3de7696f	0.11299407
118	0x3d6a5f0d	0.057219554
119	0xbdadfcfb	-0.08495518
120	0x3aab5f12	0.0013074598
121	0x3d7b47e0	0.061347842
122	0x3d8aeac6	0.06783061
123	0xbd2f9438	-0.04286596
124	0xbd47c50a	-0.048771895
125	0x3c9ec05e	0.019378837
126	0xbce0b1d5	-0.027428547
127	0xbc13ce40	-0.009021342
128	0x3d2e93cc	0.04262142
129	0xbcb9b62d	-0.022669876
130	0xbe1d7352	-0.15376022
131	0x3d207611	0.039175097
132	0x3b9868d1	0.004651167
133	0x3d02256b	0.031773966
134	0x3d9a88fc	0.07545659
135	0x3c713e55	0.014724334
136	0x3bdad318	0.0066779964
137	0x3c01a2e7	0.007912374
138	0x3d008676	0.031378232
139	0xbcd24e1c	-0.025672011
140	0xbd42ff73	-0.047606897
141	0x3c08c898	0.0083486065
142	0xbd9c26be	-0.07624577
143	0xbd387b79	-0.045039628
144	0x3dd77b2c	0.1052154
145	0xbd750106	-0.05981543
146	0x3b685fc7	0.0035457478
147	0x3d9de43f	0.0770955
148	0x3cddaabd	0.027058953
149	0xbd8bb0d9	-0.068208404
150	0xbd040b31	-0.032237235
151	0x3d1dd1d4	0.038530186
152	0x3db20757	0.08692806
153	0xbdacbd9d	-0.08434603
154	0xbdaf2641	-0.08552218
155	0xbc98ec7f	-0.018667458
156	0xbd779ef9	-0.060454343
157	0x3d60086e	0.05469554
158	0xbd99f5ad	-0.07517562
159	0x3ce5eb0e	0.028066184
160	0x3bf8ff94	0.0075988267
161	0xbbe56055	-0.007000009
162	0x3dac8401	0.08423615
163	0xbca5a0a5	-0.020218203
164	0x3ca24770	0.019809455
165	0x3d88661c	0.06660101
166	0x3defb962	0.11705281
167	0x3c0b1f2b	0.008491318
168	0xbd8934b3	-0.06699505
169	0x3c47e1af	0.012199803
170	0xbcf0f387	-0.029412998
171	0xbd1cc3cb	-0.03827266
172	0xbb232fa8	-0.0024900232
173	0xbbf774bb	-0.007551757
174	0xbdd0bbb5	-0.10192052
175	0x3d011b10	0.03151995
176	0xbda173a1	-0.078833826
177	0xbd79abcd	-0.060954858
178	0xbd853d03	-0.06505778
179	0xbcfdfc4a	-0.03100409
180	0x3b748f02	0.0037316685
181	0x3d8ccd3f	0.06875085
182	0x3d357933	0.044305038
183	0x3bded8c0	0.006800741
184	0xbc8b01a8	-0.016968563
185	0xbcd066f3	-0.025439715
186	0x3cac8241	0.021058204
187	0xbd31f161	-0.043443087
188	0x3d5f813d	0.05456661
189	0xbd0f3dea	-0.034971155
190	0xbcb14ccf	-0.02164307
191	0x3d84aa45	0.06477789
192	0xbc963890	-0.018337518
193	0xbd96d1ae	-0.07364212
194	0xbcab9c09	-0.020948427
195	0x3dc2bda4	0.09508827
196	0x3e1dcb89	0.15409674
197	0x3d69feb0	0.057127655
198	0x3c915fe5	0.017745921
199	0x3c3c42a1	0.011490495
200	0x3dc89f5e	0.09796022
201	0x3c0143fc	0.007889744
202	0x3cb40794	0.02197627
203	0x3d195341	0.037432913
204	0xbd160c6b	-0.036632936
205	0xbd0d4bac	-0.034495994
206	0x3d145725	0.03621592
207	0xbd001bf7	-0.03127667
208	0xbdd0aded	-0.10189424
209	0x3d967a10	0.073475
210	0x3d2f0408	0.042728454
211	0x3d9a945b	0.07547828
212	0x3bc0370d	0.0058659376
213	0x3d4e1fe1	0.05032337
214	0xbcfc2aa1	-0.030782046
215	0x3a037a7c	0.0005015505
216	0xbc4a55e1	-0.012349577
217	0x3d4f5c61	0.05062521
218	0xbc1b6dba	-0.00948661
219	0x3de4e102	0.11175729
220	0x3cf2b32a	0.029626448
221	0x3e6fe18f	0.23425888
222	0xbc7eae36	-0.015544465
223	0x3d65b194	0.056077555
224	0xbbdd0da3	-0.0067460104
225	0x3d3332ca	0.043749608
226	0xbdfd035b	-0.12354156
227	0xbb055cb7	-0.0020349452
228	0x3d49647e	0.049168102
229	0xbc9028e1	-0.017597618
230	0x3cf06774	0.029346205
231	0x3b5e65a1	0.0033935087
232	0x3e170d7f	0.14751242
233	0xbc9040d5	-0.01760904
234	0x3d56eeb4	0.05247374
235	0xbd12706f	-0.035751756
236	0xbd6cfb71	-0.05785698
237	0xbb906af6	-0.004407282
238	0x3d314953	0.043282818
239	0xbbad6cea	-0.0052925246
240	0x3cc99e18	0.024611518
241	0x3c298263	0.010346028
242	0xbe0ef792	-0.13961628
243	0x3d86d664	0.065838605
244	0xbd91a8f3	-0.07112303
245	0x3c848069	0.016174512
246	0xbb61c7d1	-0.0034451375
247	0x3b26e7e3	0.0025467805
248	0x3d736fbb	0.059432726
249	0x3ce92141	0.02845824
250	0x3c888ca8	0.016668633
251	0xbc96341b	-0.018335393
252	0xbd706349	-0.058688436
253	0xbd63ad94	-0.05558546
254	0xbd9acbe6	-0.07558422
255	0x3d8b1246	0.06790595
