bofire/benchmarks/models/baumgartner_aniline_cn_crosscoupling/baumgartner_aniline_cn_crosscoupling_predictor_0.pt (torch, 26391 bytes, 3 tensors)

input_layer.weight f4 [512, 10]
-0.0007452288 -0.19481355 0.13260311 -0.283726 0.24074498 -0.3110696 -0.11959769 0.008285689
0.16680026 -0.20362805 0.045480866 0.023953049 0.2264487 0.11273092 0.08213145 0.22386582
-0.09244518 -0.16164519 -0.2267116 0.28287834 -0.16432235 0.24065863 -0.037355166 0.08699
0.04957365 0.026984688 0.2855205 -0.14198872 -0.112065196 -0.14303558 0.12762195 -0.10837771
-0.18939213 -0.18600677 0.02121297 -0.29553768 0.19990504 -0.28567237 0.08433592 0.26427892
-0.052323855 -0.094103135 0.27045903 -0.12452477 0.23583624 0.046749435 -0.16813473 -0.18350707
0.15988676 0.021087404 0.29146016 0.22693568 -0.27986944 -0.0049618967 0.19189613 0.12495433
0.17860268 -0.04354667 0.018939616 -0.25683466 -0.049999867 -0.16086203 0.028318286 0.16265815
0.27159247 0.30136293 -0.23838952 0.10166561 -0.16599137 -0.0044602826 -0.05672298 -0.2445258
-0.2738564 0.124942146 0.11328457 0.024457643 -0.11955991 0.2777124 -0.15438414 -0.2946716
-0.03696169 -0.103177704 0.12437931 0.046663612 0.009495219 -0.094846584 0.18378781 -0.24776259
0.21491703 -0.13312334 -0.31366843 -0.30461976 -0.19521315 -0.31041718 0.30473974 -0.13759167
0.021901699 0.024068518 -0.15256152 0.30774263 0.094276845 0.27630824 -0.062252786 0.3022796
0.19790892 -0.20122443 -0.035533126 0.10547591 -0.18426351 -0.042556778 0.1993952 -0.20396222
0.058576852 0.21642327 -0.0014321846 -0.09699475 -0.13248758 0.063202046 0.27457455 -0.07249533
-0.19492874 -0.06961968 0.27116972 0.30257523 -0.032897327 -0.23667492 0.05418363 0.1326183
-0.0098859565 -0.2122619 -0.23079954 -0.118066505 0.27684394 -0.20558378 -0.23945676 0.24840787
0.3007728 0.13377994 0.009399456 0.18317552 0.13755287 -0.2443329 -0.20733544 0.08295253
0.22357775 -0.13725956 0.17553256 0.28564197 -0.13144135 0.20404531 -0.05182467 0.2098516
-0.09798388 -0.06111591 0.0759195 0.058578186 0.25952163 -0.26615253 0.13961561 -0.00688809
0.06559201 -0.31292516 -0.04217698 -0.07566335 0.25144798 0.086759634 -0.16487867 0.31284517
-0.16747625 0.29584152 -0.009820603 0.23766339 0.02505321 -0.12938127 -0.28232697 -0.30112103
-0.15441225 -0.12353167 -0.074058615 -0.019196222 -0.035612 -0.007667404 0.045535676 0.20081457
0.26831818 0.30857366 0.10986187 -0.03492428 -0.19731194 0.20009303 0.23171398 0.28180394
-0.13714191 -0.106009915 -0.29507956 -0.19660193 -0.062691 0.3044329 -0.17451778 -0.28566083
-0.19159573 -0.2601001 0.041630566 0.28130093 0.2089393 -0.29060838 -0.30362812 0.07051669
-0.06215441 -0.0880192 0.0040519573 0.06567285 0.24944478 -0.20363122 0.24916226 0.052481048
-0.09348493 0.12703995 -0.03459319 0.16597497 -0.3015238 0.006925455 -0.1406506 -0.061941702
0.15751766 0.019685246 0.08046368 0.06679898 -0.011080824 -0.2829552 0.04905385 0.020040404
-0.233795 0.031184763 -0.18411668 0.09148181 -0.23774363 0.26215148 0.0020865826 0.2707185
0.033055324 -0.20551728 -0.31870404 0.25633946 -0.30963498 -0.3108401 -0.11045914 -0.19512208
0.1299885 -0.13857941 0.14450677 0.13763331 -0.029919466 -0.055632453 -0.020233165 -0.2784005
00000000: 755b 43ba 347d 47be 1cc9 073e 8944 91be
00000010: da85 763e 8444 9fbe a2ef f4bd b3c0 073c
00000020: b0cd 2a3e df83 50be 254a 3a3d 2f39 c43c
00000030: 2be2 673e 78df e63d 8934 a83d 153d 653e
00000040: e653 bdbd 5186 25be 1627 68be 6ed5 903e
00000050: 1e44 28be 376f 763e bb01 19bd d027 b23d
00000060: bd0d 4b3d fe0e dd3c be2f 923e 7e65 11be
00000070: 7082 e5bd eb77 12be 54af 023e 22f5 ddbd
00000080: 03f0 41be 8f78 3ebe d3c6 ad3c b750 97be
00000090: e8b3 4c3e a643 92be 50b8 ac3d 914f 873e
000000a0: 8a51 56bd 25b9 c0bd 9b79 8a3e d806 ffbd
000000b0: 0e7f 713e 567c 3f3d 832b 2cbe 47e9 3bbe
000000c0: 5bb9 233e 7ebf ac3c 443a 953e d461 683e
000000d0: 0c4b 8fbe 6897 a2bb 6b80 443e 0ee8 ff3d
000000e0: 9fe3 363e fe5d 32bd 4127 9b3c d57f 83be
000000f0: a9cc 4cbd 04b9 24be c0fb e73c dc8f 263e
00000100: 2b0e 8b3e 3e4c 9a3e 621c 74be 0f36 d03d
00000110: a4f9 29be 9027 92bb 5b56 68bd f964 7abe
00000120: e836 8cbe abe1 ff3d be01 e83d 655b c83c
00000130: d3db f4bd 5230 8e3e e016 1ebe 32df 96be
00000140: 2465 17bd d54e d3bd 94ba fe3d 5822 3f3d
00000150: d691 1b3c ed3e c2bd df32 3c3e 7ab5 7dbe
00000160: 3613 5c3e 7c51 08be 2699 a0be 1ff7 9bbe
00000170: f5e5 47be 00ef 9ebe d906 9c3e d5e4 0cbe
00000180: 316b b33c 572b c53c 1639 1cbe 7190 9d3e
00000190: 3814 c13d 4678 8d3e c7fc 7ebd 64c4 9a3e
000001a0: a3a8 4a3e c70d 4ebe 2f8b 11bd c103 d83d
000001b0: 93af 3cbe 0450 2ebd 412e 4c3e 79db 50be
000001c0: 48ee 6f3d 109e 5d3e 24b8 bbba 2fa5 c6bd
000001d0: d3aa 07be 1370 813d 0995 8c3e 6e78 94bd
000001e0: 669b 47be c394 8ebd c2d6 8a3e 24eb 9a3e
000001f0: 59bf 06bd e95a 72be a7ef 5d3d 17cd 073e
00000200: b5f8 21bc 2f5b 59be b756 6cbe dacc f1bd
00000210: 7dbe 8d3e 8e84 52be 2734 75be a25e 7e3e
00000220: e4fe 993e 9cfd 083e 2d00 1a3c 5d92 3b3e
00000230: a9da 0c3e 6732 7abe be4f 54be 04e3 a93d
00000240: 91f1 643e c58d 0cbe cfbe 333e aa3f 923e
00000250: 9098 06be 41f1 503e 1b46 54bd 56e3 563e
00000260: c6ab c8bd ad54 7abd af7b 9b3d aeef 6f3d
00000270: 05e0 843e 2545 88be 65f7 0e3e 7db5 e1bb
00000280: 1b55 863d ba37 a0be c5c1 2cbd 63f5 9abd
00000290: cabd 803e 09af b13d f4d5 28be 3e2d a03e
000002a0: e57e 2bbe 8a78 973e 98e6 20bc 085e 733e
000002b0: 643c cd3c 867c 04be 298d 90be 892c 9abe
000002c0: 3f1e 1ebe 2cfe fcbd 0bac 97bd 6541 9dbc
000002d0: e3dd 11bd d93e fbbb 9e83 3a3d 56a2 4d3e
000002e0: 0061 893e 5efd 9d3e 43ff e03d c30c 0fbd
000002f0: 240c 4abe 30e5 4c3e 6e46 6d3e 9b48 903e
00000300: ee6e 0cbe ba1b d9bd ab14 97be 0452 49be
00000310: 2464 80bd a1de 9b3e cab4 32be 2342 92be
00000320: ac31 44be d72b 85be d084 2a3d ad06 903e
00000330: 2ff4 553e 9fca 94be 2575 9bbe 0e6b 903d
00000340: 9f95 7ebd 6943 b4bd 48c6 843b 7d7f 863d
00000350: 746e 7f3e b484 50be 6424 7f3e 5ef6 563d
00000360: 0775 bfbd c316 023e 97b1 0dbd 58f5 293e
00000370: 5461 9abe edee e23b b606 10be 95b6 7dbd
00000380: 4f4c 213e f442 a13c 24ca a43d e7cd 883d
00000390: 588c 35bc 81df 90be b1ec 483d c62b a43c
000003a0: f567 6fbe 3077 ff3c 1589 3cbe d15a bb3d
000003b0: 1173 73be b838 863e 0cbf 083b 9d9b 8a3e
000003c0: 0565 073d 1f73 52be 2d2d a3be ed3e 833e
000003d0: 7a88 9ebe 6f26 9fbe 6738 e2bd 15ce 47be
000003e0: b51b 053e c3e7 0dbe 95f9 133e bfef 0c3e
000003f0: ab19 f5bc dbde 63bd 06c0 a5bc 838a 8ebe

input_layer.bias f4 [512]
0.19292109 -0.30667207 0.2325098 0.28443637 -0.1741615 0.29211256 0.29679614 -0.26208058
-0.23061699 0.19393556 0.1024885 -0.15999813 -0.2167047 -0.19843979 -0.03319123 0.16722055
0.045003507 0.043619126 -0.048627887 0.09886777 0.23899141 0.19657212 -0.27344435 0.17690912
0.21142474 0.026052998 -0.16434619 0.0028768026 0.080296814 -0.19438356 0.052765723 -0.21219051
-0.16287826 0.2679423 -0.1097791 -0.13988484 0.17652838 0.18345745 -0.23104006 0.21953592
-0.14375593 0.16067648 -0.28553948 0.05807539 0.29033518 0.13437279 -0.2988221 0.10483241
0.13801159 -0.27948743 -0.23333003 -0.00070418936 -0.24756244 0.14489879 -0.19144952 0.030059895
0.2744506 0.0463311 -0.26112428 -0.066061296 -0.060982462 0.23995331 -0.113336995 0.26511836
0.28282768 -0.29822272 -0.2109377 -0.3041291 0.047457542 0.23001057 -0.104725875 -0.037947506
-0.06887525 -0.220192 -0.008358896 -0.086911455 -0.16316287 -0.096828766 -0.12095867 0.050510373
-0.24949606 -0.02771595 0.007232816 0.20220198 -0.23485282 -0.16888341 0.24658072 -0.28980824
0.29529503 -0.18492836 -0.113232136 -0.11471509 -0.08525351 -0.28347337 0.06344209 -0.18121433
-0.017523898 0.20869477 0.22540247 -0.0005426049 -0.29780996 0.17840639 0.15441369 0.12026882
0.025257917 0.044598047 0.24183002 -0.025784973 0.1300304 -0.18498172 -0.06672839 -0.017972352
0.0024792824 -0.28083467 0.14985709 -0.2732463 -0.110733084 0.21689202 0.07488549 0.021482887
0.15427111 0.026002122 -0.13012569 -0.030282859 -0.29352567 -0.06170614 -0.19892061 0.27724144
0.12208535 -0.0773817 -0.10871871 0.25931543 -0.30187023 0.019589083 -0.06448953 -0.03206825
0.021189293 -0.041468315 0.15301071 0.034158662 0.008598703 -0.31241181 -0.2001018 -0.049822796
-0.18881503 -0.11810136 -0.12767848 0.07207343 0.08604729 0.04991911 0.16379263 -0.18706018
-0.2507928 -0.084813334 0.18748516 -0.1233831 0.17627679 0.08735314 0.17046382 0.024822433
-0.0833363 -0.27020356 -0.055463865 -0.05676176 0.26031 0.218608 0.09388158 0.0148163885
-0.019307416 0.306498 0.2823645 0.23674513 0.1688757 -0.26002285 0.0065444815 0.16100231
0.012738222 -0.06031939 -0.22760841 -0.0406175 -0.10525993 0.16346273 -0.07565779 0.2604945
-0.2914972 0.16973206 0.32485905 -0.29548374 0.21626309 -0.24436332 -0.11008683 0.23750086
0.016350878 -0.16642451 0.023892758 0.18470564 -0.086131915 -0.13581428 -0.033006635 -0.1387041
0.034945637 -0.20676951 0.11379413 -0.024077697 0.2145287 -0.07781635 -0.18033013 0.22398901
-0.033606485 0.22286426 0.17798579 0.22522807 0.03487347 0.15642916 -0.08698226 -0.21555951
0.26805717 0.14228155 -0.16562422 -0.1378639 -0.016314985 -0.25846225 -0.09129018 0.13859706
0.1635688 0.24549414 0.24700047 0.28936717 -0.04297692 0.31246543 0.068338595 0.013766246
0.026009701 0.17238824 -0.11079463 -0.20920292 -0.016430048 -0.31124604 0.15006875 0.14155301
0.07317607 -0.0088519845 -0.26170638 0.08985531 -0.24961312 0.24612391 0.31544662 0.20494053
-0.009225216 -0.20550245 -0.31215498 -0.07697187 -0.041746147 0.07867177 -0.25008354 0.21904397
00000000: 1b8d 453e 1f04 9dbe 0d17 6e3e a5a1 913e
00000010: 6457 32be c78f 953e aaf5 973e 6d2f 86be
00000020: dc26 6cbe 0b97 463e 7ee5 d13d 8dd6 23be
00000030: d6e7 5dbe cd33 4bbe 87f3 07bd dd3b 2b3e
00000040: 9955 383d f8a9 323d 092e 47bd 2f7b ca3d
00000050: 2aba 743e 344a 493e e600 8cbe aa27 353e
00000060: ba7f 583e 196d d53c 5e4a 28be bd88 3c3b
00000070: a872 a43d 7c0c 47be df20 583d 7848 59be
00000080: 8fc9 26be bc2f 893e ddd3 e0bd f93d 0fbe
00000090: dbc3 343e 45dc 3b3e c495 6cbe 06ce 603e
000000a0: c134 13be 6088 243e 3b32 92be 76e0 6d3d
000000b0: d0a6 943e 0599 093e 36ff 98be 60b2 d63d
000000c0: e952 0d3e fa18 8fbe 11ee 6ebe 5999 38ba
000000d0: 0281 7dbe 5960 143e 580b 44be 2b40 f63c
000000e0: ca84 8c3e aec5 3d3d 15b2 85be 254b 87bd
000000f0: bfc8 79bd 52b6 753e 3a1d e8bd 98bd 873e
00000100: cace 903e a6b0 98be 0d00 58be cfb6 9bbe
00000110: d762 423d e487 6b3e 857a d6bd d86e 1bbd
00000120: 780e 8dbd 037a 61be c0f3 08bc a2fe b1bd
00000130: 2b14 27be 294e c6bd 2eb9 f7bd f7e3 4e3d
00000140: e57b 7fbe 8f0c e3bc 4201 ed3b 090e 4f3e
00000150: 427d 70be c6ef 2cbe a87f 7c3e bf61 94be
00000160: e930 973e dc5d 3dbe 40e6 e7bd bfef eabd
00000170: 6499 aebd 6c23 91be eded 813d 4090 39be
00000180: 478e 8fbc 15b4 553e e8cf 663e 993d 0eba
00000190: 8c7a 98be 2ab0 363e 9f1e 1e3e 804f f63d
000001a0: b1e9 ce3c 71ac 363d 4aa2 773e 023b d3bc
000001b0: b026 053e d96b 3dbe e5a8 88bd c13a 93bc
000001c0: 757b 223b 90c9 8fbe 2374 193e f0e6 8bbe
000001d0: 07c8 e2bd f118 5e3e 905d 993d e1fc af3c
000001e0: 3ff9 1d3e 6702 d53c ab3f 05be c213 f8bc
000001f0: ff48 96be 94bf 7cbd d8b1 4bbe 97f2 8d3e
00000200: e207 fa3d 4c7a 9ebd eaa7 debd fec4 843e
00000210: bc8e 9abe 4979 a03c 1613 84bd ff59 03bd
00000220: 2b95 ad3c aeda 29bd d7ae 1c3e f4e9 0b3d
00000230: 93e1 0c3c 71f4 9fbe 7ce7 4cbe fd12 4cbd
00000240: ba58 41be 20df f1bd 26be 02be 3c9b 933d
00000250: 9039 b03d fb77 4c3d 41b9 273e b48c 3fbe
00000260: ea67 80be 9db2 adbd 1cfc 3f3e 47b0 fcbd
00000270: e781 343e 34e6 b23d 118e 2e3e 6a58 cb3c
00000280: 39ac aabd 1f58 8abe 142e 63bd 057f 68bd
00000290: 5a47 853e c7da 5f3e fc44 c03d 70c0 723c
000002a0: 962a 9ebc 4eed 9c3e 1492 903e 516d 723e
000002b0: c0ed 2c3e b721 85be 1773 d63b cadd 243e
000002c0: fab3 503c 7711 77bd 2e12 69be 895e 26bd
000002d0: 8592 d7bd c662 273e 79f2 9abd 895f 853e
000002e0: 1f3f 95be 3ece 2d3e ed53 a63e a549 97be
000002f0: 1274 5d3e 613a 7abe 3475 e1bd 6d33 733e
00000300: 47f2 853c 306b 2abe bfba c33c 7a23 3d3e
00000310: ee65 b0bd e612 0bbe f731 07bd 7308 0ebe
00000320: 2823 0f3d 63bb 53be e60c e93d 973e c5bc
00000330: 69ad 5b3e 2e5e 9fbd 76a8 38be 605d 653e
00000340: f4a6 09bd 8736 643e e841 363e 30a2 663e
00000350: 7cd7 0e3d f72e 203e c123 b2bd a2bb 5cbe
00000360: ca3e 893e 41b2 113e 6599 29be 322c 0dbe
00000370: 01a7 85bc 2a55 84be 59f6 babd 63ec 0d3e
00000380: 947e 273e d162 7b3e b1ed 7c3e ef27 943e
00000390: 9108 30bd 78fb 9f3e 1bf5 8b3d d28b 613c
000003a0: 4c12 d53c 8b86 303e 4ce8 e2bd 4a39 56be
000003b0: 4f98 86bc a45b 9fbe 9fab 193e 46f3 103e
000003c0: 56dd 953d ea07 11bc 61fe 85be 1006 b83d
000003d0: 959a 7fbe e807 7c3e 3882 a13e eedb 513e
000003e0: 5c25 17bc 3c6f 52be c7d2 9fbe 6ea3 9dbd
000003f0: 02fe 2abd aa1e a13d f30a 80be 104d 603e

output_layer.weight f4 [1, 512]
-0.057166316 -0.09096779 0.04448235 -0.021959445 -0.046370506 0.11495709 -0.0032879484 0.09604434
-0.018968858 0.08089977 0.082595706 -0.06813332 0.012860368 0.04604876 0.061201584 0.0534453
0.09265424 0.011822739 -0.0036016626 0.07143403 -0.06345276 -0.038656767 -0.0059615336 -0.11210393
-0.17050032 0.040806845 0.025784576 0.09628192 -0.07132187 -0.061903015 0.059881 0.028269596
0.051104087 -0.019930527 -0.017193425 0.03138689 0.05321469 -0.01464256 0.0021517095 -0.06250945
-0.016203463 0.013956691 0.04455169 -0.07009645 -0.049864095 -0.014198663 0.046662435 0.06814811
0.07246569 0.03635092 0.015049031 -0.030950941 -0.020295994 0.0160219 -0.037527487 0.045366045
-0.03708014 -0.01382095 0.036656007 -0.10088506 -0.14176679 -0.02719259 0.010410307 0.0014968107
0.024959354 0.010975689 -0.09869545 0.004400346 -0.00031305573 -0.05814489 0.0697943 -0.049178567
-0.079991154 0.10913318 0.026513236 0.059340786 0.048985045 0.018792205 -0.0038809278 -0.1125686
-0.017774766 0.05114442 0.05592708 0.0005073849 -0.060174786 0.016401127 -0.09351972 0.00076900556
0.019846445 0.07979568 -0.0581482 0.061750468 -0.03238412 0.1565137 -0.039715886 -0.010368016
-0.063063435 -0.052510753 -0.013347652 0.0077857897 0.029421553 -0.0717386 -0.031460956 -0.071144074
0.030751558 0.012697509 0.07277601 0.03559665 0.06584951 0.048294958 -0.041003916 0.007850464
0.07834989 0.09085369 0.090104364 -0.09750699 0.031583253 -0.047039043 -0.031649586 -0.03405896
0.06560698 0.035775412 0.04889957 -0.020427335 0.012694534 -0.06206707 0.022232674 -0.108334325
-0.09766844 0.029887764 -0.010243837 0.0056410795 0.08801489 0.021967834 -0.0835192 -0.07647367
-0.0063210214 -0.057929996 -0.033671267 -0.008361584 0.07974969 0.034006458 0.0072727427 0.039482843
0.066234566 0.015826153 0.013134999 0.097330086 0.06475156 -0.023219239 -0.010790538 -0.03945498
-0.04333582 0.04057822 0.16250768 0.066041045 0.06902073 -0.03657956 -0.0012727223 -0.035396717
-0.020103935 0.025618015 -0.029623523 0.0193175 0.02648698 -0.0099998815 0.08092739 0.041489836
-0.018417783 0.032645512 -0.01024878 -0.08827488 0.066765584 0.093622215 -0.009008971 0.062267598
-0.11064854 -0.19411412 0.10924734 -0.080386564 0.03575455 -0.011375118 0.025455398 0.10405731
-0.029119037 0.082853846 -0.059505444 -0.02294567 0.019149255 -0.1169999 -0.0075413752 -0.010657271
0.047891807 0.015642487 -0.098916605 -0.004825543 0.023623958 0.07197215 0.013229345 0.0024049329
0.031757135 0.012898132 0.005442029 -0.05056509 -0.04833541 -0.012065841 0.052943017 -0.047023136
0.013537019 0.018696675 0.042900696 0.052254084 0.097509995 -0.10356257 0.038615767 0.06854547
0.0044401544 -0.08544473 0.052879818 -0.019540733 -0.042767473 -0.11580718 0.07272951 -0.07642091
0.08821782 -0.08988169 0.018563643 -0.111479506 0.010003663 0.0027257875 -0.053969365 0.06322823
0.010483199 0.08283741 0.059829704 -0.06673542 -0.069067955 0.013084709 -0.12561084 0.105765946
0.018218804 0.06647887 -0.016488492 -0.014873465 -0.059283055 0.007351548 -0.044289965 0.010947902
0.0159454 0.075577796 0.07675608 0.029655876 -0.024867665 -0.050244022 -0.038622558 0.0882471
00000000: 3a27 6abd 524d babd 2033 363d 4be4 b3bc
00000010: 00ef 3dbd 9f6e eb3d 9f7a 57bb e5b2 c43d
00000020: 9464 9bbc c7ae a53d f027 a93d 7b89 8bbd
00000030: 4bb4 523c a09d 3c3d 83ae 7a3d 75e9 5a3d
00000040: 82c1 bd3d 29b4 413c df09 6cbb 014c 923d
00000050: 85f3 81bd 8f56 1ebd f858 c3bb bf96 e5bd
00000060: a397 2ebe 1425 273d 2d3a d33c 752f c53d
00000070: 3311 92bd 048e 7dbd c845 753d a495 e73c
00000080: 8552 513d 5845 a3bc 3ad9 8cbc 8a8f 003d
00000090: a6f7 593d 59e7 6fbc b203 0d3b f404 80bd
000000a0: 20bd 84bc 9baa 643c d57b 363d ba8e 8fbd
000000b0: 4b3e 4cbd 82a1 68bc 1c21 3f3d 3c91 8b3d
000000c0: e468 943d b4e4 143d 3690 763c d48c fdbc
000000d0: c943 a6bc 5c40 833c 6cb6 19bd bfd1 393d
000000e0: 58e1 17bd 4471 62bc 9c24 163d d49c cebd
000000f0: 502b 11be ffc2 debc fe8f 2a3c a230 c43a
00000100: 8f77 cc3c 60d3 333c d720 cabd c730 903b
00000110: a121 a4b9 5629 6ebd 50f0 8e3d 776f 49bd
00000120: 67d2 a3bd 3781 df3d 4932 d93c 530f 733d
00000130: 8ba4 483d 1cf2 993c 2a57 7ebb 5e8a e6bd
00000140: 639c 91bc d07c 513d cb13 653d 0602 053a
00000150: d679 76bd a85b 863c 4487 bfbd 1797 493a
00000160: 0395 a23c eb6b a33d cf2c 6ebd 0fee 7c3d
00000170: 36a5 04bd 2145 203e 20ad 22bd 9cde 29bc
00000180: 6727 81bd 8415 57bd 1cb0 5abc f01f ff3b
00000190: 7805 f13c b0eb 92bd 34dd 00bd fcb3 91bd
000001a0: b1ea fb3c 3609 503c 970b 953d cbcd 113d
000001b0: 1cdc 863d efd0 453d b9f3 27bd 3c9f 003c
000001c0: e875 a03d 8011 ba3d a388 b83d bfb1 c7bd
000001d0: 715d 013d 03ac 40bd ffa2 01bd 6881 0bbd
000001e0: f45c 863d 3d89 123d ea4a 483d 3a57 a7bc
000001f0: bcfc 4f3c 0a3a 7ebd 4c21 b63c 63de ddbd
00000200: 6406 c8bd 2fd7 f43c c4d5 27bc ced8 b83b
00000210: 2741 b43d e3f5 b33c 1d0c abbd 3a9e 9cbd
00000220: 9220 cfbb 0148 6dbd e2ea 09bd 06ff 08bc
00000230: ce53 a33d 5b4a 0b3d 3050 ee3b c3b8 213d
00000240: fda5 873d d9a5 813c 2e34 573c ff54 c73d
00000250: 779c 843d 4636 bebc ccca 30bc 8c9b 21bd
00000260: e780 31bd 5935 263d 6a68 263e 8740 873d
00000270: be5a 8d3d 73d4 15bd 79d1 a6ba 26fc 10bd
00000280: 02b1 a4bc dfdc d13c 08ad f2bc bc3f 9e3c
00000290: 39fb d83c 8bd6 23bc 42bd a53d 3ff1 293d
000002a0: e4e0 96bc 4db7 053d 80ea 27bc 76c9 b4bd
000002b0: 65bc 883d 01bd bf3d 5d9a 13bc 4f0c 7f3d
000002c0: b49b e2bd dac5 46be 12bd df3d b6a1 a4bd
000002d0: 5d73 123d b45e 3abc d787 d03c 001c d53d
000002e0: 0c8b eebc 47af a93d fbbb 73bd 8ff8 bbbc
000002f0: e6de 9c3c a59d efbd a41d f7bb d69b 2ebc
00000300: 332a 443d ac24 803c ca94 cabd 971f 9ebb
00000310: 0887 c13c 2266 933d e5bf 583c 149c 1d3b
00000320: c513 023d b052 533c 0c53 b23b 571d 4fbd
00000330: 5afb 45bd ceaf 45bc c7da 583d 559b 40bd
00000340: 5fca 5d3c c529 993c a4b8 2f3d 6108 563d
00000350: 52b3 c73d 9d18 d4bd 912b 1e3d 9161 8c3d
00000360: b77e 913b a6fd aebd 8298 583d e313 a0bc
00000370: f22c 2fbd 512c edbd 36f3 943d 9182 9cbd
00000380: 8bab b43d e413 b8bd c812 983c 5e4f e4bd
00000390: 67e6 233c 20a3 323b fb0e 5dbd cd7d 813d
000003a0: b9c1 2b3c a9a6 a93d fe0f 753d 94ac 88bd
000003b0: 8073 8dbd 3f61 563c 21a0 00be d19b d83d
000003c0: 9a3f 953c 1326 883d e012 87bc d5af 73bc
000003d0: cad2 72bd 41e5 f03b 6569 35bd d45e 333c
000003e0: ed9f 823c 88c8 9a3d 4b32 9d3d e1f0 f23c
000003f0: 46b7 cbbc adcc 4dbd b032 1ebd e5ba b43d
