bofire/benchmarks/models/baumgartner_aniline_cn_crosscoupling_descriptors/baumgartner_aniline_cn_crosscoupling_descriptors_predictor_0.pt (torch, 20247 bytes, 3 tensors)

input_layer.weight f4 [512, 7]
0	0x3eb4edd6	0.35337704
1	0x3ea2027c	0.3164252
2	0xbd9a3b13	-0.07530799
3	0x3e2f04f1	0.17091729
4	0x3e5f3e4f	0.21801113
5	0xbd1aa771	-0.03775734
6	0xbebcbf7c	-0.3686484
7	0x3e636d10	0.22209573
8	0x3d84d2af	0.06485497
9	0x3cf625f6	0.030047398
10	0x3e69e96d	0.22842951
11	0x3e7a5896	0.24447855
12	0x3e3d17cf	0.18466114
13	0x3e42433f	0.18970965
14	0xbb251775	-0.0025190983
15	0xbe5e7d94	-0.21727592
16	0x3e2fb741	0.1715975
17	0x3ba0a123	0.0049020215
18	0x3dd9367a	0.10606094
19	0xbd75058c	-0.059819743
20	0xbb97c2ce	-0.004631377
21	0xba9e47b0	-0.0012075808
22	0xbe01f9b3	-0.12692909
23	0xbe4b36b1	-0.19845082
24	0x3e6a71c4	0.2289496
25	0xbe86d914	-0.26337492
26	0xbe587cc9	-0.21141352
27	0xbe931835	-0.28729406
28	0x3c871194	0.016487874
29	0xbe9c4bee	-0.3052668
30	0x3dbc1869	0.09184343
31	0xbca42ec8	-0.020041838
32	0xbe5f3b99	-0.21800078
33	0x3e12138d	0.1426527
34	0x3e47c083	0.19507031
35	0x3e8d8724	0.27642167
36	0xbdcc71f6	-0.09982674
37	0xbeacec74	-0.3377415
38	0x3ebcd2d0	0.36879587
39	0x3eb7d064	0.35901177
40	0xbd4f6c7a	-0.05064056
41	0x3d9c96c0	0.07645941
42	0xbc222338	-0.009896092
43	0x3eb58a56	0.35457104
44	0xbdc0df6c	-0.09417614
45	0x3db64615	0.08900086
46	0xbd34a031	-0.044098083
47	0x3d9ce6fb	0.076612435
48	0x3e8a6ee6	0.27037734
49	0xbeacdef0	-0.33763838
50	0x3e019ee2	0.12658265
51	0xbeae0c4f	-0.33993766
52	0x3ebadb79	0.3649557
53	0xbe64c62f	-0.22341226
54	0xbe345086	-0.17608842
55	0x3da593ca	0.08084829
56	0xbdccd0b1	-0.10000742
57	0xbe74833e	-0.2387819
58	0x3d1a0e1b	0.03761111
59	0x3e1bd715	0.15218766
60	0xbe6e0a59	-0.23246135
61	0x3eb9e783	0.36309442
62	0xbe81dbdd	-0.25363055
63	0x3d3da9ed	0.046304632
64	0xbe289803	-0.16464238
65	0x3ea32a78	0.3186834
66	0x3daab6af	0.083356254
67	0x3ea1f883	0.31634912
68	0x3e81491d	0.25251094
69	0x3eb3a9d7	0.35090515
70	0xbdfc8c39	-0.12331433
71	0x3e1709de	0.14749858
72	0x3e6e8e72	0.23296526
73	0x3e9f29b9	0.3108652
74	0x3da56968	0.08076745
75	0x3e137c2f	0.14402841
76	0xbce0e990	-0.027455121
77	0x3eb395ef	0.35075328
78	0xbe11566e	-0.14193127
79	0x3e8137b1	0.25237802
80	0x3ea254ea	0.3170541
81	0x3e219f50	0.15783429
82	0x3ebb137e	0.3653831
83	0xbebed0c7	-0.3726866
84	0xb9b8be5c	-0.00035237044
85	0xbeb38851	-0.3506494
86	0x3e811905	0.252144
87	0x3eaf029d	0.3418168
88	0x3eb2c9f0	0.3491969
89	0xbe9b142a	-0.3028882
90	0xbe9d9e58	-0.3078487
91	0x3d61790f	0.05504709
92	0x3eada229	0.3391278
93	0x3e8b71d3	0.27235278
94	0xbe950d61	-0.2911177
95	0x3e6005a7	0.21877156
96	0xbe940803	-0.28912362
97	0xbdaa1582	-0.083048835
98	0x3ce818bd	0.028332109
99	0xbe757bb5	-0.23972972
100	0x3e69d975	0.2283686
101	0xbe3e4527	-0.18581067
102	0xbe7a555b	-0.24446623
103	0x3e0915ef	0.13387273
104	0xbd2296fb	-0.039694767
105	0xbe7483d6	-0.23878416
106	0xbe6e1bf0	-0.23252845
107	0xbd73b530	-0.059498966
108	0x3d67cf44	0.05659415
109	0x3d652631	0.055944625
110	0xbeb2b34c	-0.34902418
111	0x3e026906	0.12735376
112	0x3e8cc2d3	0.2749239
113	0x3e77bcd1	0.24193121
114	0x3e043a05	0.12912758
115	0xbe6be168	-0.23035204
116	0xbea001e8	-0.31251454
117	0x3e95c795	0.29253832
118	0xbe3987b4	-0.18118173
119	0xbe3e874b	-0.18606298
120	0x3e8c8a04	0.27449048
121	0x3d9353c1	0.07193709
122	0x3e715396	0.23567042
123	0xbeb471a4	-0.3524295
124	0xbe1b1481	-0.1514454
125	0x3ea0e1b8	0.3142221
126	0x3ec00155	0.37501016
127	0x3e40d658	0.18831766
128	0xbd867b98	-0.065665424
129	0x3d2fa83f	0.04288506
130	0x3e6fea0b	0.23429124
131	0xbdbf9bf1	-0.09355915
132	0xbd07b1e0	-0.03312862
133	0x3e9d9068	0.30774236
134	0x3e682b0d	0.22672673
135	0x3e198d5a	0.14995328
136	0xbeb654b6	-0.35611504
137	0xbe2edd21	-0.17076541
138	0xbea7b8b1	-0.32758096
139	0xbeaa7cc5	-0.33298317
140	0xbe51ee32	-0.2050102
141	0x3e8ef164	0.2791854
142	0x3ea94f5e	0.33068365
143	0x3e67e043	0.22644143
144	0x3e8c9aec	0.27461946
145	0x3e96aae9	0.2942727
146	0xbc8777fc	-0.016536705
147	0xbb787d26	-0.003791639
148	0x3ebeccb2	0.37265545
149	0xbdd84f35	-0.105619825
150	0xbea8dfba	-0.3298319
151	0x3e80c5df	0.25150964
152	0x3df25484	0.11832526
153	0xbeb10807	-0.34576437
154	0x3e0a5e89	0.13512625
155	0xbd8d08cc	-0.068864435
156	0xbe4879f0	-0.19577765
157	0xbdb25dca	-0.08709295
158	0xbcb27e89	-0.021788852
159	0x3e2d2f25	0.16912515
160	0xbeb76d89	-0.35825756
161	0xbe39f9f5	-0.18161757
162	0x3dc496c6	0.0959907
163	0xbe5e3463	-0.21699671
164	0xbd93e3b7	-0.072211675
165	0x3db6ed32	0.0893196
166	0x3dc85b1a	0.09783001
167	0xbcacd547	-0.021097792
168	0xbea59800	-0.3234253
169	0xbeb85810	-0.36004686
170	0x39bbfab5	0.0003585421
171	0xbe1310d1	-0.14361884
172	0xbd90f988	-0.07078844
173	0xbe1f0a63	-0.15531306
174	0xbea5d728	-0.32390714
175	0xbded5612	-0.11588682
176	0x3eaf41b6	0.3422982
177	0x3ea0e766	0.31426543
178	0xbea6b353	-0.3255869
179	0xbc880741	-0.016605021
180	0x3e5e10ee	0.21686146
181	0x3d99a343	0.07501843
182	0xbeab5826	-0.3346569
183	0x3dcb39b1	0.09923113
184	0x3e3c069f	0.18361901
185	0x3d9cdbfb	0.076591454
186	0xbe4b4331	-0.1984985
187	0xbea5f1cc	-0.3241104
188	0xbe47a269	-0.19495548
189	0x3e8e1223	0.27748212
190	0xbe2cb00e	-0.16864035
191	0x3ca5d47f	0.020242928
192	0x3e8532b7	0.26015255
193	0xbe27cd48	-0.16386902
194	0xbe5d41f5	-0.21607192
195	0xbcdbe562	-0.026842777
196	0x3dae4faf	0.08511292
197	0xbe341536	-0.17586216
198	0xbe9f958b	-0.3116878
199	0xbe5b7665	-0.21431883
200	0x3d66c744	0.05634238
201	0x3d10f9d5	0.03539451
202	0x3d986a0b	0.07442101
203	0xbc646127	-0.013939179
204	0xbe931497	-0.28726646
205	0xbe3e0632	-0.18557051
206	0xbe8c8c43	-0.2745076
207	0x3e5a45f2	0.21315745
208	0xbeb97621	-0.36222938
209	0x3e4903d4	0.19630367
210	0x3e0d6e5d	0.13811632
211	0x3e1fcc7d	0.1560535
212	0x3dd16523	0.102243684
213	0xbea0bb15	-0.31392732
214	0xbd95a5fd	-0.073070504
215	0xbe573db5	-0.21019633
216	0x3db43274	0.08798686
217	0xbe7b9632	-0.24569014
218	0xbe477de7	-0.19481622
219	0xbeb65686	-0.35612887
220	0xbdeee646	-0.11665015
221	0xbc15d732	-0.009145545
222	0xbdbf420e	-0.09338771
223	0x3c84e069	0.016220288
224	0xbe90426e	-0.28175682
225	0x3c69c946	0.014269179
226	0x3dec29b2	0.1153139
227	0xbe51fc95	-0.20506509
228	0xbe60112f	-0.21881555
229	0x3ea2c8a1	0.31793693
230	0x3ea5e8cb	0.3240417
231	0x3c63158f	0.01386012
232	0xbad005f6	-0.0015870917
233	0xbe59b7ff	-0.21261595
234	0xbe12a2be	-0.14319894
235	0x3e72c179	0.23706616
236	0x3e8b7cd9	0.2724369
237	0x3e8d058c	0.27543294
238	0xbdacd935	-0.084398665
239	0x3e895f15	0.26830354
240	0x3ebe455b	0.3716229
241	0xbe36e76e	-0.17861721
242	0x3e771a88	0.24131215
243	0xbe24a16f	-0.16077207
244	0xbe62fcc0	-0.22166729
245	0x3dc7a678	0.09748548
246	0x3e29789a	0.16549912
247	0x3c5de2ad	0.013542813
248	0xbe5250f3	-0.20538692
249	0x3e1e3d15	0.15452988
250	0xbbebd0d7	-0.0071965265
251	0xbe2d8098	-0.16943586
252	0xbeb3c89c	-0.3511399
253	0xbeb2210c	-0.34790838
254	0x3daa8355	0.08325831
255	0x3d9b06d0	0.07569659

input_layer.bias f4 [512]
0	0x3e4647e8	0.19363368
1	0x3e15f3c3	0.14643769
2	0x3e25b4c1	0.16182233
3	0x3ea56aaf	0.32307956
4	0xbda47039	-0.08029217
5	0xbde6594b	-0.112475
6	0x3e41660a	0.18886581
7	0x3d79f41d	0.06102382
8	0x3e7bf7e8	0.24606287
9	0xbe50e14a	-0.20398441
10	0xbe2a942d	-0.16658087
11	0x3e83c7a0	0.2573824
12	0x3eb0337f	0.34414288
13	0x3e077721	0.13229038
14	0xbe51540c	-0.20442218
15	0x3ec1ff4f	0.37890097
16	0xbe127152	-0.14301041
17	0xbd977839	-0.073959775
18	0xbda026dc	-0.07819912
19	0xbd35156f	-0.044209894
20	0x3e5593b3	0.20857124
21	0xbebb8949	-0.36628178
22	0x3e7e2728	0.24819624
23	0xbe87d57c	-0.26530063
24	0xbe619d1c	-0.22032589
25	0xbe1a99c5	-0.15097721
26	0x3eb35892	0.3502851
27	0xbe064435	-0.13111956
28	0x3e3eeac7	0.18644248
29	0xbe9036d6	-0.28166837
30	0x3ea15cb6	0.31516045
31	0xbe38af35	-0.18035586
32	0x3eb67426	0.3563549
33	0x3ebae810	0.36505175
34	0x3d9efaaa	0.07762654
35	0x3e8f9f5e	0.28051275
36	0xbe9c7549	-0.3055823
37	0xbdf2bbd1	-0.118522294
38	0xbe224e9d	-0.15850301
39	0x3ebf8004	0.37402356
40	0x3eba80f2	0.36426502
41	0xbe0cad67	-0.13738023
42	0xbe37bb6d	-0.17942591
43	0xbea0db62	-0.31417376
44	0x3dbeb099	0.09311027
45	0xbcac6843	-0.02104581
46	0x3d9c6b55	0.076376595
47	0x3ea71f47	0.3264105
48	0xbcde0bc2	-0.027105216
49	0xbbafad63	-0.0053612455
50	0x3e000cee	0.12504932
51	0x3d01c2ae	0.0316798
52	0xbd93bed6	-0.072141334
53	0xbc77be0f	-0.015120997
54	0x3c06fd18	0.008239053
55	0x3eab3a87	0.3344309
56	0x3d834f86	0.06411652
57	0x3ced144f	0.028940348
58	0xbd851953	-0.06498971
59	0x3cc6a29c	0.02424746
60	0xbdcb699b	-0.09932252
61	0xbe02fb27	-0.1279112
62	0x3e3204e1	0.17384674
63	0x3dc429fb	0.0957832
64	0xbcd21b6e	-0.025647845
65	0x3e971a05	0.2951204
66	0x3e158fc6	0.14605626
67	0xbe9906e9	-0.29888085
68	0xbebc8b8e	-0.36825222
69	0xbeb8700b	-0.36022982
70	0x3df5d55c	0.12003586
71	0x3eadf0ff	0.33972928
72	0xbeb9abd2	-0.362639
73	0x3e9bfc3b	0.30465874
74	0xbe76f120	-0.2411542
75	0xbdea4408	-0.11438757
76	0xbe63a6c8	-0.22231591
77	0x3e9f8ef9	0.31163767
78	0xbea373c0	-0.31924248
79	0xbdb83529	-0.089945145
80	0xbdcfcccf	-0.10146486
81	0xbea0b07a	-0.3138464
82	0x3ea2116d	0.3165392
83	0xbe3af767	-0.18258439
84	0x3deea878	0.116532266
85	0xbea474eb	-0.3212045
86	0x3e85a76a	0.2610429
87	0x3d3e808d	0.046509314
88	0x3e46439e	0.19361731
89	0xbde044a9	-0.10950596
90	0xbe84ccdb	-0.25937542
91	0xbc17a972	-0.0092567075
92	0x3e440b37	0.19144903
93	0x3e1a6d30	0.15080714
94	0xbeb4b724	-0.35295975
95	0xbe959d7e	-0.2922172
96	0x3e6d9f9b	0.23205416
97	0xbe39a68c	-0.18129939
98	0x3dfe7414	0.12424484
99	0xbdbbe4c4	-0.09174493
100	0xbd2236f9	-0.039603207
101	0x3e950bb8	0.29110503
102	0xbd74d09d	-0.05976926
103	0xbe9556a9	-0.2916768
104	0xbd95952e	-0.073038444
105	0xbeaef66f	-0.3417239
106	0xbea861be	-0.3288707
107	0x3d8ddd9c	0.06927034
108	0xbe38d52b	-0.18050067
109	0xbd9d5f7f	-0.0768423
110	0xbeb09166	-0.3448593
111	0x3e9ea46c	0.3098482
112	0x3e1157a6	0.14193591
113	0x3e9bca4f	0.30427787
114	0x3e000feb	0.12506072
115	0xbe33c946	-0.17557248
116	0x3db86540	0.09003687
117	0x3eb26273	0.34840736
118	0x3e6e0734	0.23244935
119	0x3daa4d73	0.083155535
120	0x3eabeacf	0.33577582
121	0x3e8fb657	0.28068802
122	0x3e44ff0e	0.1923792
123	0xbea39452	-0.31949097
124	0xbbcc2ba7	-0.0062307897
125	0x3e07479f	0.13210915
126	0xbdbca20a	-0.09210594
127	0x3e516b2b	0.20451038
128	0x3d186f8d	0.037215758
129	0x3e8ada06	0.27119464
130	0xbe50f1b7	-0.20404707
131	0xbd89f8a4	-0.067368776
132	0x3e7c913a	0.24664775
133	0xbe2d61fc	-0.1693191
134	0xbdedb007	-0.1160584
135	0xbdc83e09	-0.09777457
136	0xbea599e9	-0.32343987
137	0x3e5f82f1	0.21827294
138	0x3e6ee9dc	0.23331398
139	0x3ec054fd	0.3756484
140	0x3d7f5217	0.062334146
141	0x3e06a0a6	0.1314722
142	0x3e1f4254	0.15552646
143	0xbdd66fab	-0.10470518
144	0xbe6f4967	-0.23367845
145	0x3dc0c986	0.094134375
146	0x3e593e29	0.21215118
147	0xbea4ed39	-0.32212237
148	0xbd8df45c	-0.069313735
149	0xbe4486b7	-0.19192015
150	0xbe16d9c3	-0.14731507
151	0xbe968423	-0.29397687
152	0x3dcba471	0.09943474
153	0xba3cb4b1	-0.0007198556
154	0x3eb38234	0.35060275
155	0x3d3ec39e	0.046573274
156	0xbe2fb3ca	-0.17158428
157	0x3e38e2e0	0.18055296
158	0x3db5ebfe	0.088829026
159	0x3eb513f9	0.353668
160	0x3e12d584	0.14339262
161	0xbea7a447	-0.3274252
162	0x3e9b3826	0.30316275
163	0x3ebe2e75	0.3714482
164	0xbe2bdf27	-0.16784345
165	0xbebf590e	-0.3737263
166	0x3e1bc52c	0.15211934
167	0xbd93169a	-0.07182045
168	0xbd8faeba	-0.07015748
169	0xbd0419a7	-0.032251026
170	0xbe69698d	-0.2279417
171	0x3e90e917	0.28302833
172	0xbe76a949	-0.24088015
173	0xbe422670	-0.18959975
174	0xbea405db	-0.32035717
175	0x3e818690	0.25297976
176	0x3d8b6a77	0.06807416
177	0x3ebf9f74	0.3742634
178	0x3e7c4585	0.24635895
179	0x3c2e9113	0.010654706
180	0xbd15ea92	-0.036600657
181	0xbead34df	-0.338294
182	0x3e6639cf	0.2248299
183	0xbe4e479b	-0.20144503
184	0xbc9c5712	-0.019084487
185	0x3e48413d	0.19556136
186	0x3c194384	0.009354476
187	0x3ae7c50b	0.0017682625
188	0x3ea97bd8	0.33102298
189	0xbd820386	-0.06348328
190	0x3cb2fda6	0.021849465
191	0xbeb46fdd	-0.35241595
192	0x3e442742	0.191556
193	0xbc23e9df	-0.01000449
194	0x3da9e250	0.08295119
195	0xbe8e4f12	-0.277947
196	0x3c2c2731	0.010507391
197	0x3aab8e72	0.0013088717
198	0x3e7ddf1f	0.24792145
199	0x3ea38f20	0.31945133
200	0xbe85228a	-0.26002914
201	0x3e9ca1d5	0.30592218
202	0xbebe49dd	-0.37165728
203	0x3e0dbf95	0.13842614
204	0x3dc4fe28	0.09618789
205	0xbd293799	-0.041312788
206	0xbdd81f9c	-0.10552904
207	0xbe20bc02	-0.1569672
208	0xbe3238e8	-0.1740452
209	0x3e6b51d3	0.22980432
210	0x3d74ac38	0.059734553
211	0x3eaa3ef3	0.3325115
212	0xbe2733a3	-0.16328292
213	0x3e185bf9	0.14878835
214	0x3eb780fb	0.35840592
215	0x3dded1e9	0.10879881
216	0xbe967798	-0.29388118
217	0xbde0a957	-0.10969799
218	0x3c9ca498	0.019121453
219	0x3eac9320	0.33705997
220	0xbdbbf64e	-0.09177838
221	0x3e335acb	0.17515104
222	0x3eb6020a	0.3554843
223	0xbe962117	-0.2932212
224	0xbe9540b9	-0.29150942
225	0x3e921ffd	0.2854003
226	0x3e1e1436	0.15437397
227	0xbe8b5e0b	-0.27220187
228	0xbea75386	-0.3268091
229	0xbeb64a5f	-0.35603616
230	0xbcfa8b7c	-0.03058409
231	0x3e91333e	0.28359407
232	0x3c5f22d2	0.013619142
233	0x3d082eaf	0.033247646
234	0xbe8ed36b	-0.27895674
235	0x3e296460	0.16542196
236	0xbda784a6	-0.081795976
237	0x3e5b1cf6	0.21397766
238	0xbeac5943	-0.3366185
239	0xbe9fc2e2	-0.3120337
240	0xbea832a4	-0.32851136
241	0x3d3da440	0.04629922
242	0xbebd34b5	-0.36954275
243	0x3e209648	0.15682328
244	0x399f244f	0.00030353895
245	0x3dbbadac	0.09163985
246	0x3e74ce2a	0.2390677
247	0x3db2ea39	0.08736081
248	0x3e0e2f6f	0.13885282
249	0x3c3ea25d	0.01163539
250	0xbe89bec0	-0.26903343
251	0xbc08055f	-0.008302062
252	0x3e846435	0.25857702
253	0xbe20e9ed	-0.15714236
254	0x3e1344e1	0.14381744
255	0x3e2c2b79	0.16813459

output_layer.weight f4 [1, 512]
0	0xbd5a408e	-0.05328422
1	0x3d651999	0.055932615
2	0xbc9917bd	-0.018688077
3	0xbdca746a	-0.098854855
4	0xbd0fa1b9	-0.03506634
5	0xbd8782a5	-0.06616715
6	0x3ddb029b	0.10693856
7	0xbdd260e0	-0.10272384
8	0x3d3e54ac	0.04646747
9	0x3cccc8dc	0.024998121
10	0x3be9c8f3	0.0071345507
11	0x3da8a84a	0.082352236
12	0xbc559656	-0.013036331
13	0xbb996143	-0.004680784
14	0x3c8d955c	0.017283134
15	0xbde0f96a	-0.10985072
16	0x3c9f27d2	0.019428167
17	0x3d61ae0a	0.055097617
18	0xbd11dd1d	-0.03561126
19	0x3cd933f8	0.026514038
20	0x3cd7b0dd	0.026329452
21	0xbca405e7	-0.020022346
22	0xbd2c0643	-0.04199816
23	0xbc680e32	-0.014163541
24	0x3d9a666d	0.075390674
25	0xbc7ca2e0	-0.015419692
26	0xbd3f864d	-0.04675894
27	0xbce85186	-0.028359186
28	0xbd056083	-0.032562744
29	0xbd56cda9	-0.052442227
30	0xbd3a03ee	-0.045413904
31	0xbc95ef45	-0.01830257
32	0x3db7b1ba	0.089694455
33	0x3d67c3fe	0.056583397
34	0xbdcf7147	-0.10129028
35	0xbb708e37	-0.003670586
36	0x3cb6cb4b	0.022313735
37	0xbcb73492	-0.022363935
38	0x3db05bbd	0.08611248
39	0x3d824718	0.06361216
40	0xbcf1c052	-0.02951065
41	0x3c1ceb6f	0.009577616
42	0xba6157f5	-0.00085961755
43	0x3cbfcec2	0.02341402
44	0xbd333abc	-0.043757185
45	0x3d8440f9	0.06457705
46	0x3c1bb2ff	0.009503125
47	0x3c8c09c7	0.017094506
48	0xbc622ceb	-0.013804655
49	0x3ce149b8	0.027500972
50	0x3c6a4f4f	0.014301135
51	0x3a793fb9	0.00095080916
52	0x3da638ef	0.08116328
53	0xbb92fa47	-0.004485402
54	0xbd2d2684	-0.04227306
55	0x3d426308	0.047457725
56	0xbaa5dfe5	-0.0012655227
57	0x3c8e48fe	0.01736879
58	0x3a586e0f	0.0008256146
59	0xbcf0a990	-0.029377729
60	0x3d38bec4	0.045103803
61	0x3cb59955	0.022167841
62	0x3cfd1012	0.030891452
63	0xbd102a72	-0.03519673
64	0x3c8cd4da	0.01719134
65	0xbb1a4fb0	-0.0023546033
66	0x3c82ae5c	0.015952282
67	0x3b8f89e2	0.0043804506
68	0x3d2c0f79	0.042006943
69	0x3c4aefda	0.012386287
70	0xba885a0b	-0.0010402811
71	0xbcb82b86	-0.022481691
72	0x3d147d58	0.03625235
73	0xbc59cb87	-0.013293154
74	0xbb35e18f	-0.0027752852
75	0xbd442482	-0.04788638
76	0xbc37489f	-0.011186748
77	0x3be4d863	0.006983803
78	0x3d71834e	0.058963113
79	0xbd42540a	-0.047443427
80	0xbc0b74b3	-0.00851171
81	0x3c0e9089	0.008701452
82	0x3b8f5187	0.0043737325
83	0x3d678946	0.0565274
84	0xbd24f9cd	-0.04027729
85	0x3d101ee8	0.035185724
86	0x3d5a3857	0.053276386
87	0xbdce2ede	-0.10067533
88	0xbc9b1d16	-0.018934768
89	0x3daf46e9	0.08558447
90	0x3dc00ccf	0.09377443
91	0xbdca58b3	-0.09880199
92	0x3cf533b6	0.029931884
93	0xbd2b46c9	-0.041815553
94	0xbc352d71	-0.011058197
95	0x3d894cab	0.067040764
96	0x3db330c3	0.08749535
97	0xbd0c840a	-0.03430561
98	0xbbfb0d4e	-0.007661498
99	0xbdc0f62b	-0.09421953
100	0xbd5be81f	-0.053688165
101	0x3d33c4dc	0.04388891
102	0x3cfcc660	0.030856311
103	0x3d8519ea	0.06499083
104	0x3d2b97fc	0.04189299
105	0xbc7e66e7	-0.0155274635
106	0xbb545d0d	-0.0032404095
107	0xbd447d43	-0.04797102
108	0x3d39e6dc	0.04538618
109	0x3cfd4cfe	0.030920502
110	0x3cb1c8e5	0.02170224
111	0xbd45cbd8	-0.048290104
112	0xbd8aa3c6	-0.067695186
113	0x3d336c5e	0.04380452
114	0x3d1b6956	0.037942253
115	0x3da100a3	0.078614496
116	0x3d0cacf6	0.034344636
117	0x3cc85100	0.024452686
118	0xbd150fd7	-0.03639206
119	0xbcdd4f59	-0.027015375
120	0xbc469273	-0.012119877
121	0x3d0f4d72	0.034985967
122	0xbc7a05c8	-0.015260167
123	0xbd482788	-0.048865825
124	0xbd213374	-0.03935571
125	0xbaef6c45	-0.001826652
126	0x3cf85252	0.03031269
127	0x3ce501c3	0.027954942
128	0xbc018ddb	-0.007907356
129	0xbd9305d8	-0.07178849
130	0x3c5a52c6	0.013325399
131	0xbc9b2f5a	-0.018943477
132	0xbdfefab0	-0.124501586
133	0xbda751e3	-0.081699155
134	0xbd260946	-0.040536188
135	0x3d274bdb	0.040843826
136	0x3d9a8336	0.07544558
137	0xbd896d63	-0.06710317
138	0x3c57d9ac	0.013174456
139	0xbc15c33b	-0.009140785
140	0xbc9027b6	-0.01759706
141	0x3b3cfdbb	0.0028837759
142	0xbd28ed94	-0.041242197
143	0xbdca8501	-0.0988865
144	0x3b26ee32	0.0025471565
145	0x3c25f666	0.010129547
146	0x3c6bd39f	0.014393716
147	0x3d84caed	0.064840175
148	0xbcef49a5	-0.029209921
149	0xbc66a6b0	-0.014077827
150	0x3b8d8e18	0.0043199174
151	0x3c2e2740	0.010629475
152	0xbd383ff8	-0.04498288
153	0x3cdcc09f	0.026947318
154	0xbc9e74f1	-0.019342871
155	0x3d6c323f	0.057665106
156	0x3b671fce	0.003526676
157	0xba2d4c89	-0.0006610831
158	0xbcea60cc	-0.02861061
159	0x3c4fcb2f	0.01268272
160	0x3dd4d259	0.10391683
161	0x3afece53	0.0019440152
162	0x3c6c1cfb	0.014411206
163	0xbd13b620	-0.03606236
164	0x3d8b059d	0.0678818
165	0xbd867ba1	-0.06566549
166	0x3de00f65	0.10940436
167	0xbd41cd05	-0.047314662
168	0xbcafd993	-0.021466052
169	0xbd85bfe2	-0.06530739
170	0xbd899424	-0.06717709
171	0xbd616b81	-0.055034164
172	0xbb8fdb42	-0.0043901512
173	0x3c417a6f	0.011808976
174	0x3d941724	0.07230976
175	0x3d4d8ba8	0.050182015
176	0xbd54695e	-0.0518583
177	0x3c9418fe	0.018078323
178	0xbe0b3a79	-0.13596524
179	0xbd39dcfd	-0.045376766
180	0x3d2c3107	0.042038944
181	0x3ce21050	0.027595669
182	0x3dbfd73f	0.09367227
183	0x3cf3e816	0.029773753
184	0xbd0b3b15	-0.033991892
185	0x3bfce899	0.0077181575
186	0x3d3ffc71	0.046871606
187	0xbd3e7566	-0.04649868
188	0x3cf26b1c	0.02959209
189	0xbbc8dc5c	-0.0061297845
190	0xbc87081e	-0.016483363
191	0x3be08471	0.0068517257
192	0x3d61a5f2	0.0550899
193	0x3ccdad81	0.025107147
194	0xbb0a9fc2	-0.0021152352
195	0x3bb2875f	0.0054482664
196	0x3d941c29	0.072319336
197	0xbcdfffd9	-0.027343677
198	0xbd0408d4	-0.03223498
199	0x3ae033cf	0.0017105284
200	0xbd5e8f6c	-0.054335997
201	0x3d7496bb	0.05971406
202	0x3d125e67	0.03573456
203	0xbc7338c6	-0.014845079
204	0xbd89bde7	-0.06725674
205	0x3d6dad24	0.058026448
206	0x3ce5f797	0.028072162
207	0xb9ad1191	-0.0003301022
208	0x3c959aa9	0.018262224
209	0xbd004a55	-0.03132089
210	0x3d2f9738	0.042868823
211	0x3d3ce9e9	0.04612151
212	0x3c23ff9a	0.010009671
213	0x3d0603eb	0.03271858
214	0xbd005e4e	-0.031339936
215	0x3dae4b98	0.08510512
216	0xbd65efba	-0.056136824
217	0x3da027aa	0.07820065
218	0x3c8bdbcd	0.017072583
219	0x3d46f21d	0.04857074
220	0x3cb363f9	0.021898257
221	0x3ba5d423	0.005060689
222	0x3d3f738c	0.046741053
223	0xbd0b1042	-0.03395105
224	0xbb81e4f4	-0.003964061
225	0x3c4c3ac2	0.012465181
226	0xbd6204f9	-0.055180524
227	0xbd1262a5	-0.035738606
228	0x3d4ff54e	0.05077105
229	0xbda9e517	-0.082956485
230	0xbd84f17a	-0.064913705
231	0xbd14566c	-0.03621523
232	0xbce31f20	-0.027724802
233	0x3c8e6158	0.017380401
234	0x3de42cb6	0.111413404
235	0xbc6ba062	-0.0143815
236	0xbd9b0471	-0.075692065
237	0xbcba179f	-0.022716342
238	0x3c8e7eeb	0.017394504
239	0x3c6b07b0	0.014345095
240	0x3bdce554	0.006741205
241	0xbceaf9c1	-0.028683545
242	0x3d04946c	0.03236811
243	0xbc3eee5d	-0.01165351
244	0x3da74d40	0.08169031
245	0x3b829ba7	0.0039858404
246	0x37bf41cf	2.2799619e-05
247	0x3da1ca15	0.07899872
248	0x3be63097	0.0070248353
249	0xbaaae165	-0.0013037144
250	0xbd568d66	-0.05238094
251	0xbbe28c52	-0.0069137
252	0x3cf7e4c1	0.030260446
253	0xbd2fd754	-0.042929962
254	0x3d9b0a86	0.075703666
255	0x3cf5c087	0.02999903
