bofire/benchmarks/models/baumgartner_aniline_cn_crosscoupling_descriptors/baumgartner_aniline_cn_crosscoupling_descriptors_predictor_3.pt (torch, 20247 bytes, 3 tensors)

input_layer.weight f4 [512, 7]
000000 a0 0a 2d 3e 3b de 4c be 5b c0 b4 bb a9 25 7c 3e
       0.16898584 -0.20006649 -0.0055160946 0.24623741
000010 c5 f0 87 be b5 73 0c 3e 24 22 85 3e dd a2 8e 3e
       -0.2655088 0.13716014 0.2600261 0.2785863
000020 3b 58 22 be a9 46 04 3e 14 df fc bd f6 f0 9e 3e
       -0.1585397 0.1291758 -0.12347236 0.31043214
000030 5a 93 31 be 17 cb ac 3e 8e 22 ba be bb 0e ad 3e
       -0.17341366 0.33748695 -0.36354488 0.338003
000040 04 23 86 be 0f a2 eb bd ba d2 0f be a0 34 a8 be
       -0.2619859 -0.115055196 -0.1404523 -0.3285265
000050 30 ae 90 be 09 3e d8 bc 42 58 a9 bd 1e 04 6d be
       -0.28257895 -0.026396768 -0.08268787 -0.23146102
000060 a6 13 26 bd fa a3 7d bc a6 42 2d bd 8a c3 c0 be
       -0.040546082 -0.01548099 -0.04229989 -0.37649184
000070 13 c3 07 be bb 38 be bd 91 62 a9 be 3c 64 95 bc
       -0.13258009 -0.09288164 -0.33083013 -0.018236272
000080 f1 ed b3 3e 27 c2 eb bc bd 5b b1 be 6a f5 0b be
       0.35142472 -0.028779102 -0.34640303 -0.13667837
000090 42 27 bd 3e b4 03 e6 3d 1b a7 13 3e 7c dc 52 be
       0.36944014 0.11231175 0.14419214 -0.2059192
0000a0 b4 55 b9 3e 41 8d 38 3e 35 e3 df bd 0f df bb 3a
       0.361982 0.18022634 -0.10932008 0.0014333444
0000b0 26 48 9b 3e 14 ea a7 3e 14 18 2d 3e 26 3f a7 be
       0.30328482 0.32795775 0.16903716 -0.32665366
0000c0 53 31 b3 be 45 7a 53 bc d7 ea 06 bd 6a 1f 02 3d
       -0.3499857 -0.012907569 -0.032938804 0.03176824
0000d0 5d 31 b2 3c eb 43 ac 3e a0 5a 12 be 67 5a 9b 3d
       0.021752054 0.33645567 -0.14292383 0.07585602
0000e0 45 0d 6b be 53 b4 24 be 2a ae 8f 3e b0 7e bf 3d
       -0.2295428 -0.16084413 0.28062564 0.093503356
0000f0 e7 35 96 3e 97 16 8d bd dd c8 aa be d3 db 17 3e
       0.29338 -0.06889074 -0.33356372 0.1482995
000100 f7 4c 10 3e 8e c9 b2 3e a7 94 45 be 80 91 96 3d
       0.1409186 0.349194 -0.19294988 0.07351971
000110 be 7a a1 be 4d f2 24 be a2 64 c0 be ae af 4a 3d
       -0.31538957 -0.16108055 -0.37576777 0.049483947
000120 4f 2e de bd c4 04 b4 be 20 48 77 3e ab 86 b8 be
       -0.108486764 -0.35159886 0.24148607 -0.36040244
000130 23 bb 3c be e6 66 b8 3e 7a 66 bf 3e 9a bd a6 be
       -0.18430762 0.36016005 0.3738287 -0.3256653
000140 91 f8 18 3b ff 8e f9 bd 52 a0 1b 3e 02 fd 80 be
       0.0023341516 -0.121854775 0.15197876 -0.2519303
000150 80 59 a5 3e a3 d8 52 bd 9c 3d 91 3e 0a f7 18 3e
       0.32294846 -0.051476132 0.28367317 0.14937988
000160 77 79 fa bc 34 d3 0c 3e ea 64 94 3e 21 d9 8c 3e
       -0.030575497 0.13752443 0.2898324 0.27509406
000170 3c 01 2e 3e 2b bf b8 be df fa a8 be b9 55 a5 be
       0.16992658 -0.3608335 -0.330039 -0.32291964
000180 0e 63 2c 3e 0d 0e 4a 3e fe 02 28 be 0b 1d cd 3d
       0.16834661 0.19731922 -0.16407391 0.10015305
000190 05 1d 2b 3d 7f c1 8f be 5a 86 10 be 71 55 ae be
       0.041775722 -0.28077313 -0.14113751 -0.34049562
0001a0 b4 55 8c 3e 67 60 82 3e 7c 37 bc 3e 3c 98 4c 3e
       0.27409136 0.25464174 0.3676108 0.19979948
0001b0 79 63 bd 3c 7b 5e 3d be c6 c1 ba bd 05 f7 d2 bd
       0.023118721 -0.18493073 -0.091189906 -0.103010215
0001c0 49 3b 10 3e 50 b2 bb 3d 96 c2 14 3e e0 b8 73 3e
       0.14085115 0.0916487 0.14527354 0.23800993
0001d0 22 c4 be be c5 45 8d be 41 37 00 3e f3 93 7b 3d
       -0.37259012 -0.27592292 0.12521078 0.061420392
0001e0 25 cb 37 3e 41 75 02 3e bc 33 98 be 41 71 b5 3c
       0.17948587 0.12740041 -0.2972697 0.02214873
0001f0 77 a4 42 3c dc d9 e9 3c 23 b8 69 be dd bf 9e 3c
       0.011880032 0.028546266 -0.22824149 0.019378597
000200 1e d7 6f 3e 15 a9 12 3e 8c 2f 89 be 4c 15 b0 3e
       0.23421904 0.14322312 -0.26794088 0.34391248
000210 0c ad 6f 3e 19 b5 0d be 63 20 ea bd 09 9f 96 be
       0.23405856 -0.13838615 -0.114319585 -0.2941821
000220 bf 4f b9 be 52 a5 bd be d2 39 43 be 49 0f 9d bc
       -0.36193654 -0.37040192 -0.19065025 -0.019172328
000230 d4 21 a3 3e d6 71 18 3d f8 fb 6d 3e 1c d0 47 be
       0.31861746 0.037217937 0.2324065 -0.19512981
000240 d6 ed de 3d 86 ee a7 be 3a ea 78 3e 36 b5 af 3e
       0.10885207 -0.32799166 0.243081 0.3431794
000250 c5 6e b6 3e e4 36 be 3d a8 d9 8f be da d8 21 3e
       0.35631385 0.09287813 -0.28095746 0.15805379
000260 60 ed 03 3e 2c 95 c9 be 0c 3b 21 be 48 b3 3d be
       0.1288352 -0.39371622 -0.15745181 -0.18525422
000270 d0 05 62 3e d1 71 ff bd 73 75 39 3e 0a 8a f9 3d
       0.2207253 -0.12472881 0.1811121 0.12184532
000280 ea 9e c5 3d 77 d9 87 be 15 6a 8b 3e 33 bd 0c 3e
       0.09649451 -0.265331 0.27229372 0.13744049
000290 34 51 b1 3e 01 47 8e 3e 17 04 9f 3e 89 76 0e be
       0.34632266 0.27788547 0.31057808 -0.13912405
0002a0 84 9a 04 3e aa 99 d4 bd a5 36 8c be 82 d2 ac be
       0.12949568 -0.103808716 -0.2738544 -0.33754355
0002b0 07 e2 4f be a9 c5 a3 3e d8 c1 bd be 46 39 6c be
       -0.20301066 0.3198674 -0.37061954 -0.23068723
0002c0 38 ae 42 3e 04 28 05 be 0c 9b 0e 3d 75 61 52 be
       0.19011772 -0.13003546 0.034815833 -0.2054499
0002d0 0f 72 46 be 48 4a 5c 3e 21 10 e6 3d 1e b8 e6 bd
       -0.19379447 0.21512711 0.11233545 -0.11265586
0002e0 c4 79 a7 3b 9c 54 a2 3e a1 4b a3 3d bc 86 a9 bd
       0.005110951 0.31705177 0.079734094 -0.08277652
0002f0 4a d1 e3 bd 18 1a fb bd d3 10 95 3e b7 27 b7 3e
       -0.11123903 -0.12260836 0.29114398 0.35772488
000300 fa 8d 1a be fc 42 23 3d 95 cf 8c 3e 5b 4d 6b 3e
       -0.15093222 0.039858803 0.27502123 0.22978728
000310 e0 ef 28 3e 37 a4 f7 bc c5 ca 8c be e0 d7 69 3e
       0.16497755 -0.03022967 -0.2749845 0.22836256
000320 f5 f4 92 bd b8 c2 60 bd d6 7c 5d be c2 cb 3f be
       -0.07175628 -0.0548732 -0.21629652 -0.18730071
000330 76 19 81 3e 4f 58 97 3e dc dc bb 3e 57 8e ae be
       0.25214738 0.29559562 0.3669194 -0.34092972
000340 9c 14 9c 3e 72 d0 65 3e 94 95 03 3b 85 b8 29 3e
       0.30484474 0.22442797 0.002007817 0.16574295
000350 b7 58 8f 3d 10 a9 4c 3e 55 44 19 be 13 2a c1 be
       0.06999343 0.19986367 -0.14967473 -0.37727413
000360 60 f1 41 be 8a b9 8d 3e d5 ba 93 3e c2 d8 9a be
       -0.18939734 0.27680618 0.2885348 -0.30243498
000370 3c 0f 97 3e 91 88 33 be de f9 2b 3e c8 d4 be 3e
       0.2950381 -0.17532565 0.16794536 0.37271714
000380 df 77 14 3e a2 4a a3 be 21 7d 82 3d d6 c9 95 be
       0.14498852 -0.31892878 0.06371523 -0.2925555
000390 35 42 b0 3e 61 a3 73 3e f0 c3 e3 bd f6 b8 b2 be
       0.34425512 0.23792793 -0.111213565 -0.3490674
0003a0 73 e6 be be d7 5b b8 3e e4 14 88 bd 30 13 1b 3e
       -0.37285194 0.36007568 -0.066446096 0.15144038
0003b0 98 03 8f be 7b 98 25 3e bd 14 bb bc 15 74 c1 be
       -0.2793243 0.16171448 -0.022837037 -0.37783876
0003c0 d5 13 6a bd b9 d7 93 3e b3 90 8c 3d 07 23 44 be
       -0.05714782 0.2887552 0.06863537 -0.19153987
0003d0 d4 4d 84 be 18 1e bb 3e fc 37 aa 3e 26 20 ab be
       -0.25840628 0.36546397 0.33245838 -0.33422965
0003e0 b6 ba 87 be 7a ca 69 3d 32 75 ec 3c 73 66 64 3e
       -0.26509637 0.057077862 0.028864477 0.22304706
0003f0 2e 4f 00 be 1a 89 03 bd b5 33 ae bd 31 22 c2 be
       -0.12530205 -0.032113172 -0.08505956 -0.3791671

input_layer.bias f4 [512]
000000 64 ec 2e be e3 d3 bf 3c 19 c3 20 bc 9f a2 58 3e
       -0.17082363 0.023416465 -0.00981214 0.21155785
000010 bf 33 56 bd 0b 51 41 be 59 3b 85 be e7 9c 3a be
       -0.052295443 -0.18878572 -0.2602184 -0.18223916
000020 ff ea 2c 3c 2f 45 58 3e a1 1e 37 be 1b 3f b6 bd
       0.010554074 0.21120141 -0.17882778 -0.08898755
000030 fb 53 ad 3e 47 35 41 bd 60 75 e5 3d 93 2e a3 be
       0.33853135 -0.04716995 0.11204028 -0.3187147
000040 7a f5 bb be e3 83 a1 3d 48 89 66 3e d0 fb 59 be
       -0.3671072 0.078864835 0.22513306 -0.21287465
000050 07 10 b4 be 7c 8b 21 3e f9 08 ce bd 9c 2a ab 3c
       -0.35168478 0.15775865 -0.10060305 0.020894341
000060 ef ef 63 be 45 71 ac 3d 9c b2 58 3c 01 7e ff 3b
       -0.22259496 0.08420042 0.013226178 0.0077970033
000070 11 56 36 be 9d 86 54 3e 30 45 f4 3d aa a6 a8 be
       -0.17806269 0.20754476 0.11927259 -0.32939655
000080 3d 71 8a 3e ce b1 f7 bd b2 95 6e 3e f4 d6 4c be
       0.2703952 -0.120944604 0.23299292 -0.20003873
000090 8c 78 9b be 13 6f b2 be 58 dd 41 be 5e bc a6 3e
       -0.30365407 -0.34850368 -0.18932092 0.32565588
0000a0 57 04 f9 3c 7e c4 2f 3e 17 6c 2f be c6 80 c6 3d
       0.030397577 0.171648 -0.17131077 0.0969253
0000b0 3f b6 87 be f1 d6 2a 3e a7 3e 3a bd cb 74 c0 bc
       -0.2650623 0.16683556 -0.045469906 -0.023493191
0000c0 f8 1c ac 3d 6b dd 1a bc ae bb ae be 3b ec 12 3e
       0.08403963 -0.009452204 -0.34127563 0.14347927
0000d0 a8 44 fb 3c 46 51 d0 3d 98 b8 80 be c4 4f b6 be
       0.030672386 0.10171752 -0.25140834 -0.3560773
0000e0 02 df bf be a3 bc 12 3e a9 ab 82 bd eb 61 76 be
       -0.3747483 0.14329772 -0.06380398 -0.2406079
0000f0 37 12 a0 3d cd 88 0e be 8d 85 4a 3e 46 e8 74 3e
       0.07815974 -0.13919373 0.19777508 0.2391673
000100 15 6d 30 bd 94 9f c5 3d a8 69 8c 3e 61 e3 f4 3d
       -0.04307278 0.09649578 0.2742436 0.119574316
000110 41 1d a2 bc f2 62 85 3e 12 26 8e be 70 f3 57 be
       -0.01978934 0.26052052 -0.2776342 -0.21088958
000120 5e 0b 43 be be 52 83 be 35 38 cc bd b1 22 15 be
       -0.19047305 -0.25649065 -0.09971658 -0.14564015
000130 52 75 8d bc 3f bd 6b 3e c9 a1 59 be e4 d0 91 3b
       -0.017267857 0.2302141 -0.21253122 0.0044499505
000140 ef a9 8a be 2f d9 ae be 4a 3a 2c be 74 83 99 be
       -0.27082774 -0.34150073 -0.1681911 -0.29983103
000150 b7 d6 7f be 92 a5 89 3d c7 5a 66 3e 57 b9 93 be
       -0.24984251 0.06721033 0.22495566 -0.2885234
000160 5e 8e 2b 3e 8d 90 cd bd a4 09 41 bd 0b 01 f4 3d
       0.16753528 -0.100373365 -0.047128335 0.119142614
000170 2d 8d a5 3e d4 c7 5c 3e 24 69 58 3e 1a 86 3b 3e
       0.3233427 0.21560603 0.21133858 0.18312874
000180 86 cf c5 3a 37 33 9a be 84 74 5e be 57 21 90 3d
       0.0015091754 -0.301172 -0.21724135 0.07037609
000190 ac 1e 27 3e 9c 1b 52 3e 61 fb 83 3e 0b ab bb be
       0.16320294 0.20518345 0.25777724 -0.36653933
0001a0 b8 48 89 be de 3f 45 be 74 5a 9c 3e 68 05 2e 3e
       -0.26813293 -0.19262645 0.3053776 0.1699425
0001b0 53 83 e7 bd 4c cb 1c 3d 6a 88 ae 3e 08 e1 19 3e
       -0.11304345 0.038279817 0.3408845 0.15027249
0001c0 0f 7d 85 3e d0 fc 71 3e 4f 8a 94 3e 09 2a 40 3e
       0.26071975 0.23631597 0.2901177 0.18766035
0001d0 d6 0f 7e 3d 48 77 84 be 45 0e 17 be bc a0 cb 3d
       0.06202682 -0.25872254 -0.14751537 0.09942767
0001e0 b6 6d b7 3e 7c be 75 3e 7f 42 16 3e 19 87 5a bd
       0.3582589 0.23998445 0.14673804 -0.053351495
0001f0 3a e3 b7 3d 5b 7b 10 3e c9 0c 5b 3e 3d c5 ac be
       0.08978887 0.14109556 0.21391596 -0.3374423
000200 f4 95 8c be 85 ce 40 3e 2e c4 b2 be 29 58 14 be
       -0.27458155 0.18828781 -0.34915298 -0.14486755
000210 60 cd ae be 85 88 7d 3d 29 e6 30 bd 1c 9f 06 3e
       -0.34141064 0.061897773 -0.043188248 0.13146633
000220 a0 be 82 3e b5 bb 9b 3e 7e 79 0c be 90 67 87 be
       0.2553606 0.30416647 -0.1371822 -0.264462
000230 2e 02 9a be f3 c2 aa bd 8e 37 5c 3e e2 d0 27 3e
       -0.30079788 -0.08337965 0.21505567 0.16388276
000240 32 bb 8c 3e 56 71 31 3e 97 0d a8 bd 8d 3a 7a 3e
       0.2748657 0.1732839 -0.08205717 0.24436398
000250 f0 b1 22 3e ea 72 1d be bb 7f 55 bc 49 2f 1f 3e
       0.1588819 -0.15375867 -0.013030942 0.15545382
000260 82 14 83 3e b6 9a 29 bd b1 71 13 3e cf 91 91 be
       0.25601584 -0.04140731 0.14398839 -0.28431556
000270 e6 0d 48 be 67 d2 b4 3e 45 45 4e 3e aa 08 65 3e
       -0.19536552 0.35316774 0.20143612 0.22366586
000280 44 41 21 3e 33 87 80 be d2 5f 8d bc bb 90 86 be
       0.15747553 -0.2510315 -0.017257605 -0.26282296
000290 69 7a 97 be ed fe ec bd f1 1e ab bb 08 b0 bd be
       -0.2958558 -0.11572061 -0.0052221944 -0.37048364
0002a0 7f 2d b3 3e ac 87 3d 3e e6 55 8b be bb 09 87 be
       0.34995648 0.18508786 -0.27213973 -0.2637461
0002b0 e8 c1 c1 3d db 32 59 3e de f8 59 be 58 38 39 3e
       0.09460813 0.21210806 -0.21286342 0.180879
0002c0 21 92 be be 4d b7 b8 be e9 79 60 be 56 8b a0 3e
       -0.37220863 -0.36077347 -0.21921505 0.31356305
0002d0 c1 f3 d1 3d ae 69 2b 3e 94 8b 95 3c 03 88 1d be
       0.102515705 0.16739532 0.018255033 -0.15383916
0002e0 77 78 8b 3e 8f 50 7d bd 31 ae a4 3c 42 b0 2e 3e
       0.27240345 -0.061844405 0.020102592 0.17059425
0002f0 03 2a 94 3e 49 d2 84 be b7 73 f8 bd 69 fa 3f be
       0.28938302 -0.25941685 -0.12131446 -0.18747868
000300 db 64 39 be ba 6b b0 be 15 1a 6f be b8 ff f0 3d
       -0.1810488 -0.3445719 -0.23349793 0.117675245
000310 84 46 9d 3e 6f 03 5f be df a7 92 3e 57 6a 8d 3e
       0.30717862 -0.21778654 0.286437 0.27620193
000320 1e aa 1a 3e be 1f ba bd 2f 80 a1 bd 3f 91 78 be
       0.15103957 -0.090880856 -0.07885777 -0.24274157
000330 38 2d bf 3c 9a 81 b1 3e 04 ea 41 3e 01 66 23 3e
       0.023336992 0.3466919 0.18936926 0.1595688
000340 00 79 25 bd a2 72 1f 3e 85 64 56 be 53 de 82 3d
       -0.040398598 0.15571073 -0.20936783 0.06390061
000350 9f 4e af bd 68 99 52 3e 01 1f fe bc c6 d3 93 3d
       -0.08559918 0.20566332 -0.031020643 0.07218127
000360 ca 85 be be 87 ef 5f be 22 ab a2 3e 58 d0 25 bd
       -0.37211448 -0.21868716 0.3177119 -0.040481895
000370 30 ce 3b 3e 77 ac 80 3e 1e ef f1 bd 2e 3b fa bc
       0.18340373 0.2513158 -0.11813186 -0.030545797
000380 a2 12 57 bd e2 01 36 3e 48 1c fe 3d 55 eb 02 3e
       -0.052508004 0.17774156 0.12407738 0.12785085
000390 78 50 b3 be a8 5e 80 be 54 5c 2f 3e 55 ab c0 3d
       -0.3502233 -0.25072217 0.17125064 0.09407679
0003a0 31 a5 13 be b9 63 7a 3d de 12 b8 3d 3b e5 43 3e
       -0.14418484 0.06113026 0.08987974 0.19130413
0003b0 ec 13 a0 3e ed bb 96 3e 0b 39 80 be fa 03 b6 3e
       0.312652 0.2944025 -0.2504352 0.3554991
0003c0 7c e8 5e 3e 41 ed d7 bc ea 73 f5 bd be ab 30 3d
       0.21768373 -0.026358249 -0.119849995 0.043132536
0003d0 d1 94 2c bd 71 a2 cd 3d 1c cb a0 3e a4 ff 84 be
       -0.04213411 0.10040749 0.3140496 -0.25976288
0003e0 b9 f7 0a be 09 64 ba 3e 30 09 92 be cc c0 b1 3e
       -0.13571061 0.36404446 -0.28522635 0.34717405
0003f0 36 a4 a4 3e 4e e8 12 3c cd 65 1f 3e 78 42 78 3e
       0.32156533 0.008966519 0.15566178 0.24244106

output_layer.weight f4 [1, 512]
000000 fb d2 8d bd c9 f7 a6 bc db b4 c0 bc 61 0e 1f 3d
       -0.06925007 -0.020381825 -0.023523739 0.038832072
000010 e4 82 34 3d 39 ef 87 3d 02 fe 91 bc 11 ca 19 bb
       0.04407014 0.06637425 -0.017821316 -0.0023466388
000020 d3 a7 3b bc 98 4a 9c bd 40 2c 44 bd 27 51 c7 bc
       -0.011453587 -0.07631415 -0.047893763 -0.024330689
000030 61 35 e1 3c 05 1a f0 bc 93 97 1c 3d 30 b4 90 bc
       0.027491273 -0.029309282 0.03823049 -0.017664045
000040 6d 4e 9e bc 91 ff 00 3c 0c 39 4d 3d 93 40 0f bb
       -0.019324506 0.007873432 0.050103232 -0.0021858558
000050 1a 14 f9 3b c8 8b 85 bd 08 68 fd bb 87 bf 2e 3d
       0.0076012732 -0.06520802 -0.0077333488 0.042663123
000060 0a 74 b2 3c 77 c2 3f 3d 6d 63 20 bd 06 53 6b bd
       0.021783847 0.046816316 -0.03915732 -0.057452224
000070 e9 8a 87 3c 88 fb 4d 3d c8 fb 69 bc bf 7f 91 3d
       0.01654573 0.050288707 -0.014281221 0.07104444
000080 2a 9b 64 3c bb 5d b5 bc c9 3e 5e 3d 6d 4e d1 3c
       0.01395301 -0.02213942 0.054259095 0.025550092
000090 c6 09 16 bd c1 26 37 3d 5c 28 3b 3d 60 57 38 37
       -0.036630414 0.044714693 0.045692787 1.0987598e-05
0000a0 94 a6 cd 3d 78 35 3c bd e8 57 19 3d 29 53 b1 3c
       0.10041538 -0.04594943 0.03743735 0.0216461
0000b0 e5 55 19 bd 6c ec 9c bd 70 4b 56 bc ea a2 99 bc
       -0.03743543 -0.076622814 -0.013079509 -0.018754441
0000c0 71 bb 66 bd 49 a8 b0 bc c8 2e 89 bd 0b c3 d2 3c
       -0.0563311 -0.02156462 -0.06698376 0.02572777
0000d0 61 9f b7 bc d3 a0 ac 3d 52 b1 62 bd 7b 70 ff 3b
       -0.022414865 0.08429112 -0.055344887 0.007795391
0000e0 02 44 9f 3c 32 4f a6 3d e1 76 4f bd 87 b6 ed 3c
       0.019441608 0.08120574 -0.05065048 0.0290177
0000f0 d9 94 05 3d 16 70 37 bd cf 8e 31 bc 4f 91 81 bd
       0.032612655 -0.044784628 -0.010837271 -0.063265435
000100 53 fe 0e 3d 51 c6 36 bd 7b 22 df 3c 5d a8 92 3c
       0.03491051 -0.044622723 0.027238121 0.017902547
000110 9f d8 ac bc f5 d2 cd 3d f7 9b 24 bb aa 7f 39 3b
       -0.021099387 0.100500025 -0.0025117376 0.0028304853
000120 70 08 69 bd 73 92 6b bd 09 b9 bb 3c f0 9f 97 3c
       -0.056892812 -0.05751271 0.02291538 0.018508881
000130 36 d4 d3 bd d7 bc be 3c 94 82 31 3c 2d 53 f5 bc
       -0.103432104 0.023283405 0.010834355 -0.029946888
000140 36 cc 8d bb d7 aa 45 bb 07 f0 32 bd 2c 80 89 3c
       -0.0043273224 -0.0030161643 -0.04368594 0.01678475
000150 63 0a b1 3b 3d 29 0e 3c cf de 14 3e da fa 6f bd
       0.0054028495 0.008676824 0.1453812 -0.05858884
000160 e3 89 a6 3d 82 13 8f 3c 14 ee 3c 3c b3 d2 48 bb
       0.081317686 0.017465357 0.011531372 -0.0030643165
000170 16 60 0c 3c b6 2c 32 3d f5 72 29 bd 13 4e 29 3c
       0.008567831 0.04349967 -0.041369397 0.010333556
000180 81 f8 71 bc cb 19 3e 3d 35 11 0b bc c2 41 ea bc
       -0.014768721 0.046411317 -0.008487989 -0.028595809
000190 28 e9 ce 3c b6 2e ca 3d 61 d0 be 3c 1f 35 48 3d
       0.025257662 0.09872191 0.023292722 0.048878785
0001a0 de 6f 3e bd 73 a0 b6 bd 29 1d a8 bd 4a 5e bc 3c
       -0.046493404 -0.08917322 -0.08208687 0.02299418
0001b0 ec 7b 0e 3d be b7 f1 3b d7 79 43 3c 1d 5d 64 3c
       0.03478615 0.00737664 0.011930904 0.013938216
0001c0 11 86 90 bc 8b e7 05 3e 35 45 f0 bc df 87 1e bd
       -0.017642053 0.13076608 -0.029329875 -0.038703796
0001d0 04 4c 84 bc 8f 58 71 b9 91 2a 8f 3c c3 e9 7e bd
       -0.016149528 -0.00023016542 0.017476352 -0.06223465
0001e0 b3 4b 0b bd e8 8e 58 bb 96 13 4a bc de a0 16 3d
       -0.03400774 -0.0033044163 -0.012333771 0.03677451
0001f0 e0 40 cd bc 54 00 b8 ba 9a 17 99 bd 2e ca 35 bd
       -0.025055349 -0.0014038184 -0.07475205 -0.044382267
000200 1e a9 2c 3c 34 92 f9 3d f3 30 90 3d b1 a8 67 3d
       0.010538368 0.12186089 0.07040586 0.05655736
000210 09 86 44 3d e5 a4 90 3d be 97 34 3d 86 e6 9f bc
       0.04797939 0.07062701 0.044090025 -0.019519102
000220 09 fa 2d bd 55 27 9a bd 97 94 0d bd 10 6d 45 bd
       -0.04247478 -0.07527033 -0.034565534 -0.048199713
000230 08 8f 3c bc d8 06 33 3d 79 09 8b bd d3 3c 0c bc
       -0.011508711 0.0437077 -0.06788916 -0.0085594235
000240 38 fd b1 3c 3e 24 ce bc 46 89 fc bc d2 b5 c4 bb
       0.02172719 -0.025163766 -0.030827176 -0.00600312
000250 06 c3 30 bd 7d 3d 4d bd 35 35 91 3d 38 57 27 bc
       -0.04315474 -0.050107468 0.070902266 -0.010213666
000260 37 2f ad 3c 05 ec 1e bb fa c0 3e 3d b7 82 63 bd
       0.021140678 -0.0024249565 0.046570756 -0.05554458
000270 ea fd 27 3d c5 bc 70 3d df 71 04 3b 63 69 4d bb
       0.041013636 0.058773775 0.0020209474 -0.0031343333
000280 73 ae 02 bb 66 4a 3f 3b 7b d8 41 bd 96 3d 85 3d
       -0.0019940406 0.0029188632 -0.047325592 0.06505887
000290 03 db ae bd 78 ec 97 3b c1 25 d2 3d d4 98 cb bc
       -0.08537867 0.0046363436 0.10261107 -0.024853148
0002a0 42 fe 79 3d c3 a5 23 bc cb e2 be 3d 0d 80 9d bc
       0.061033495 -0.009988251 0.09320601 -0.019226098
0002b0 cd 76 96 bd 4b 0d 74 3c 23 e2 b8 3d 25 f5 2a 3c
       -0.07346878 0.014895747 0.09027507 0.010434424
0002c0 6f b4 ac 3a 69 ff 11 bc 15 97 38 bd 69 ee 95 3b
       0.0013176332 -0.008910992 -0.045065958 0.00457554
0002d0 26 1c 9f bd a7 12 1f 3c 43 d8 b0 3c ca 1e 41 bd
       -0.07769041 0.009709037 0.021587497 -0.047148503
0002e0 ff 03 70 3b 3f 87 de 3c ef 59 68 bb a9 c3 ad bd
       0.0036623476 0.0271641 -0.0035453995 -0.08484585
0002f0 68 58 0f bd 93 64 f1 39 9f 02 51 bd 56 08 ce 3c
       -0.03499642 0.00046042036 -0.05102789 0.02515046
000300 88 1f 4e 3a 4b 45 1a 3c 47 09 44 3c f7 7b 22 3d
       0.0007862975 0.009415935 0.0119651025 0.039669003
000310 f4 35 c4 3b 97 01 b5 3b fd 95 9c 3d 9c 3d 2b 3d
       0.005987877 0.005523871 0.076457955 0.041806802
000320 63 97 1c bd d4 26 9e ba 4d 8d 5c 3c 94 0a 0e bd
       -0.03823031 -0.0012066015 0.013461423 -0.034678057
000330 cb a6 21 bd 87 0a 98 3c 05 65 8a bc b2 65 0f bd
       -0.039465707 0.018559707 -0.016893873 -0.035009094
000340 9d 43 eb bc 32 66 2b bc 9d 80 51 bb 76 7d 31 bd
       -0.028718764 -0.010461377 -0.0031967529 -0.04333254
000350 be dd 17 bd 76 59 38 bc b5 eb bc bc b3 fe 59 3d
       -0.037076704 -0.011251798 -0.023061613 0.053221416
000360 9d c1 95 3d 7a ed 58 bd d8 82 ef 3c a4 ad 27 bd
       0.073123194 -0.05296085 0.029237196 -0.04093708
000370 5d 74 bb 3d eb c3 a6 bd d6 96 7c bc 10 1f 34 3d
       0.09153054 -0.08142837 -0.015416821 0.043974936
000380 4a c3 0e 3d 52 cb 48 3d 5b 6c 82 3c 79 ec 8f 3c
       0.03485421 0.049022026 0.015920809 0.017568814
000390 fa 50 3b bd b7 8d 10 3d 2c 10 42 3d b5 40 58 3c
       -0.045731522 0.0352914 0.047378704 0.013199021
0003a0 6a 00 0e 3d 34 6c d6 bd eb 5a 21 bc 27 7c 21 3c
       0.034668364 -0.10469857 -0.009848337 0.00985626
0003b0 4b 82 c8 3d b4 6a 69 bd 67 4b 53 3c af 9e 7d bd
       0.097904764 -0.056986526 0.012896395 -0.06191891
0003c0 27 75 21 bd 2a 89 b5 3d aa 6b af 3c f2 4a 9e bc
       -0.039418366 0.088640526 0.021413643 -0.019322846
0003d0 5f f2 43 bd d6 81 5c bd 45 69 20 bc aa ef e8 3c
       -0.047838565 -0.05383476 -0.009790723 0.028434593
0003e0 79 4a 87 bd 7b f6 2d 3d 94 10 28 3d 69 33 cb 3a
       -0.066060014 0.04247139 0.041031435 0.0015502992
0003f0 14 1f 01 3e 9b 05 91 3c d0 8e be bd 27 0f 55 3d
       0.12609512 0.017702868 -0.09304583 0.052016404
