bofire/benchmarks/models/baumgartner_aniline_cn_crosscoupling_descriptors/baumgartner_aniline_cn_crosscoupling_descriptors_predictor_4.pt (torch, 20247 bytes, 3 tensors)

input_layer.weight f4 [512, 7]
00000000: ebcc a13e 5b9a cd3d d124 973e 00bd b3be
00000010: 0608 90be fc71 febd 53ef 35be 0f5a a2be
00000020: 3052 bd3e ef89 223e d004 b43c 017b 8a3e
00000030: 4d4d 183d df81 d9bc 91c9 e7bd 65c4 943e
00000040: 550b 3bbe f7cd 0bbe 9c24 15bd 2dc2 993b
00000050: acc9 bbbd f8db b8be 3b12 86be 35e5 85be
00000060: 5bec 8cbe be92 cd3d dbb7 9a3d b074 bc3d
00000070: f5cf 543e 3249 57be 6ab6 ad3e f1ab 6e3c
00000080: 3852 9b3d 37a7 a2be 92cf 2e3e 690c 94bd
00000090: df84 94be 645a 85bc 5954 bbbe ab68 283d
000000a0: 51ea 453e 537e 9a3b b562 93bd 8f9e 89be
000000b0: 17ad 9a3e db6f 593e 30cd 94be 80bf 4a3e
000000c0: d903 283e f3f3 b23e ba19 8d3d 7373 533e
000000d0: 37e0 5d3d 6925 aa3e 4329 8f3e f2b7 943e
000000e0: 600d 893e a901 91bd 5fad 843e c9cc 84be
000000f0: b696 9bbc 37ef 6e3e 1494 be3e 9f79 523c
00000100: 6347 523e cbc5 ac3e 150d 2abe fadc 683e
00000110: c4ee d2bd 947e c1be f740 22be 812b 98be
00000120: ca67 b03e 5a99 a93e 38ea 813e 82aa bf3e
00000130: 0fe5 dbbd ed63 a63d 320c 713e 9f6c e53d
00000140: 2a9f 6abe 81d8 14be 2fb5 b9bd b22c 073e
00000150: dc69 e9bd 29a9 fcbc 6f63 ba3d e863 8e3e
00000160: cc8a 0a3e 7d03 95be d3b6 66be b9c0 7bbd
00000170: 1bab cc3c 87bf 6ebe 98d6 a2be c0cd 57be
00000180: f723 7ebe 9223 a8ba c7a9 8c3c 1e8e acbe
00000190: 32dd 52bd 585c 49be d63d abbe c13f 89be
000001a0: 2fe8 173e fcac 9dbe 6ac5 1dbe 2f25 ba3e
000001b0: 9523 38be a021 babe bee1 343e e1ad 263d
000001c0: 1c5d 8b3d 7e11 a83e 5098 44be d03f b53e
000001d0: 1351 86be f40b 8d3e 415c 20be 76d0 4c3e
000001e0: e0e4 f9bc d53f ea3d ccfd 97bd 78a2 843b
000001f0: f0e8 eabd 0fe4 b2be 3214 a03e 7137 71ba
00000200: 7b94 e6bd b250 8fbb da3d bebd 9798 e3bd
00000210: 3894 0cbe ca13 b63e ca32 39be 90be 66be
00000220: 6160 47be 71cc b8be ba76 373e e6cd 1ebe
00000230: 3dd2 4abe b877 b7bd a9d2 543e ac60 0dbd
00000240: 24b7 983e 6a3a b8bd b741 45be 5e3c a23e
00000250: 02cb a9be f3a3 153c 87bc a53e 481b 8e3e
00000260: b519 1b3e 36db 24be b300 8b3e 3929 7d3e
00000270: 2f99 af3d 90e6 46bd 3258 793d 3a2a 3a3e
00000280: 1337 b43e 0bb8 84bd ad0f 5fbe de32 6ebe
00000290: 3b69 1f3e 71a8 0fbe 537a b43e 2e0e 8cbe
000002a0: 2ee0 b73e d94c 5bbd 67fd 883e 694d 59be
000002b0: 649e 3ebe b893 ae3e a251 483b 2bbf 473d
000002c0: ca68 443e 3b03 8bbe aede 753e 954c 62bb
000002d0: d5da b73e 2df8 0dbe 4e87 febd 6c7c 0ebe
000002e0: d89f a4be c6fd b23e cbed 94be f157 23bd
000002f0: 78bb 0cbe 32fd a53e 5798 453e 33ef 73be
00000300: cbff b4bd 4e14 38be a317 583e 7dc6 e5ba
00000310: 6836 8cbd 1c42 a1bd e97f 4e3e 65b4 ccbd
00000320: 9fe5 433e 5935 4f3d 3fe9 8b3e 21e0 643e
00000330: 0132 b93e 4ea5 b7be 719e 223d a072 34be
00000340: 868e 52bd 8ebb cebd 2256 493e 796e a53e
00000350: 588b a03e 2474 033c f97b 4d3e 1003 49be
00000360: eca6 a3be 8927 2f3e 1c9d 6c3d 0ba7 873d
00000370: a5a6 fdbd 3eb6 bd3e cc45 b4be 18a3 063e
00000380: 14b4 793e 6db0 553e 8292 38be 1a01 8bbd
00000390: 34fc f2bd ec6e 193e 04e9 663e 6deb 9b3d
000003a0: 0c47 973e bc9a b43e 8e7e 2abe 1ea2 56be
000003b0: 6832 00be fb69 15be 0016 a13e 9d1f 03bd
000003c0: ce64 903e 4d9b 883d e16e b33e 2f90 1c3e
000003d0: 9fbf 16be 500c 9e3e b376 a63e 52a4 d7bc
000003e0: 51d0 dbbd 21de 143e 6600 b7be 08ad 5abd
000003f0: 397c a63e 8c63 553e 2825 853e 30e6 293e
0.31601653 0.100392066 0.29520276 -0.35105133 -0.2813112 -0.124240845 -0.17767076 -0.31709334
0.36976767 0.1587293 0.021974951 0.2704697 0.037183095 -0.026551185 -0.113177426 0.29056087
-0.18266042 -0.13652788 -0.036411867 0.004692337 -0.09169325 -0.36105323 -0.26185784 -0.26151434
-0.27524075 0.100377545 0.07554599 0.09201944 0.20782454 -0.21024016 0.33928233 0.014567361
0.07584041 -0.317682 0.1707137 -0.072289295 -0.29007623 -0.016278453 -0.3658779 0.041115444
0.19327666 0.004714766 -0.07196561 -0.26878783 0.30210182 0.21234076 -0.29062796 0.19799614
0.16407718 0.34951743 0.068896726 0.20649509 0.054168906 0.33231667 0.27961168 0.2904659
0.26768017 -0.07080395 0.25913522 -0.2593749 -0.018992763 0.2333344 0.3722235 0.01284638
0.20535044 0.33744654 -0.16606553 0.22740546 -0.10299447 -0.37791884 -0.15845095 -0.2972069
0.34454185 0.3312481 0.25374007 0.37434775 -0.10737049 0.08124528 0.23539808 0.112023585
-0.22912279 -0.14535715 -0.09067761 0.13200644 -0.11397144 -0.03084238 0.09100997 0.27810597
0.1352951 -0.29104224 -0.2253068 -0.06146309 0.024983933 -0.2331525 -0.31804347 -0.21074581
-0.24818407 -0.0012827984 0.0171708 -0.33702177 -0.05148048 -0.19664133 -0.33445615 -0.26806453
0.14834665 -0.3079604 -0.15407339 0.36356494 -0.17982323 -0.3635378 0.17664239 0.040693168
0.068048686 0.32825845 -0.19198728 0.35400248 -0.2623373 0.27548182 -0.15660192 0.20001397
-0.030504644 0.11437956 -0.07421455 0.004047688 -0.114702106 -0.3493962 0.31265408 -0.0009201682
-0.11258789 -0.0043736333 -0.09289141 -0.111130886 -0.13728416 0.35561973 -0.1808578 -0.22533631
-0.1947036 -0.36093476 0.17916384 -0.15508232 -0.19806762 -0.089583814 0.20783485 -0.03451602
0.29827225 -0.089955166 -0.1926335 0.31686682 -0.33162695 0.009133327 0.32370397 0.2775519
0.15146525 -0.16099247 0.2714897 0.24722756 0.08574139 -0.048559725 0.060875125 0.1818017
0.35198268 -0.06480416 -0.21783324 -0.23261592 0.15567486 -0.14029099 0.35249576 -0.27354568
0.35913223 -0.053540085 0.2675583 -0.21220936 -0.18615109 0.34097075 0.0030566235 0.048766296
0.19180599 -0.27150902 0.24010727 -0.003453051 0.35909143 -0.13864203 -0.12428151 -0.1391465
-0.321532 0.3495924 -0.29087672 -0.03987879 -0.13743389 0.32419735 0.19296394 -0.23821716
-0.08837851 -0.17976496 0.21102767 -0.0017530468 -0.06846315 -0.078739375 0.20165981 -0.09995345
0.19130562 0.050587986 0.2732639 0.22351123 0.36170962 -0.35868305 0.039701883 -0.17621851
-0.051405452 -0.10094367 0.19661763 0.32310846 0.3135631 0.008023296 0.20066823 -0.19630075
-0.3196329 0.17104925 0.05776702 0.06623658 -0.123853005 0.37053102 -0.352095 0.13148153
0.243851 0.20868082 -0.18024638 -0.067873195 -0.1186451 0.1498372 0.22549826 0.07613263
0.29546392 0.35274303 -0.1664984 -0.2096028 -0.12519228 -0.1459121 0.31462097 -0.03201257
0.28201908 0.06670246 0.3504553 0.15289377 -0.14721535 0.3086877 0.32512435 -0.026323471
-0.107330926 0.1453786 -0.3574249 -0.05338767 0.3251665 0.20838755 0.2600491 0.16591716

input_layer.bias f4 [512]
00000000: 4e71 093e fb0c c5bd ac7d 81be 4cf7 773e
00000010: 1c37 67bd b4d0 a8bd c983 89bd 6013 4bbe
00000020: 7402 6ebe 8600 87bd 022d 793e 61b9 0ebe
00000030: e8e2 c13d df3f 7cbe 8cd9 da3a 8645 623e
00000040: c789 8c3e 4c5e 58be ecc9 2e3e fd07 973d
00000050: a91a 4dbe 4879 273e 2d82 f53d 3422 63be
00000060: 43b3 a13e 5a21 823e e4f1 b6be 5f1a 39be
00000070: f456 c73c 6d4a 8b3e 7ee4 65bc 5378 30bd
00000080: f9b5 443d f784 b3be 2824 153e 11ea 563e
00000090: b792 96be 7f46 bf3e ae30 193e e271 64be
000000a0: aa87 bdbd 44ac b8be a4f8 bb3e 9d00 ac3e
000000b0: c467 073e 3767 a7bd f7bc 5fbe e6ce 05be
000000c0: abaf b13d ac61 29bd 908e 3d3e 9409 a4be
000000d0: 9dbd 743e faea 3e3d 618f abbe 05ea d63d
000000e0: e140 0b3e f660 a9be 0c7d a2be f788 9bbe
000000f0: a0d9 383e 320c b33e 0668 9ebe 58f1 69be
00000100: 34b9 fb3d b8a7 aa3e 59ba b83e 7634 69be
00000110: f6d9 b63c 63f2 fa3c 076b 143e bec4 493e
00000120: bb45 af3e 1654 743e d391 353e e41b f23d
00000130: add5 f93d c438 b2bc ee1b 653e e1be f03d
00000140: 4fd5 783d dd6b 88be d988 bb3e c7fe a8be
00000150: aa9a abbe 503a 8d3e 6316 b33e 61a9 02bd
00000160: 032c b7bd 0213 9b3e 8501 06bd 078a 3f3e
00000170: ab5d 51be 277e 96bd a463 2f3e 78a4 603e
00000180: 2869 fbbb 5ed3 f13d 10e3 8fbe a586 abbe
00000190: 937d bebe b31c febd 1879 083b 119f aebe
000001a0: cd3b 153e 851d 823e 0996 85bd 784c a73e
000001b0: b302 143d d21b 183e 0471 24be ca03 cabd
000001c0: a0b3 06be e38b b4bd 3cf4 b33c 23ff 013e
000001d0: e5c0 ab3e 7ab4 4dbe 718a a3bd 6003 bebe
000001e0: 3d2a 773e a859 afbd 11f3 2f3e 3453 13be
000001f0: 1a59 743d c146 21be 8557 2b3e 7b71 993d
00000200: 6806 a5be 250a 473e 66ff 2fbe 4d8b 983e
00000210: c00d 283e 146f a3bd 4163 aebe f1ef bb3e
00000220: 9606 9abb f1be 513d daf4 dc3d f1bb 76be
00000230: 3352 743e db27 a7be f25a 223e 3948 ac3e
00000240: 027e 833e 128f b83e 7b14 52be 8fbe 223e
00000250: 53c1 b33e 76fe 0ebd eb18 9a3e 688f 8dbe
00000260: ee40 743e 2ca3 a5bd 10ed abbe bccd 963e
00000270: a1e5 903e 9005 55bd 41a4 99be f8c9 323e
00000280: 834d 2a3e bffb c13e f00c bf3e 73a7 bcb8
00000290: 9754 813e d1ae 4b3e 9f98 89be f70e 51be
000002a0: 09c9 673e 6a12 88bd bc7e a63e af8f 91be
000002b0: 3553 7abe 90d7 4f3e 29ca b0be 9f03 99be
000002c0: d48d 98be e454 bcbe 4111 51be 53ec 60bc
000002d0: 15ea a73e a64f afbe 0dfa 8c3d e36c 9a3e
000002e0: 02f3 12be 8ef7 8cbe 4b88 57be 1c55 313e
000002f0: 9756 7fbe 2482 4bbe dc2a 8fbe ffab 93bd
00000300: 30a5 fcbd 010d 9dbe 6641 7e3e f4a5 32be
00000310: db92 d8bd 2179 9ebe fb9f 2a3e 3fd3 afbe
00000320: 115c cbbb 1a1d 763e 6704 a33e 5de5 653e
00000330: bbeb 383e 6467 943e 9550 16be dcd3 bf3e
00000340: bcf3 74be f98a 953e 9044 e83c 20d1 33be
00000350: 9a02 8f3e 5c3a b2be 6acf 7abd 26ef 843b
00000360: 2940 25be 8aa5 64be b91f 8b3e 463a 90be
00000370: 7fba fd3d cb0b 223e b44f 333e 1032 ffbd
00000380: ac11 1abe 90d2 013e 5ea7 57be 465a 9f3e
00000390: 000d 913e 17f3 053e 9038 a63e cdb3 223e
000003a0: 130a bd3e ad94 e5bd 533c 95bd f711 283e
000003b0: 076b 04be d99b 5b3c d97d 2f3d 0a20 7c3e
000003c0: a506 7a3d 33a7 203e b200 b83e aabc 6f3d
000003d0: 589d 4bbc 6fcc 96be ff76 273e 9a64 3abc
000003e0: c80d 85bc ec47 bd3e a64d 92be 967f b93e
000003f0: eb1f aebe 3b3d 273e 5a92 a4be da06 153e
0.13422129 -0.096216165 -0.25291193 0.2421543 -0.05644904 -0.08242932 -0.06714589 -0.1983161
-0.23243123 -0.06591897 0.24333575 -0.13937904 0.09467107 -0.2463374 0.0016696914 0.22096834
0.27448866 -0.21129721 0.17069215 0.073745705 -0.20029701 0.16354859 0.1198772 -0.22181016
0.31582078 0.2541607 -0.35731423 -0.18076466 0.024333455 0.2720522 -0.014031528 -0.0430835
0.048025105 -0.35062382 0.14564574 0.20987727 -0.2940881 0.37358472 0.14959976 -0.22309068
-0.092543915 -0.36068928 0.36713135 0.33594218 0.13223177 -0.081739835 -0.21849428 -0.13067207
0.08676084 -0.041352913 0.18511415 -0.32038558 0.23900457 0.04661081 -0.33507827 0.104938544
0.13598968 -0.33081788 -0.31736028 -0.30377933 0.18051767 0.34970242 -0.3093874 -0.22845972
0.12291184 0.33331084 0.36079672 -0.22773919 0.022320729 0.030633157 0.14493953 0.19703957
0.34232888 0.23860201 0.17731409 0.11821726 0.121989585 -0.021755584 0.22373936 0.11755157
0.060750302 -0.26644793 0.36627844 -0.3300688 -0.33516437 0.2758355 0.34978017 -0.031899814
-0.089439414 0.3028794 -0.032716293 0.18704997 -0.20445888 -0.073482804 0.17127854 0.2193774
-0.0076724477 0.11807893 -0.28102922 -0.33501163 -0.3720518 -0.12407818 0.002082413 -0.34105733
0.14573593 0.25413147 -0.065227576 0.3267553 0.036135387 0.14854363 -0.16058737 -0.09864004
-0.13154459 -0.08815744 0.021967046 0.12694983 0.33545604 -0.20088378 -0.0798539 -0.3711195
0.24137206 -0.085620224 0.17182566 -0.14387208 0.059655286 -0.15749647 0.16732605 0.07492348
-0.3223145 0.19437464 -0.1718727 0.29793778 0.16411495 -0.07980171 -0.340601 0.36706498
-0.004700492 0.051207487 0.10788889 -0.24095131 0.23859482 -0.32647595 0.15855005 0.33648852
0.25682074 0.36046654 -0.20515625 0.15893005 0.35108432 -0.03491064 0.30097136 -0.27648473
0.23852894 -0.08087763 -0.33579302 0.29453838 0.28300193 -0.052007258 -0.30008128 0.17459857
0.16631131 0.3788738 0.37314558 -8.9957284e-05 0.2525985 0.19890906 -0.26874253 -0.20415865
0.22635283 -0.06644137 0.32518566 -0.28429934 -0.24445803 0.20297074 -0.34529236 -0.29885575
-0.29795706 -0.36783516 -0.20416738 -0.013728219 0.32795778 -0.34240454 0.06883631 0.301612
-0.14350513 -0.2753262 -0.21048085 0.17317623 -0.24935375 -0.19873863 -0.27962387 -0.0721054
-0.123361945 -0.30673984 0.24829635 -0.17446119 -0.105748855 -0.3095179 0.1666259 -0.34340855
-0.0062060435 0.24034539 0.31839296 0.22450776 0.18058674 0.2898513 -0.14679177 0.37466323
-0.23921102 0.2920759 0.028353006 -0.17560244 0.27931672 -0.3481015 -0.06123296 0.004056829
-0.16137756 -0.22328773 0.2717264 -0.2816946 0.12389087 0.15824811 0.17510873 -0.124607205
-0.15045804 0.1267798 -0.2105994 0.3112356 0.2833023 0.13081013 0.3246503 0.15888901
0.3692175 -0.11209998 -0.072868966 0.16413103 -0.12931453 0.013403856 0.042844627 0.24621597
0.061041493 0.15688781 0.3593803 0.058529533 -0.01242765 -0.29452845 0.16353987 -0.011376524
-0.016241923 0.36968935 -0.28574866 0.36230153 -0.34008726 0.16331951 -0.32142907 0.14553395

output_layer.weight f4 [1, 512]
00000000: 86d4 703d 73cc bc3c 6383 30bd e5ff 9b3b
00000010: 27bf 8dbd 95ae f1bb 4c3f 2b3d 6e3d 0d3b
00000020: ca90 273c d871 04be 8c0b 1cbc 152e 053d
00000030: 3261 83bc 69bb 6dbd 03c7 3fbc 4924 e1bc
00000040: d79f ea3c a8cb b9b9 b5d0 983c f6fe 253d
00000050: b7f7 6b3c 4222 a03d 3553 df3d e14d 8b3d
00000060: a972 c5bc 1db6 42bc 8f9a 43bc 667b 3a3c
00000070: 120f 383d 37e1 193c a90c b7bd ddba 8bbb
00000080: 0500 e6bc 4a65 c23c 1c5c 813d 9fb5 0ebd
00000090: 31cf fcba efd6 783b b8d8 74bd acdb 9bbb
000000a0: 4aa5 a0bd 854f a8bb 709c 263b a874 213a
000000b0: 61fc 48bd b7cd 893c 4a1a d93d 3052 ed3c
000000c0: 14c9 a33c 78f0 303d c2af d53b 0185 90bc
000000d0: bc91 793c 9d95 5b3c 7191 a53d 5679 8c3c
000000e0: 4fce 8a3d 5089 82bc 69ec 853d cf82 48bc
000000f0: eb97 0f3d 79ee 9bbd c8be 83bc 72ae d2bc
00000100: 34a2 973c 200c 1a3d 016c 22bc fe1e a8bd
00000110: 3fe1 e03a 5cd8 1d3c 1a27 1fbc 665d 273c
00000120: 45ac 1f3d 83d1 a73b a6ae b93c f5ef 89bc
00000130: 5ab9 f63c 4333 8bbd 78bb c03d eec6 f7bb
00000140: 4b2a 8a3c cb8e f33c 7f36 0fbc 0b08 f73c
00000150: 03af b93d 21f7 043d b719 59bb a766 b83c
00000160: 5044 c4bb 42be 7fbd c959 7cbc 717f 9f3c
00000170: 6efe 083d d1de 56bd fcb7 28bb 5dd2 3cbd
00000180: ff40 973d 027e 7f3a 7418 eebc 9cb9 b9bd
00000190: 5026 d6bb e1c3 f4bc 935b 143d fba0 83bc
000001a0: 6e87 0c3c f218 1a3d c924 d6bc 674d 80bd
000001b0: d580 d4bc f709 04bd 2a21 bc3c ae9a 3dbc
000001c0: 1ef1 f5bc 9bb8 3e3d de07 363d 5652 f4bb
000001d0: dfe7 643d fcf4 1ebd 97d1 9cbc 1c88 67bd
000001e0: f39a 3cbc 3ab8 0c3d fcda 573d bced 25bd
000001f0: dcc6 b23d d419 423d 691d 93bd b805 d7bb
00000200: d613 a13d 524b f4bc 56c6 753d 07e7 8d3d
00000210: 37dc 913c 3e73 7b3d 413f bc3c 6325 293d
00000220: f7f3 9abd 8dea 2cbd fec8 9fbd 7486 05bd
00000230: d35b 2bbc e900 7abd 5195 ff3c 215f abbc
00000240: a623 00bd 821d 5a3c acc0 56bd 2005 03bd
00000250: efc8 5ebd eeae 6c3b 10ed 663d 8318 7ebd
00000260: 1e23 813c 8eb8 08bd d75c a8bc d3fd 363d
00000270: 77c5 4cbb ac09 093c 38a6 f0bc f25d 7fbd
00000280: e7e6 863d c623 703d 2578 2b3d 7326 493d
00000290: 0f0c b4bc 22aa 253d 82db 80bd a754 3c3d
000002a0: 8f0d 1d3c 75fb 72bd d30d eabd eb13 b5bc
000002b0: 1df0 953c 3847 5fbd ea0a 403c 8eb8 5abc
000002c0: 4bd9 0cbd c4c7 efbc b04d 483d 766c a73d
000002d0: 2dd3 99bd 3dc0 153b 1a50 293d 0a4c 973d
000002e0: a249 c73c 0e02 8abc 6678 593c 0f8d 5cbd
000002f0: 06b1 bf3c 85a0 06ba 2439 9cbc 9b20 99bd
00000300: 3852 f53c f529 a63c 303b cc3d e3db 2dbd
00000310: ed00 013d 2619 28bc 9581 69bd 43fa bf3c
00000320: 208b 6fbc cfb4 8d3d 5adc 42bc f91d 963c
00000330: 22fb 24bc a726 a13d 73a0 543c 11ba 4f3c
00000340: 971d 873d 2e37 cdbb a784 8cbc 99af 763c
00000350: a38f a8bc 748c 393d 7156 a03d 8c67 a9bb
00000360: 28a0 19bc 17e1 2fbd ca41 06bd 4f17 12bd
00000370: 39dd 9bbb f711 9abd dbae 003d 368d 1cbd
00000380: 2cd4 e2bc 7e9d 2bbd 73bc b83b 717b f43c
00000390: 5d5c 66bc 0bd2 293d ac16 783c a9f2 a4bd
000003a0: e8ca c0bd 3dfd b73c 5a2c d6bc ad48 47bc
000003b0: eff8 073d 06c6 9f3c a554 bc3c f3ef 67bd
000003c0: 325d fabc d820 8b3d ac73 b73d 0b81 34bb
000003d0: c75b 58bd 820e 66bc eae8 833c 7d12 6dbb
000003e0: 3d91 4abd 7ce2 79bc c124 0e3c 4001 693b
000003f0: 7bf7 64bd 2a8e 38bd 430f 3fbd 84b4 9cbd
0.05879643 0.023046708 -0.04309405 0.0047607296 -0.06921225 -0.007375548 0.04180841 0.0021551508
0.0102273915 -0.12934053 -0.009524237 0.03251465 -0.016037557 -0.058040056 -0.011705163 -0.027483122
0.02864067 -0.00035437685 0.018654207 0.040526353 0.014402322 0.07819034 0.10904542 0.068019636
-0.024102526 -0.0118842395 -0.011938705 0.01138196 0.044936247 0.009392074 -0.089379616 -0.004264219
-0.028076181 0.023729939 0.063163966 -0.034841176 -0.0019287822 0.0037969907 -0.05977699 -0.0047564115
-0.078440264 -0.0051364326 0.0025422834 0.0006159046 -0.049068812 0.016821725 0.10600717 0.028969854
0.019993342 0.04319808 0.006521196 -0.017641546 0.0152325 0.01340237 0.08084381 0.017147701
0.067776315 -0.015934616 0.06539232 -0.012238218 0.03505699 -0.076138444 -0.016082183 -0.025717948
0.018509962 0.03760922 -0.009913445 -0.08209036 0.0017156972 0.009634104 -0.009713912 0.010215139
0.03898265 0.0051214113 0.022666287 -0.016838053 0.03011768 -0.06796887 0.09410757 -0.007561556
0.01686587 0.029731175 -0.00874102 0.030155202 0.09066584 0.032462243 -0.00331269 0.022509886
-0.005989589 -0.062437303 -0.015402266 0.019469948 0.033445768 -0.052458588 -0.002574443 -0.046099056
0.07385444 0.00097462547 -0.029064395 -0.09068605 -0.006535329 -0.029878559 0.036220144 -0.016067972
0.008577211 0.037621446 -0.026140587 -0.06264763 -0.025940338 -0.032236066 0.022965033 -0.011572523
-0.0300222 0.046562772 0.044441096 -0.0074561043 0.055885192 -0.038807854 -0.019142909 -0.05652629
-0.011511552 0.03435538 0.052699074 -0.040509924 0.08729336 0.047387913 -0.07183344 -0.006561961
0.078651115 -0.029821072 0.0600036 0.069288306 0.017805202 0.0613892 0.02297938 0.04129542
-0.07566064 -0.042215873 -0.07802008 -0.032598928 -0.010458904 -0.061036024 0.03119913 -0.020919384
-0.031283997 0.013312699 -0.05242984 -0.03198731 -0.054390844 0.0036115008 0.056378424 -0.062035095
0.015763815 -0.03337913 -0.020552082 0.04467566 -0.0031245628 0.008364122 -0.029376134 -0.062345453
0.0658701 0.058627866 0.041862626 0.049108934 -0.021978406 0.040445454 -0.06291868 0.04597917
0.009585752 -0.05932184 -0.11428418 -0.022104224 0.018302971 -0.05451128 0.011721352 -0.013349665
-0.034386914 -0.02927006 0.048902214 0.08174984 -0.07510982 0.0022850179 0.041336156 0.0738755
0.024327103 -0.016846683 0.013273334 -0.05384546 0.023399841 -0.00051356136 -0.019070216 -0.07476922
0.029946432 0.020283679 0.099722266 -0.04244603 0.031495024 -0.010259902 -0.057008345 0.023434764
-0.014620572 0.06919252 -0.011893356 0.018324839 -0.01006964 0.078687005 0.012977707 0.012678639
0.06597441 -0.0062626814 -0.017153097 0.015056514 -0.020576304 0.045299962 0.078289874 -0.0051698145
-0.009376563 -0.04293927 -0.032777585 -0.03566676 -0.0047565964 -0.07522958 0.031416755 -0.038220607
-0.027689062 -0.041898243 0.0056376993 0.029844018 -0.014060107 0.04146008 0.015142124 -0.08054096
-0.09413701 0.02245962 -0.026144195 -0.012163323 0.033196386 0.019503605 0.02298958 -0.056625318
-0.030562017 0.06793374 0.089576095 -0.0027542736 -0.0528219 -0.014041545 0.016102273 -0.003617435
-0.049454916 -0.015251752 0.008675755 0.0035553724 -0.05590008 -0.045057453 -0.046645414 -0.07651618
