bofire/benchmarks/models/baumgartner_aniline_cn_crosscoupling_descriptors/baumgartner_aniline_cn_crosscoupling_descriptors_predictor_2.pt (torch, 20247 bytes, 3 tensors)

input_layer.weight f4 [512, 7]
00000000: 19ca 00be 3ecc bd3e 6b31 59be f641 5cbe
00000010: 6b0e 29bb 3c61 babe 85b3 52bd 7733 01be
00000020: 7786 153e 54c5 b1be 4d89 ce3d c2ad 42be
00000030: 24ae b0be daee 9abe 426c efbc 8ae1 7d3e
00000040: e190 bc3d 613c 863e cadf 8fbd 5714 d43d
00000050: 0c24 06bd f5bf a93e 4ace cb3d df68 3b3e
00000060: 0d00 333e ec67 b23e d87d c63d cfb9 f73c
00000070: cb35 94be b981 9c3e b7c8 fbbc c48c a7bd
00000080: 3331 ebbd 2dde b63d c1ce 9fbe e0d7 d1bd
00000090: 9814 60be 56c3 423e a327 f5bd 0366 6bbe
000000a0: b231 41be dc36 e33c 1e72 b33e d559 b7bd
000000b0: e2af 5cbc e375 20be 1920 bf3e 4eaf c13c
000000c0: b102 673e e630 a1bd ce0e ae3e 4142 93be
000000d0: f633 31bd c2c4 25be 7f57 83bd 0b38 8ebd
000000e0: 8780 2dbe 45d9 60bd da57 b2be afe9 b33e
000000f0: 5dbb c0be a544 18be b870 a83e 2f18 a8be
00000100: 96cb 12be a6d3 803b 4d86 b33c b62b 0f3d
00000110: 0e48 95be 9269 9f3e e880 bbbe 2194 0b3d
00000120: 25b9 bfbe 45dd 823c fddd 803e 7558 60be
00000130: 73df f7bd 0731 84be 239a c4be dd9d 4cbe
00000140: b580 f43c e985 e8bd ae23 cf3d 252f c73e
00000150: f598 863e 52ef b93e 8498 afbe 5834 06bd
00000160: b0ec bfbe b11a 703c 574b bfbe 0fe7 cdbc
00000170: 937b ae3e 8e7b 55be 4da7 be3e f3f1 0d3c
00000180: a988 713e 1d11 933e e808 c43d 087a f1bd
00000190: 2b7b 8dbe d81a 3cbe 368d 03be 6fb9 073e
000001a0: 758a 7cbe f58b ac3e f2ea 82be f532 893e
000001b0: df24 76bd fbbe 08be 2c7d 453e 2ec2 d3bd
000001c0: 3f34 84be d663 8ebe 283e b8be 2c40 8ebe
000001d0: bddc a5bd 9254 303d 68be 3dbe 1208 74be
000001e0: 1b1c b03c 52e4 82bd 4a1d 543d 67d3 90bd
000001f0: 3545 6f3e bf3d 9dbe 74bf 96be fdd5 1cbe
00000200: b69a b6be e622 333d c95b f6bc 316e 1e3e
00000210: 7751 39be a004 583e 7824 6c3d d51f 78be
00000220: 6aeb b6be 85bc 523e 8a7a b9be f544 a7be
00000230: 11d8 a43d 9b1c 813e 0753 663e 0678 2a3e
00000240: 0009 a43e 5ca6 bf3e e39a 1abe edb5 883e
00000250: 67d5 37be 1c46 a83e 5b96 f8bd 7fa4 803e
00000260: a9f3 f63c 8959 b0bd e45b bb3e a33f 48be
00000270: f493 ed3d 9390 643c 7ff4 1a3b 1c16 02be
00000280: 4f0a 2e3e 942f 8f3d 7e57 863e e2b1 403d
00000290: 2c28 3bbe ecf8 88be 97b0 cb3c ff73 323e
000002a0: 4a48 8cbe afe5 023e 6d1e 41bc 5463 bfbe
000002b0: 0884 18bd c4b2 a93d 39bd 4e3e 0070 a13e
000002c0: dab6 76be 25a4 21bc 6881 a9bb 6f2d 393e
000002d0: 9547 b23e 4c93 aa3e 6ddd 323e 4e6d 66bc
000002e0: cd25 623d 69dd a0be 9109 72be 9e0e b9be
000002f0: 7461 113d 4930 993e 41c6 2cbd b0d4 7abe
00000300: 0f34 97be b35a 1e3e 8768 513e c37c 373d
00000310: 59d9 7f3e 1e75 4cbe be01 383e 3093 1b3d
00000320: ad27 643d 0113 8ebe 7b5e 91be 638b 3b3e
00000330: 384b 833e 91ba 33be 08c3 573e 269a 823e
00000340: 0176 3bbe d2ec 99bd a56e 84bd 946b a9be
00000350: a73b 7f3e 7701 0c3e e180 b5be 73cf 7fbe
00000360: 9233 5e3e e392 f03d 8f00 bbbd 0280 5e3c
00000370: 521c df3d b19c 41bd dd83 cebd 0cfb a13e
00000380: f145 853e c033 8dbe 3bac 79be 78e7 8d3c
00000390: d6ce dd3d 5412 4c3e 6789 673e b55f ed3d
000003a0: cb69 313e 5e3c 67be db38 fa3d d383 e5bc
000003b0: a097 7e3e 71db 683e 8a6c d6bd e99c 88be
000003c0: 1622 9c3e b303 bbbd e9ed bb3e a6ad 53be
000003d0: a7a3 8bbe 42df 90bd b82a 07be 456b 413e
000003e0: 35b4 b33e a409 9c3c 29fc 4b3e e135 4d3c
000003f0: 06b8 b03c 740a 2e3e d580 bd3e 02f4 9f3e
-0.12577094 0.37069887 -0.21210258 -0.21509537 -0.0025795947 -0.3640231 -0.051440734 -0.12617289
0.14602076 -0.34720862 0.10084782 -0.19011596 -0.3450786 -0.30260354 -0.029226426 0.24793068
0.09207321 0.2621794 -0.07025106 0.10355442 -0.03274922 0.33154264 0.09951456 0.18301724
0.17480488 0.3484491 0.096919715 0.030239968 -0.2894729 0.3056772 -0.030735357 -0.08181146
-0.114839934 0.089290954 -0.31212428 -0.10246253 -0.21882856 0.19019827 -0.11970451 -0.22988133
-0.18866614 0.02773612 0.35048002 -0.08952681 -0.013469668 -0.1566997 0.37329176 0.023643162
0.2255962 -0.07870655 0.3399567 -0.28761485 -0.043262444 -0.16188338 -0.06413173 -0.06944283
-0.1694356 -0.054894704 -0.3483265 0.35139224 -0.37642947 -0.14869936 0.32898498 -0.3283095
-0.14335474 0.0039314805 0.021914626 0.034953795 -0.29156536 0.3113523 -0.36621785 0.034076814
-0.37445942 0.01597465 0.25169364 -0.21908744 -0.121031664 -0.25818655 -0.38398847 -0.19982095
0.029846529 -0.11353666 0.10114227 0.38903156 0.26288572 0.363154 -0.34296048 -0.032764763
-0.37485266 0.014654801 -0.37362167 -0.025134591 0.34078655 -0.20847914 0.37237015 0.008663642
0.23587288 0.28723994 0.09572011 -0.11790854 -0.27633032 -0.18369615 -0.12846836 0.13254331
-0.24662192 0.3370053 -0.25569874 0.2679669 -0.060093757 -0.13354103 0.1928603 -0.10339771
-0.2582111 -0.27810544 -0.3598492 -0.27783334 -0.08098743 0.043049403 -0.18529665 -0.23831204
0.021497777 -0.06391205 0.051785745 -0.07071572 0.23366244 -0.3071117 -0.29442942 -0.15316005
-0.3566491 0.043734454 -0.030073063 0.15471722 -0.18097483 0.21095514 0.057651967 -0.24230893
-0.35726482 0.20579727 -0.36226302 -0.32669798 0.08049024 0.25217137 0.2249261 0.16647348
0.32038116 0.3743161 -0.15098147 0.26701298 -0.179525 0.3286599 -0.12138053 0.251255
0.030145483 -0.086108275 0.36593544 -0.19555525 0.116004854 0.013950485 0.0023644266 -0.12703747
0.1699612 0.06991497 0.26238626 0.047044642 -0.18277043 -0.26752412 0.024864478 0.17427061
-0.27398902 0.1278293 -0.011787039 -0.3738047 -0.03723529 0.0828605 0.2018937 0.31530762
-0.2409319 -0.009865795 -0.005172897 0.18083738 0.34820238 0.33315504 0.1746728 -0.014064146
0.05521183 -0.31418923 -0.23636462 -0.36143965 0.03549333 0.2991965 -0.042181257 -0.24495196
-0.29531905 0.15464287 0.2045003 0.044796716 0.24985255 -0.19966552 0.17969415 0.037982166
0.0557019 -0.27748874 -0.28392395 0.1831489 0.25643325 -0.17551638 0.21070492 0.2550823
-0.18306734 -0.07515873 -0.06466416 -0.33089888 0.249251 0.13672434 -0.3544989 -0.2498148
0.2169936 0.117467664 -0.09130966 0.013580324 0.108940735 -0.047268573 -0.10083745 0.31636846
0.26029924 -0.27578545 -0.24382107 0.017322287 0.108304664 0.19928867 0.22611009 0.1159052
0.17325513 -0.22581622 0.122178756 -0.02801696 0.24862528 0.2273996 -0.10469921 -0.26682213
0.30494756 -0.09131565 0.3670495 -0.2067171 -0.27273294 -0.07073833 -0.1319989 0.18888576
0.35098425 0.019047566 0.1992041 0.012525053 0.021572124 0.16996175 0.37012354 0.3124085

input_layer.bias f4 [512]
00000000: 97de 1c3e 1e17 20be d6bf 893e bb79 83be
00000010: 1ae1 9f3e 643d 69be 2303 ae3e d1c9 503e
00000020: 988e 9a3d c787 b03e dd48 ba3e ae60 9a3e
00000030: 531b 3f3e 737f aa3e d2d3 aebe 72e7 0f3e
00000040: 142b 9a3e f56d 68be 5a84 a43e c793 a33e
00000050: 8470 91be e181 a8be 6832 90be 0acf a5be
00000060: ac60 963d 1a2b 80be 264e b03e 7619 253e
00000070: db3a 843e 4c99 a2be 999f 04bd e61b 20be
00000080: c6c5 4f3d 61f6 973e edc2 0bbd f16a c4bd
00000090: 11b5 b9be 9d5e 1d3b 0857 123e effa 25bd
000000a0: 1aef 1d3e 3144 0c3d beeb 3a3e 6842 6cbe
000000b0: 7663 4b3e 4ff8 d5bd bcfd 983e 3699 a9be
000000c0: 67f0 213e e355 843e 993b 45be f797 8b3e
000000d0: 4f5b 2f3c ec94 d03d 523f 5bbd bb41 093d
000000e0: 36d4 b2be 3ec3 ea3d 7261 8cbe a218 f6bb
000000f0: 8863 793e 4fdd 523e 9614 743e 3159 2f3e
00000100: 16b7 c3bd ffdb b83d 94b4 5abe 764a 803e
00000110: 21a3 ad3e cd1d ddbd 1511 be3e 5421 fdbd
00000120: dff9 d0bd a9a6 b43e 3048 adbe 3ae9 63be
00000130: d187 b93e 5cdf 76be 438c 223e 1d63 5e3e
00000140: 87f1 84be 67ef 473e 16ef 653e 5d50 313e
00000150: 795a 67bd 5ba7 25be 2c17 c03e f14e 2f3e
00000160: 369e 8e3e 3f19 8c3e ac43 33be 0c1a 93be
00000170: 7ac7 573e 3d06 9b3e c1c8 913e 0c17 fa3d
00000180: 8e98 eabc 66a9 693e f9a7 c23e 3fda 8d3e
00000190: 8923 2a3e 8970 fb3c ad84 b43e e375 18be
000001a0: 97a9 42be 4ce7 893d 06b9 b73e f184 81be
000001b0: 04a8 bfbe 0c2f 403d a675 4e3e bf51 923e
000001c0: 1016 0e3e 4add 723e d744 9e3c 44c5 34be
000001d0: 152f 913e c778 993d ea17 1cbd 204a 653e
000001e0: 346a b63e d6d4 5e3d 8710 113e cba8 733e
000001f0: dfc4 66be c8d2 833e 5ea5 983e e369 92be
00000200: 4761 41bd 4ac6 2abe b558 9fbe 82f9 36be
00000210: a89b 15bd 808f 7abe 9d10 bfbe c1e7 333e
00000220: 88be 88be 43af 473d 0e6b aa3e ed96 3b3e
00000230: 511e b63e ee74 8d3e 158e 943e a9bf b8bd
00000240: b3b4 173e 4ad3 fabd a7a2 a93e 8ac4 883e
00000250: dd5e b2bd c3bd a43e 9a76 9c3e 920c 8dbd
00000260: 2682 ed3d d4f7 3bbe 51b5 6a3e bc41 6fbe
00000270: 819a 423e 9069 763e bf87 abbe 0a14 88be
00000280: 1fa6 b33e e43e 9d3e f0ae 3f3e 3095 71be
00000290: d8ab db3d 4606 ebbd 09e1 b6be 3acb 483e
000002a0: 01e0 a3be 63ef 04be 404f a23e f230 8d3e
000002b0: 7e20 e4bd c7f2 93bd a6e2 b33e 66eb 95be
000002c0: 17ed 0c3c 0a2a 81be 0649 fe3c 286b 4dbe
000002d0: 29e6 9dbd 3640 4ebe 8b3c 683e e947 8abe
000002e0: 1920 3bbc 114b 95be 2aaa a1be 1f6d 143e
000002f0: cd22 633e 1b30 ec3d 87a7 33bd 483a d63d
00000300: 7024 18be a09c d5bd 6328 493e 88d1 a0be
00000310: 7e11 993e 55fe b33e 1b76 ac3e e7e2 91bd
00000320: f244 10bc 332a 08be 3216 8dbe fdb0 7b3c
00000330: 2eb8 e93c 827d 75be c13d a23e 39a6 27be
00000340: ed7b 80be f6d6 a4be 057b 67be 01df 2cbe
00000350: 76eb 8c3d 029a 9f3e a621 7fbe c4f3 34bd
00000360: 1fba 38be ef5b a8be 5a42 c13d 08bb 19be
00000370: e64c a13e ec95 c53d 44b3 d43c bd2b 9e3d
00000380: 8ff1 3f3e 7d72 243c 0824 a83e f7e3 b53e
00000390: 885e 6dbd 6818 8abd bebc dd3d 4251 2b3d
000003a0: 24c0 03be 2ad3 683e f3cf abbd adbf b3be
000003b0: 35a5 1d3e 92a2 f43d 81ef a63e 918b 87bd
000003c0: 03fb 843e 2009 b63e 1b75 5b3e e691 033d
000003d0: 7691 1dbe cd9b a2be 3594 893e 6e9c ae3e
000003e0: 31ba 1d3d 6008 133e 0bab 62be 32c7 acbe
000003f0: ca3a a7be f191 8ebe 3720 07be e525 5d3e
0.15319286 -0.15633819 0.26904172 -0.2567881 0.31226426 -0.22777325 0.33986768 0.20389487
0.07546729 0.3447859 0.36383715 0.30151886 0.18662767 0.3330036 -0.3414598 0.14053133
0.3011099 -0.22698195 0.32132226 0.31948683 -0.28406155 -0.3291159 -0.28163457 -0.3238452
0.073426574 -0.25032884 0.34434623 0.16122994 0.25826153 -0.3175758 -0.032378767 -0.15635642
0.05072572 0.2968016 -0.034121443 -0.0959071 -0.36270955 0.0024012693 0.14291012 -0.040522512
0.15423241 0.03424472 0.18253991 -0.23072207 0.1986216 -0.10447752 0.29881084 -0.33124703
0.15814362 0.25846776 -0.19261016 0.27264377 0.010702922 0.101846546 -0.053527184 0.03350995
-0.3492753 0.11463021 -0.27418095 -0.0075102607 0.24354374 0.20592235 0.23835978 0.17123868
-0.09556405 0.09026336 -0.21357948 0.2505681 0.3391352 -0.107967 0.37122408 -0.123598725
-0.10203909 0.35283402 -0.33844137 -0.22256938 0.36236432 -0.24108642 0.15873818 0.21717496
-0.2596552 0.19524918 0.22454485 0.17315812 -0.056482766 -0.16177122 0.3751768 0.17119958
0.2785508 0.2736301 -0.17506284 -0.2873081 0.21072188 0.30278197 0.28473476 0.12211427
-0.028637197 0.22818527 0.38018778 0.2770557 0.16615118 0.03069331 0.35257474 -0.1488872
-0.19010006 0.067335695 0.3588335 -0.2529674 -0.37432873 0.046919867 0.20162067 0.28577992
0.13875604 0.23717228 0.019319935 -0.17653376 0.28356233 0.074937396 -0.038108744 0.22391558
0.35627902 0.054402195 0.14166461 0.23794858 -0.22536038 0.2574675 0.29813665 -0.2859641
-0.04721191 -0.16677204 -0.31122366 -0.17868617 -0.0365254 -0.24468803 -0.37317362 0.17568876
-0.26707864 0.048751127 0.332848 0.18319292 0.35570005 0.27628273 0.2901465 -0.09020931
0.14815025 -0.122473314 0.33131906 0.26712447 -0.087095 0.32176027 0.30559236 -0.06887163
0.115970895 -0.18356258 0.22920729 -0.2336492 0.19004251 0.24063706 -0.33502004 -0.2657779
0.35087678 0.30712044 0.18719077 -0.23592067 0.10726136 -0.11475806 -0.35718563 0.19608775
-0.3200684 -0.12981944 0.31701088 0.27576405 -0.1113901 -0.072240405 0.35133857 -0.29281157
0.0086014485 -0.25227386 0.03104068 -0.20060408 -0.07709915 -0.20141682 0.22679345 -0.27007988
-0.011421227 -0.29158834 -0.31575137 0.14494751 0.22181244 0.11532613 -0.04386094 0.10460335
-0.1485765 -0.104302645 0.19644313 -0.3140986 0.29896158 0.35154977 0.33683857 -0.07123356
-0.0088055 -0.13297348 -0.27555996 0.0153620215 0.028530207 -0.23973659 0.3168774 -0.16372003
-0.25094548 -0.32195252 -0.22605522 -0.16881944 0.06880848 0.31172186 -0.2491518 -0.044177786
-0.1803975 -0.3288264 0.09436484 -0.15012753 0.3150398 0.09647736 0.025964387 0.07723186
0.18744491 0.010037062 0.3283999 0.35525486 -0.05795148 -0.067429364 0.10827015 0.04182554
-0.12866265 0.22736803 -0.083892725 -0.35107175 0.15395053 0.1194507 0.32604602 -0.06618417
0.25972757 0.35553837 0.21431391 0.03212156 -0.1538752 -0.31759492 0.26870885 0.3410372
0.038507644 0.14358664 -0.2213556 -0.33745724 -0.3266204 -0.2784572 -0.13195883 0.21596487

output_layer.weight f4 [1, 512]
00000000: e922 063d 45f1 82bd 34a3 96ba 5395 3dbb
00000010: d999 57bd 394d be3c e6f6 443d 7b51 873d
00000020: d72c 55bd 20cc 87bc a9e0 40bd 9364 cfbd
00000030: 205e cd3a eb2c b73d 64e0 b0bb a5f6 6bbc
00000040: 170f 4ebc c9a9 283c 9916 d53c 2cfd 923c
00000050: 0613 b3bc 172a 763c b288 8dbd c5da 2f3b
00000060: c169 8b3d 70d0 dabc cb9a 32bd 8e7c cbbc
00000070: 9cf3 4838 8614 08bd 6c93 b4bc c29e a2bb
00000080: bae3 ccbd ef77 183c b99d d23c 86bc 143d
00000090: 02b7 263d ac41 693a 0972 8abd bd06 a83c
000000a0: 1554 5138 ba44 043c 4887 653c f7dd 3abd
000000b0: abf6 533d 30e4 203d 569d eebb f937 36bd
000000c0: a0e5 213d 165b 533c 0ff0 68bd 957e e3bc
000000d0: 8d12 0e3a 2d41 0f3d 4292 743b 7e31 91bd
000000e0: 30da b3bc f46b d93c 25de 833c 15da 863d
000000f0: 3a12 013e 7e4b e23c aad5 17bd 179c 2abc
00000100: 6bb8 bb3c ec64 103c a961 60bc 0c38 2cbc
00000110: ef5a 3a3c cf76 f3bc ac1b 263d b091 013d
00000120: 652b 823d 98ea 8cbd 0cea 863c 8a42 0fbc
00000130: 0c86 ddb9 ac9f 2ebc 5097 4dbd e571 bbbd
00000140: 5564 b53b c9d1 363d 3dc0 41bd 9ac7 433d
00000150: 7220 a43d e68b 833d 84a6 f0bc 7dfe 423d
00000160: 153b 893d 6bf2 3b3d a414 edbc f526 a23d
00000170: 2c43 643c 475c 3e3d e1f3 813d 1f61 9cbc
00000180: 0492 3c3d 0718 91bc cc8e 58bd fa11 02bd
00000190: d57d 03bc cc3d 4ebb c381 34bc 34f9 3c3d
000001a0: ad51 6c3d 681b c23d 0a0c cebc 251b a83c
000001b0: 2b97 d7bb 933e c73c dd90 babc dc59 163d
000001c0: 03b6 363d a4d5 4ebd 5b99 51bd b23c bf3d
000001d0: 8af2 113d 4ba0 a13b f9d7 7ebd 92eb 833d
000001e0: 39f0 87bd 2bd7 8cbc 5feb c73c 04ce 953b
000001f0: c17f df3c 3de8 c6bc e46e 33bd 85c6 4ebd
00000200: 8d3b f1bc 6646 613d b56b 8037 993b c93c
00000210: a137 09bd 681f 693d bee9 87bc f076 833d
00000220: a8a7 07bd 2e33 0abd 4ad0 d3bd 4f78 40bb
00000230: ef9b e73c 4707 c63c cbd8 9c3d 68a8 b5bd
00000240: 850b 3d3c 94f3 23bc a01b 77bd f8b5 92bd
00000250: 95a3 bebc 6258 3ebd f824 81bc b753 ab3d
00000260: 88c3 a23d 538c 553d 74c3 103d 27d8 5dbd
00000270: 12bf b23d 3376 393d 801c 1c3c a3e1 f0bb
00000280: 87a3 5f3d 6cdd 403a d5be 0cbd 1a12 f63c
00000290: 5289 a7bd 4d94 243d 8bca 2cbd 6964 4a3d
000002a0: ffc4 c4bc 9455 fa3b 54d0 8b3c 9be5 78bd
000002b0: 3957 b23b 9084 e2bd 6d47 77bb da22 a2bd
000002c0: d1e3 d63c 3442 9eba fe54 213c f850 33bc
000002d0: 56dd 64bd 0970 18bc fc42 d0bc 67d6 12bc
000002e0: b3cd 673c 00dc 14bc 3999 e73c 98c9 9fbc
000002f0: 0c02 1bbd 1c6c 6d3d ed27 e93d 6d30 003a
00000300: 05c6 2bbd 94b3 d73c 10d3 e5bc e192 d13c
00000310: 8bc5 fabc 147d a9bc 691d 88bc 846f 803c
00000320: 5eca c3bc 9a4b 2a3d ba9b a53a 8467 8d3c
00000330: 827f 17bd bb95 68bc ce1e 423d fae8 17bd
00000340: fc58 fdbc bdb4 353d 14c9 b73d 5a37 31bd
00000350: 7420 54bc 2fff 68bd ca43 2b3d 5c4e 093b
00000360: 1b4f dc3d 7afb f13c f080 053d 0102 00be
00000370: d7e4 a53d 16d5 2a3d b1aa bebd b151 5c3d
00000380: 1a0d 783d bab1 38bd 3052 c63b a044 85bd
00000390: e35a 82bd bdc2 403c e061 b03d 5e54 693c
000003a0: 6806 a8bd 53a0 e1bd 4bc3 6e3a 0a73 783c
000003b0: 34e3 6abb 7969 053c 3d44 15bd 74c1 c13c
000003c0: c5ef ffbc 4504 ad3b 5a04 f73c 1a27 31bc
000003d0: 044e 463c 7fd1 f6bb 55ea 0fbd ec87 cc3c
000003e0: 7957 6ebc 81be 58bc 28ca 71bd 8781 a3bd
000003f0: 3b2c 803d 1b80 b33c 5319 a43c 1ab3 1bbd
0.032748137 -0.06393675 -0.001149273 -0.0028928115 -0.052636955 0.023230182 0.048087023 0.06607338
-0.052044716 -0.016576827 -0.047089253 -0.10126605 0.001566831 0.08944114 -0.005397843 -0.014402066
-0.01257684 0.010294386 0.026011752 0.017942987 -0.021859657 0.015024683 -0.06910838 0.0026833278
0.0680728 -0.026710719 -0.043604653 -0.024839666 4.7910595e-05 -0.033222698 -0.022042952 -0.004962773
-0.10004373 0.009305938 0.025709974 0.036312602 0.040701874 0.00088980305 -0.06760032 0.020511026
4.990779e-05 0.008073026 0.014009304 -0.04562184 0.051748913 0.039280117 -0.0072819395 -0.044486973
0.039525628 0.012900135 -0.056869563 -0.02777032 0.00054196344 0.034974266 0.0037318622 -0.07089518
-0.021954626 0.026540734 0.016097138 0.065845646 0.12604609 0.027623888 -0.037069 -0.010413191
0.022915086 0.008813124 -0.013695159 -0.0105114095 0.011374219 -0.029719738 0.040553734 0.03163308
0.06355933 -0.06880683 0.016469024 -0.0087438915 -0.00042252277 -0.010658186 -0.05019313 -0.09152583
0.005535642 0.04463366 -0.047302473 0.047797777 0.08014001 0.06423168 -0.029376276 0.04760598
0.06700722 0.045885485 -0.028940506 0.07917587 0.013932031 0.04647472 0.06345344 -0.01908928
0.04603769 -0.017711652 -0.052870557 -0.031755425 -0.008025606 -0.003146994 -0.011017266 0.046136096
0.05769508 0.094778836 -0.025152225 0.020520756 -0.0065793 0.02432183 -0.022774154 0.03670679
0.044607174 -0.050496712 -0.05117164 0.093377486 0.035631694 0.0049324385 -0.062217686 0.06441416
-0.06637616 -0.017192444 0.024404226 0.004571678 0.027282597 -0.024280662 -0.043806925 -0.05048229
-0.029447341 0.054998778 1.5308944e-05 0.024564551 -0.033500317 0.056914717 -0.01659095 0.0641917
-0.033118874 -0.033740215 -0.10342462 -0.0029368585 0.028272597 0.024173392 0.076585375 -0.088700116
0.011538391 -0.010006804 -0.06032908 -0.07163614 -0.023271361 -0.046471007 -0.015764698 0.08365577
0.07947451 0.052135777 0.03534265 -0.054161217 0.0872785 0.04527874 0.009528279 -0.0073511167
0.05459931 0.0007357213 -0.03436168 0.030037928 -0.08180489 0.040180493 -0.042185348 0.049412165
-0.024019716 0.0076395962 0.017067112 -0.060765844 0.0054425267 -0.110604405 -0.0037731782 -0.07916804
0.026231678 -0.0012074173 0.009846924 -0.010944597 -0.055875145 -0.009304055 -0.025422566 -0.00896225
0.014148164 -0.009085655 0.028271304 -0.019505307 -0.03784375 0.05796443 0.11384568 0.00048900285
-0.041936893 0.026330747 -0.028054744 0.025582733 -0.030611774 -0.020689525 -0.016615586 0.015678175
-0.023900207 0.041576006 0.0012634911 0.017261274 -0.036986835 -0.014195855 0.04739266 -0.03708742
-0.03092622 0.04436182 0.089738995 -0.043265678 -0.012947191 -0.056883987 0.041812696 0.0020951247
0.10757276 0.029538859 0.032593668 -0.12500764 0.08100288 0.04170712 -0.093099006 0.053788844
0.06055937 -0.04509137 0.006052278 -0.0650723 -0.063649915 0.011765179 0.08612418 0.014241306
-0.08204347 -0.110169075 0.00091080804 0.015164146 -0.003584099 0.008142822 -0.03644203 0.023651816
-0.03124226 0.00528005 0.030153442 -0.010812545 0.012103561 -0.007532298 -0.035135586 0.024967156
-0.014547222 -0.013229013 -0.05903068 -0.0798369 0.06258436 0.021911671 0.020031607 -0.0380126
