bofire/benchmarks/models/baumgartner_aniline_cn_crosscoupling_descriptors/baumgartner_aniline_cn_crosscoupling_descriptors_predictor_1.pt (torch, 20247 bytes, 3 tensors)

input_layer.weight f4 [512, 7]
000000 af 49 68 3e 4d 12 9f 3e f3 86 8e be 4d 3d 10 3d
       0.22684358 0.3106865 -0.27837333 0.03521471
000010 b6 e5 86 be 64 92 8e 3d 64 32 c4 bc 88 de a1 3e
       -0.2634713 0.069615155 -0.02394981 0.3161509
000020 5c e9 ab 3e 96 2c 56 3e a2 e4 29 3e da f5 a0 bd
       0.33576477 0.20915446 0.16591123 -0.078593925
000030 31 19 3f bc dd 0b 8b be 50 26 ca bd 78 ea 02 3e
       -0.011663721 -0.27157488 -0.09870589 0.12784755
000040 c1 9b 98 be ee fc 00 be c3 a8 6c 3d f7 e0 be bd
       -0.2980633 -0.12596485 0.05777813 -0.093202524
000050 d4 69 a5 be 1d d5 8b 3e 2f b3 a5 bc 2a ef 90 be
       -0.32307303 0.2731103 -0.020227043 -0.28307468
000060 d7 86 a3 be 26 37 84 3e 4e 32 28 be d7 08 b6 3e
       -0.31938812 0.25823325 -0.1642544 0.3555362
000070 91 70 c5 be 04 4b b8 3e c2 56 7d bc 14 02 f7 3c
       -0.38562444 0.35994732 -0.015462579 0.030152358
000080 cc 92 77 3e fe f3 5e be 15 ab 7f 3d f0 91 b3 3e
       0.24177092 -0.21772763 0.062419016 0.3507228
000090 15 d5 a2 be a2 bb 43 be 3b 23 17 3e 82 08 80 3d
       -0.31803194 -0.19114545 0.14759533 0.06251623
0000a0 d2 9b 3b be 6b 0a eb 3c cf 54 e0 3d 79 ed cc bd
       -0.1832116 0.028691491 0.10953676 -0.10006232
0000b0 30 00 29 be 21 96 1a bc 27 cb 24 3d 1d 7a 1d 3d
       -0.16503978 -0.009435208 0.040232804 0.038446534
0000c0 9a cc 6c be ad 5c 33 3e 69 58 5b bd 77 0f 9a 3e
       -0.23124924 0.17515822 -0.05355111 0.30089924
0000d0 8c 82 94 3b 05 4f 84 be df a2 25 3e e8 0b be be
       0.004532164 -0.25841537 0.16175412 -0.3711846
0000e0 91 8d 2e 3c ce 06 42 be 35 88 bf 3c f1 5d 1e bd
       0.010653869 -0.18947908 0.023380378 -0.03866381
0000f0 63 d8 80 3e 7a 4e 91 3d 45 10 31 be d8 c2 3b be
       0.2516509 0.07095046 -0.17291363 -0.18336046
000100 58 be 6d be dd c4 5f be cd 14 78 be e6 5c 69 3e
       -0.23217142 -0.21852441 -0.24226685 0.22789344
000110 9a 77 30 bd 21 cc 59 be 73 36 bd 3e 5d 0d 78 be
       -0.04308281 -0.21269275 0.36955604 -0.24223848
000120 03 a2 10 be 68 6a 94 bd ce c3 b7 be 1d 28 a4 bd
       -0.14124303 -0.07246858 -0.35891575 -0.080154635
000130 d4 fe 02 3e 33 f1 02 be b6 30 60 be 44 d4 9b ba
       0.12792522 -0.12787323 -0.21893582 -0.0011888822
000140 44 0f 62 3e f6 5f bc 3d 4e 1d 78 be e0 48 82 bd
       0.22076136 0.091979906 -0.24229929 -0.06361556
000150 46 6e 7a 3e 3b 2a 30 3d 3c 3d a1 3e c4 17 a3 3d
       0.24456128 0.043009024 0.3149203 0.07963517
000160 26 f2 46 be e6 04 39 3d fa 8c ae 3e 28 33 5c 3d
       -0.1942831 0.045170687 0.34091932 0.053759724
000170 bd 30 0f 3e 61 2f 87 3e 57 11 89 3e 71 97 9a 3e
       0.13983436 0.26403335 0.26771042 0.30193666
000180 86 4e 75 bd dd 2d df bd 79 f3 86 3e aa a8 9c 3e
       -0.05988934 -0.108974196 0.2635763 0.3059743
000190 21 49 7d 3d 3e cd 8e be 0f 61 28 3e 9a 82 a8 be
       0.06183732 -0.27890962 0.16443275 -0.3291214
0001a0 40 7b 44 3e 76 92 f7 bc ea d6 2a 3e fe a4 96 3e
       0.19187641 -0.030221205 0.16683546 0.29422754
0001b0 84 57 68 3e fe 9c 86 3e 2c f6 98 3e b9 ed 5d 3a
       0.22689635 0.2629165 0.29875314 0.00084659044
0001c0 0c 6e 98 3d 39 cc 80 be 69 63 e9 bd 10 4a 67 3e
       0.07442865 -0.2515581 -0.11395914 0.22586846
0001d0 b9 56 87 3c bb 30 7d be 68 73 ab bd a6 e3 c3 3c
       0.016520845 -0.2472562 -0.08371621 0.023912262
0001e0 4b 56 5e bd de 52 42 be cd 16 8d be 32 07 4d be
       -0.054281514 -0.18976924 -0.27556458 -0.20022276
0001f0 99 f5 57 be b0 7f e5 bc e6 7b b1 be 3a a0 6c be
       -0.21089782 -0.028014988 -0.3466484 -0.23107997
000200 72 56 b6 be 3e 5f 20 bd fb e9 9d be 93 ea a7 3e
       -0.35612828 -0.03915333 -0.30842575 0.32796153
000210 34 a9 8b 3e 8c 22 a6 be 72 4e b4 3e a0 d2 a6 3e
       0.2727753 -0.32448232 0.352161 0.3258257
000220 0e 6e 37 be 57 38 a3 bd 8d de c5 3d b1 4d ac be
       -0.17913076 -0.0796973 0.09661589 -0.33653024
000230 25 30 67 bd e6 d9 bc bd 40 52 42 3e 32 3c f6 bd
       -0.0564424 -0.09221248 0.18976688 -0.120232
000240 e2 fc ad 3c b0 83 bb be 9e 51 e5 3d b8 5f 9a be
       0.021238748 -0.36623907 0.11197208 -0.30151153
000250 0e 5b ba 3e 3c 4f c1 be 20 60 23 3c 41 30 59 3e
       0.36397594 -0.37755764 0.009971648 0.21209814
000260 5f fa bb 3b 7c 7b b4 be 01 05 49 be 52 1d 83 3e
       0.0057366337 -0.3525046 -0.19630815 0.25608307
000270 8f 16 06 3e a8 8c ee 3d 55 8d 90 3e e2 8b ef bd
       0.13094543 0.11647922 0.28232828 -0.116966024
000280 b7 39 37 3e 26 8d 32 3e 72 a6 30 be 3e 6e 69 3e
       0.1789311 0.17436656 -0.17250994 0.2279596
000290 15 a6 a3 bd 51 95 98 3e 82 45 3f 3e ea ef 7b bd
       -0.07990662 0.2980142 0.18678859 -0.061508097
0002a0 63 6a 93 bd f6 32 2d be aa 23 3d be 0a c0 58 3d
       -0.07198026 -0.16913971 -0.18470636 0.052917518
0002b0 0d 76 a7 3e 5a 40 e3 bc 1f 75 67 3e c0 98 cd 3d
       0.32707253 -0.027740646 0.22603272 0.100389004
0002c0 19 33 1a 3e fc 74 0b 3e e5 5a b1 be d0 f7 64 3e
       0.15058555 0.13618845 -0.3463966 0.22360158
0002d0 e5 7e 3a be bb 33 8d be 20 b5 91 3e 1a e5 9d bc
       -0.18212469 -0.2757853 0.284585 -0.019274283
0002e0 49 e7 87 bd 04 23 1f 3e 98 a2 2a 3e 47 3c c0 be
       -0.06635911 0.15540701 0.16663587 -0.37545988
0002f0 3e 6f 1f be c3 df ba 3e fb 63 94 3e ba fb 46 bd
       -0.1556978 0.36498842 0.2898253 -0.04857991
000300 ca 63 a7 be 87 17 ab bd 1d 94 e3 3d cb 32 80 be
       -0.3269332 -0.08354097 0.11112235 -0.25038752
000310 17 a7 b4 3d ee 61 63 3d fa 79 b8 bd e8 05 1a bc
       0.08820932 0.055513315 -0.0900764 -0.009400822
000320 65 16 9d 3e 5f 8d cc bd 07 54 d4 bd 4b c3 9f 3c
       0.30681148 -0.09987902 -0.103675894 0.019502303
000330 7b 6b af 3e 06 12 cb bc 7f 4c 8b be 30 68 d0 bd
       0.3426169 -0.024788868 -0.272068 -0.10176122
000340 a4 33 af 3e ef 3d 85 be 27 d8 8c 3e fd 59 18 be
       0.34219086 -0.26023814 0.2750866 -0.14878078
000350 72 01 86 3e 66 97 89 3e 11 aa 7a be bc b7 d4 3c
       0.26172978 0.2687332 -0.24478938 0.025966518
000360 e3 02 06 3e ca 2c 73 be b9 84 a9 be 41 55 9c be
       0.13087039 -0.23747554 -0.33109072 -0.30533794
000370 e7 26 20 3d 5c d3 33 3d f1 6f 0f 3e ad 4c 5e bd
       0.0390996 0.04390274 0.14007546 -0.054272342
000380 a0 7d 8b 3e 98 10 8c be d2 db 9f 3e e2 ca b7 be
       0.27244282 -0.2735641 0.31222397 -0.35896975
000390 f5 63 b4 3d 62 5f 66 be cb 96 59 3c 5c 77 c3 3d
       0.08808128 -0.22497323 0.013280581 0.0954425
0003a0 9e 69 1b 3e 19 8a 61 3e ef 40 88 be 52 08 c2 3e
       0.15177009 0.22025336 -0.2661204 0.37896973
0003b0 70 c1 2e 3e 74 7b bd 3e 03 ba 79 be 0f 47 97 3e
       0.17065978 0.3700825 -0.24387364 0.295464
0003c0 7a 5e 1c bd 8b 64 15 3e 29 ee a6 3e 5c c9 bc 3e
       -0.038176037 0.14589135 0.32603577 0.36872375
0003d0 a7 b0 c7 3d d6 09 9f 3e be 70 3c be ef c3 37 3e
       0.09750491 0.31062192 -0.18402383 0.17945836
0003e0 ed 52 94 3e c6 be 59 3e 6c d0 b1 be 76 d3 40 3d
       0.28969517 0.2126418 -0.34729326 0.047076665
0003f0 09 8b 44 be 7d 0b 9d be aa 24 20 be 3a be 29 be
       -0.19193663 -0.30672827 -0.15638986 -0.16576472

input_layer.bias f4 [512]
000000 06 8e a7 3e 5b 29 8b be 3e db 3c 3d 59 03 5f 3e
       0.32725543 -0.2717999 0.046107523 0.21778621
000010 46 46 31 be 11 26 41 be e9 fc 22 be df 44 b8 3d
       -0.17311963 -0.18862177 -0.1591679 0.08997511
000020 9e 06 dd 3d e6 8d a9 be a0 95 41 be e4 67 a3 3e
       0.10792278 -0.33116072 -0.18904734 0.319152
000030 5f b3 3f be 01 fc 9b be 1a 4d 13 be ed 3c a5 3e
       -0.18720768 -0.304657 -0.1438488 0.32273045
000040 07 ad 73 be 99 b4 a4 3e 1b 70 b0 be 1c b6 2d bd
       -0.23796473 0.32169035 -0.3446053 -0.04241
000050 30 a1 69 3e f0 78 b9 3e bb e4 a6 3e b8 84 b3 3e
       0.22815394 0.3622508 0.32596382 0.35062194
000060 1f f2 b8 3d 72 e9 5d be 4c a5 cd bd df 67 d5 3d
       0.09030556 -0.21671084 -0.100412935 0.104202025
000070 ca 15 9d be c6 31 53 be 8b 24 a4 3d 42 8c 9d be
       -0.30680686 -0.20624456 0.080147825 -0.3077107
000080 8b fa 8f 3d 05 a3 b2 be 7c de de bd 9f 3e 97 3e
       0.07030209 -0.3489 -0.10882279 0.29539964
000090 71 e6 a5 be fa f5 f4 bc 8a b1 d7 bd f4 bd b4 be
       -0.32402375 -0.029902447 -0.1053191 -0.35301173
0000a0 71 e5 94 3d c7 6d 75 bd 1e 6e 20 3e 4e b3 88 3d
       0.07270325 -0.059919145 0.15667006 0.06674825
0000b0 83 f1 56 3e 8d 80 1f be 42 b3 bf bd 1b a1 83 3e
       0.20990567 -0.15576382 -0.093603626 0.2570885
0000c0 2a 51 79 3e fb fa 84 3e 58 91 bf 3e 3b 9c 4e 3d
       0.24347368 0.25972733 0.37415576 0.05044196
0000d0 21 d3 bc 3e 3c 8b bb be 87 aa 1e 3e f6 b3 dc bd
       0.3687983 -0.36629665 0.15494739 -0.10776512
0000e0 4b 30 00 be b0 de b0 be 69 35 aa 3e c7 ce b9 3c
       -0.12518422 -0.34544897 0.33243874 0.022681607
0000f0 db 2c 69 3d e4 d9 72 3e 60 fe fa bd 47 d8 83 3d
       0.056927543 0.23715931 -0.122555494 0.06437736
000100 4d 95 20 be 53 22 5e be 2c f6 8c be 49 88 2a 3e
       -0.15681954 -0.21692781 -0.27531564 0.16653551
000110 81 b3 af be 38 88 96 3e be 19 f9 3d 92 33 0d be
       -0.34316638 0.29400802 0.12163113 -0.13789204
000120 66 ae 57 be cf 48 a8 3e 7a 12 47 3e d6 d7 b5 bd
       -0.21062621 0.3286805 0.19440642 -0.08879058
000130 ca 3a 0a 3e e2 2b 30 3e 08 76 d9 bd 19 ac a7 be
       0.13498989 0.1720424 -0.10618216 -0.32748488
000140 13 80 9d 3e ad b5 53 3e 24 93 3a be c6 9f fa 3d
       0.30761775 0.20674773 -0.18220192 0.122375056
000150 d1 6c 71 bd 03 51 b2 be e7 a4 66 be 27 5e 86 3e
       -0.058941666 -0.34827432 -0.22523843 0.26243708
000160 68 d5 00 be 43 9d 88 3e 41 e1 71 be 78 7d b7 3e
       -0.12581408 0.2668248 -0.23621084 0.35837913
000170 92 a9 ea 3c 8f 83 b4 3e 13 6d a0 be ac 86 87 3d
       0.02864531 0.3525662 -0.31333217 0.066174835
000180 f0 c2 80 3e 56 bd d5 3d f7 fe 4a be 62 48 30 bd
       0.25148726 0.104365036 -0.19823824 -0.04303778
000190 69 6e f0 bd 9a e3 79 bc 50 45 7c 3e 54 b7 cd 3d
       -0.11739809 -0.015252018 0.24635816 0.10044733
0001a0 f1 32 54 3e f0 c1 bb bd 8e 70 b1 be ea ea a1 3e
       0.20722558 -0.0916785 -0.34656185 0.31624538
0001b0 1d 58 18 be 79 96 5a 3e ee da a8 3e 2f 75 4d 3e
       -0.14877363 0.21346463 0.3297953 0.20064233
0001c0 ea d6 b5 3e 8c 82 23 bd d9 cc a8 3e 79 d5 0b 3d
       0.3551553 -0.03991942 0.32968786 0.03413913
0001d0 60 fd 55 3e 76 e2 69 3b e8 2e 87 3d 24 8f a3 be
       0.20897436 0.003568796 0.066007435 -0.31945145
0001e0 94 78 ad bc 25 97 bb be 6e 68 98 be d7 11 3b be
       -0.02117566 -0.36638752 -0.29767174 -0.18268524
0001f0 fe f5 1c bd 2a 0b ba be 5c 2e 8a bd 2d b4 ad 3e
       -0.038320534 -0.36336643 -0.067471236 0.33926526
000200 7f 10 a6 3e 78 61 9d bd b0 0b 9b 3d 76 10 87 be
       0.3243446 -0.07684606 0.075705886 -0.26379746
000210 3b 86 71 3e 90 15 04 be f6 0e f7 bd ce d3 91 be
       0.23586361 -0.1289885 -0.120634004 -0.28481907
000220 59 52 44 be 58 12 77 be 3c 8c 60 3e b9 89 a5 3e
       -0.19172038 -0.24128091 0.21928495 0.32331637
000230 f6 7c 09 be 65 ff 99 bc 78 d4 72 3e 3f 10 8a 3e
       -0.13426575 -0.01879854 0.23713863 0.2696552
000240 2f 6d 9a 3d 29 25 a2 3e fe 17 3b 3e 17 d3 f4 3c
       0.07540356 0.31668976 0.18270871 0.029885812
000250 95 48 26 3d 0d 45 94 3d 98 f3 b3 be 97 7a 88 be
       0.040596563 0.07239733 -0.35146785 -0.2665603
000260 5c 32 0c be d6 4e ef 3d 3d 09 68 be e9 30 cb 3d
       -0.13691086 0.11684959 -0.22659774 0.09921438
000270 c4 9b 93 be 68 eb 34 be 07 a9 a6 bd 0b 2e 45 3e
       -0.28829777 -0.17667925 -0.08137708 0.19255845
000280 a5 06 0b be 1c 10 b7 be e3 90 b1 be 5c 0b 48 3e
       -0.13576753 -0.35754478 -0.34680852 0.19535583
000290 17 62 0e 3d 6f 7c 9e be af 48 4f be ee 33 17 3d
       0.034761515 -0.3095431 -0.2024257 0.03691476
0002a0 c9 b1 15 be ea 38 32 3e 68 c3 bc be 61 41 44 3e
       -0.14618601 0.17404523 -0.36867833 0.19165565
0002b0 79 ad c2 bd 5d bc 8b be 12 40 ba be e8 24 70 be
       -0.095057435 -0.27292147 -0.36377007 -0.23451579
0002c0 6f 81 07 3e 96 89 99 3e 26 f9 89 be f9 b7 8b 3e
       0.13232969 0.29987782 -0.26947898 0.27288797
0002d0 9d d7 80 3e 4a 64 1a be 1d d6 d8 bd 20 0e 9d be
       0.251645 -0.1507732 -0.10587714 -0.3067484
0002e0 4b 05 bc be 1d 9b c0 bd 85 4f a6 be d8 a7 2d 3d
       -0.36722788 -0.094045855 -0.32482544 0.042396396
0002f0 47 5a 87 be 25 b0 10 bd b5 29 3d be 84 7e fb ba
       -0.26436064 -0.035324235 -0.18472941 -0.0019187485
000300 6a 44 0d 3e 99 43 ec bd a5 8e 65 3e 9f aa 2c 3e
       0.13795629 -0.11536331 0.22417696 0.16861962
000310 fc d9 a1 be d6 ef c7 bd 22 12 ec 3d 6a fd b7 be
       -0.3161162 -0.09762542 0.11526896 -0.35935527
000320 38 da 89 be 6d ea b0 be 62 1f 34 3e d0 7e 4d be
       -0.269243 -0.34553853 0.17590097 -0.20067906
000330 87 59 85 3e 24 ca 9e 3e a2 80 1f 3e 23 5a 57 3e
       0.26044866 0.31013596 0.15576413 0.21030478
000340 e2 e0 34 3e 7a 52 37 be e3 e8 60 be 03 fb 1b 3e
       0.17663911 -0.17902556 -0.21963839 0.15232472
000350 a5 9c 8d be 0c 6d 6a be a7 e1 b2 be 2f ed 4d bd
       -0.27658573 -0.2289316 -0.34937784 -0.050275024
000360 15 25 c3 3d 4d 21 de bd 9f fd a6 bc e4 74 86 3e
       0.09528557 -0.10846195 -0.020384608 0.26261055
000370 79 ba b5 bd 60 77 0c be 9c 02 ee 3d 1d 70 02 be
       -0.088734575 -0.13717413 0.116215914 -0.1273808
000380 03 21 4c 3e e2 71 83 3e 72 11 8d 3e 2c 46 2a 3e
       0.19934468 0.25672823 0.27552372 0.16628331
000390 75 f1 5a be f4 30 9c be 92 ca 43 3d 1b 46 a0 3e
       -0.21381171 -0.30506098 0.047800608 0.31303486
0003a0 55 77 2a 3d a4 31 53 3e ec 8b 08 be e8 ed ba 3e
       0.04161771 0.20624405 -0.13334626 0.36509633
0003b0 26 e6 b8 be 24 bf 93 3e 1b e2 a5 3c 00 38 b5 3d
       -0.3611309 0.28856766 0.020249417 0.08848572
0003c0 68 cb a2 bd 7b 0f 62 3e d5 e0 e8 3d 65 33 ab bd
       -0.07948953 0.22076218 0.11371008 -0.08359412
0003d0 4e a5 71 3c 44 63 65 3e 73 6b a4 bd 70 10 bd be
       0.014748884 0.22401148 -0.08028307 -0.36926603
0003e0 7a b0 74 3e 21 63 37 be 0f 2b d1 bc 82 ed f8 3d
       0.23895445 -0.17908908 -0.025533227 0.12154676
0003f0 38 7e 82 be 54 02 b4 be a2 f0 1b 3e 9c 1d 15 be
       -0.25486922 -0.35158026 0.15228513 -0.14562076

output_layer.weight f4 [1, 512]
000000 19 71 a9 3c a0 27 0c bd f0 12 1a bc 69 f3 bc bc
       0.020683812 -0.034217477 -0.009403929 -0.023065286
000010 db 58 89 bd c0 60 4b bd 43 10 35 3d 18 da 2b 3c
       -0.06706401 -0.049652815 0.04420496 0.010489009
000020 6e ab 18 bc 92 78 96 3d 8c a5 4b bc 2b 35 46 bd
       -0.009318216 0.07347216 -0.012429606 -0.04839055
000030 27 e8 95 3c 96 ea f9 3c c5 cb 80 bc a4 5d 8e 3d
       0.018299175 0.030507367 -0.015722165 0.06951454
000040 2b 89 12 bd 16 89 95 bc f5 fa 5b bd d0 f3 07 bd
       -0.035775345 -0.018253844 -0.05370613 -0.033191502
000050 06 6a 0b bb b8 83 e7 3c 9a 83 06 3d c0 9b 05 bb
       -0.0021272912 0.02826105 0.03284035 -0.0020387024
000060 28 6f e5 ba 3e 40 84 bd 2a 64 86 bd b5 ba c8 38
       -0.0017504441 -0.06457566 -0.065620735 9.57152e-05
000070 97 3f ab bc ae af 94 3c 81 80 81 3b 37 3f 2d 3d
       -0.020904345 0.018150177 0.0039520864 0.042296614
000080 df 3a 3d bd f7 84 aa 3c 35 c6 1a 3d 04 2c e7 bc
       -0.046198722 0.020815356 0.03778668 -0.02821923
000090 1a 46 59 3d f4 5f 21 3d 5c 36 56 bd b4 e0 80 bd
       0.05304537 0.03939815 -0.052297935 -0.06292859
0000a0 d7 52 6e bd 85 18 f8 bc 10 26 bd bc c3 24 a9 bd
       -0.05818447 -0.03028513 -0.023089439 -0.08258965
0000b0 aa 3c cf bd bb bf eb bc f1 65 29 3c 3c 7b 6d bd
       -0.101189926 -0.028777948 0.010339246 -0.057978854
0000c0 f4 cc 91 3c eb ef f2 3b f2 99 10 bc 1d 10 2e 3b
       0.017797925 0.0074138544 -0.008825766 0.0026559897
0000d0 88 52 4d bd fe 87 1c 3d 11 9b 84 bd d5 1b 27 bd
       -0.050127536 0.03821563 -0.06474889 -0.040798027
0000e0 7e 43 fd bc 5b db 62 bb b1 eb 80 bd 24 60 56 3b
       -0.030915972 -0.003461561 -0.062949546 0.0032711113
0000f0 c6 25 51 bd 08 f6 21 bc 9e d5 0a 3d c7 d2 01 3d
       -0.051061414 -0.009885319 0.033895127 0.031695154
000100 5a ae 2f 3d 29 32 e3 bc 27 73 2f 3d 9f b6 a1 bc
       0.042890884 -0.02773388 0.042834427 -0.0197404
000110 ab 0d cf bb b2 1a 38 bd 12 bc 4f bd b1 07 05 3c
       -0.006318768 -0.044947334 -0.050716467 0.00811951
000120 f0 08 a8 3c e8 53 24 bc 35 fd cb bc 3b 15 fa bc
       0.020512074 -0.01002977 -0.024901012 -0.030527702
000130 0d 79 3c 3b 71 51 90 bd 27 44 b1 bc 47 ff 23 3d
       0.0028758675 -0.07046784 -0.021638943 0.040038373
000140 d4 75 18 bd 15 fe 07 bd bf 89 6a 3d 09 39 19 bb
       -0.037221745 -0.033201296 0.05726027 -0.0023379943
000150 8f 63 d9 bc a0 04 9e 3d be 0e 60 3c af 27 f8 3c
       -0.026536731 0.07715726 0.01367539 0.03029236
000160 ba 8f ad bc d5 72 04 3d eb 52 0f bd 05 b3 fc 3b
       -0.021186698 0.032336075 -0.034991186 0.0077117705
000170 1a 75 5a 3d 7c 35 f8 bb 17 ab ff 3c 86 3a eb 3c
       0.053334333 -0.007574735 0.031209512 0.02871443
000180 6e c2 e4 3b 9a 7e 85 bd 90 8e bd 3d e9 09 ff bc
       0.0069811856 -0.06518288 0.09255707 -0.031132655
000190 33 66 33 bd 71 23 4e bc 87 63 84 bc a0 fd 4a bc
       -0.043798637 -0.012581692 -0.01616074 -0.0123895705
0001a0 09 67 7c 3d cd 1b a0 3d 4f 37 7d 3d 05 46 5d 3d
       0.0616217 0.078178026 0.061820325 0.054021854
0001b0 2c ec 14 bd 64 b1 74 3d 13 e4 43 3c b3 1d b4 bc
       -0.036358044 0.059739485 0.011956233 -0.021986818
0001c0 4e 8c 6c 3d 38 31 37 bc 5b 0a c7 bc 22 51 b7 bd
       0.057750992 -0.011181168 -0.02429693 -0.08951022
0001d0 76 da d3 bc 74 11 53 bd 58 96 2c 3d 4f 39 98 3d
       -0.025861006 -0.051530316 0.042135566 0.07432806
0001e0 c7 b1 79 3c cc cf 73 3d 49 a2 05 bd 96 de 59 3d
       0.015240139 0.059524342 -0.03262547 0.05319079
0001f0 ac 71 99 bc 19 23 3f bd e6 fc 00 3d 8d f4 ff 3c
       -0.01873096 -0.04666433 0.031491183 0.03124454
000200 49 4a 26 3c db 24 3f bd 7b 7c e0 3b 14 6e 8a bd
       0.010149547 -0.046666007 0.0068507767 -0.06759277
000210 50 6f 94 3c 55 8a 48 bd 9f 54 a3 bb 86 45 42 bc
       0.018119484 -0.04896005 -0.004984453 -0.011857396
000220 62 dd 17 3c 09 81 ca 3c 3a 17 c1 bc 31 40 35 bd
       0.00926909 0.024719732 -0.023570646 -0.04425067
000230 48 32 c6 bb 0a cb e7 3c 2f 70 17 bd a9 4b 38 bd
       -0.0060484745 0.028295059 -0.03697222 -0.04499403
000240 90 cc 7a 3c a9 5d 0d bc fd 5b a3 3d 0f 9c cc bc
       0.015307561 -0.008628287 0.0797653 -0.024976758
000250 bf 5c 84 bd 31 39 19 bc 2e 93 c2 3c 72 1a 50 bd
       -0.064630024 -0.009352014 0.023751821 -0.05080647
000260 17 b5 3a bd a2 81 a0 bc 3f 6b 0c 3d 5e 4e c2 bd
       -0.045582857 -0.019593064 0.034281965 -0.094876036
000270 bf b2 a3 bd fa e3 be 3c b0 9d 30 bd be 7f a5 bc
       -0.079930775 0.023302067 -0.043119133 -0.020202514
000280 27 d3 38 bd d8 36 57 bd 79 0b b2 3a 53 72 f4 bb
       -0.045123246 -0.052542537 0.0013583741 -0.0074599176
000290 24 7b 09 3c a5 90 93 3d 91 53 a0 bd 3c 5b 00 bc
       0.008391175 0.07205323 -0.07828439 -0.007834252
0002a0 47 f6 1d bd a0 93 11 3e 31 8f d6 3b c5 95 60 bc
       -0.038564947 0.1421647 0.0065478315 -0.013707583
0002b0 9e 81 4b bd 45 70 a6 bc 6f 34 49 3d df c4 51 3d
       -0.04968416 -0.020317206 0.04912227 0.05121314
0002c0 ff e6 74 bc b1 b3 95 3d 82 fd 27 bd 03 07 25 3e
       -0.014947652 0.07309664 -0.04101325 0.16115956
0002d0 50 22 36 3d 88 8e 42 3d e7 0a 74 3d cf f0 90 3c
       0.044466317 0.04749921 0.05958071 0.017692951
0002e0 9d c7 38 bc 5e 04 ae bd c8 35 39 bd c8 35 2b 3c
       -0.01127806 -0.08496927 -0.045217305 0.010449834
0002f0 92 54 2c bd 99 4c ca 3b a0 57 44 bd 3c 70 bb bc
       -0.04207284 0.006173682 -0.04793513 -0.022880666
000300 1d 25 88 3d fd 45 eb 3c 40 20 c1 3c 5a 7b 16 3b
       0.06647704 0.028719896 0.023574948 0.0022961707
000310 36 1a 85 3d 7d 18 e2 3c 71 b1 1e 3d ca 2a dd 3c
       0.0649914 0.027599568 0.03874344 0.026997942
000320 dd 67 cd 3c d0 a3 41 bc d6 06 a6 bc 67 25 9b bc
       0.02507394 -0.011818841 -0.020266932 -0.018938733
000330 de 40 84 bd e3 d6 a5 3c 1d 0f 78 3b ed a6 f9 bc
       -0.06457685 0.020244068 0.0037850805 -0.030475104
000340 db d1 65 3d a1 ed 90 bd 07 af e8 3b 72 f0 e3 bd
       0.056108337 -0.07076574 0.007100943 -0.11129846
000350 ca 02 34 3c af 00 96 bb 7a 19 16 bd 22 0c 7b 3c
       0.010986993 -0.004577718 -0.03664539 0.015322717
000360 18 33 91 bd 85 17 29 bd 8e c5 05 bd 36 17 b9 3c
       -0.070898235 -0.041282196 -0.032659106 0.022594076
000370 17 4e 1b bd 04 54 0d 3c 31 cc 1e 3d 4f c8 fc 3b
       -0.03791627 0.008625988 0.03876895 0.0077143083
000380 2e cb 16 bd ca f8 93 3c 90 a4 7b bd bd 89 52 3c
       -0.03681486 0.018062968 -0.061436236 0.012850222
000390 10 49 f9 3c d0 2d 88 bd 19 57 9e 3d 7b f4 59 bc
       0.030430347 -0.06649363 0.07731456 -0.013302918
0003a0 96 71 29 3d 5e 25 5e 3d 22 ac 06 3d 0b b3 3e 3d
       0.04136809 0.054234855 0.032879002 0.046557467
0003b0 dc bd 46 3d 9b 98 f8 bc 7e 53 c2 bb ec ff 35 3c
       0.048520908 -0.030346205 -0.005930363 0.01110838
0003c0 16 7d 5a bc 3b d2 eb bc de eb 34 bd 50 1c c0 bc
       -0.013335487 -0.02878677 -0.044170253 -0.023451
0003d0 3a b1 56 3b 2f 12 ba 3d 3c 24 c0 bd a5 58 ef 3d
       0.0032759444 0.090854995 -0.09381911 0.116868295
0003e0 7c 7d 0c 3c ee fd 95 3b 16 2c 8e 3d 26 fe fe bc
       0.00857484 0.00457739 0.069420025 -0.031127047
0003f0 f9 14 ae 3c eb 41 ae 3c b9 83 e5 ba ce 8b 62 3c
       0.021250235 0.021271667 -0.001751057 0.013827277
